best_model_s34.pth (torch, 27269 bytes, 9 tensors)

latent_engine.industry_embedding.weight f4 [8, 8]
00000000: d520 493f 3e97 ad3f 7138 433f a410 bebf
00000010: 90fe 323f 65ea 7fbe 2078 e53e ae4b 60bf
00000020: 09d0 7b3f bb0e 0fbf 2c41 633e 2602 8a3e
00000030: cb15 20bf ed00 17be e1f3 003f 5879 513f
00000040: 1d50 7c3f 141b 24bf 4d21 0cbf 10d8 da3e
00000050: ca92 0bc0 5fb2 fbbb 2b8b c1bf 6a56 a73f
00000060: 834f 3cbf 21e7 933e 87b6 2bbf 1cf2 d0be
00000070: 824d 8e3f e1b0 4e3f 637f 8b3e 631b 8f3f
00000080: b787 4b3f b13e 00bf 23fc 81bf b76f e73f
00000090: 1da2 58bd 64fa 0f3e 4541 453f b661 7d3f
000000a0: 482c bfbd 8d03 e1bd 035f 2e40 70e9 ba3e
000000b0: a868 d2be 8d40 09c0 97a3 af3f 247c ac3e
000000c0: 0edc 9d3f 8cae b03f bc07 cb3d 2fa2 c83f
000000d0: 90ad c33d e8a5 36bf f235 4dbe 69ca 12be
000000e0: 432b b8be 14ef 89be 3244 bf3d b02d 39be
000000f0: ae8f 17bf 3768 0240 d952 f43d 1caf 89bf
0.7856572 1.356178 0.76258 -1.4848828 0.6991968 -0.24991758 0.4481821 -0.8761548
0.9836431 -0.5588185 0.2219283 0.26954764 -0.62533253 -0.14746447 0.5037213 0.8182578
0.98559743 -0.6410382 -0.5473831 0.42742968 -2.1808343 -0.0076811756 -1.5120596 1.3073246
-0.73558825 0.28887275 -0.6707539 -0.40809715 1.1117404 0.80738646 0.27245626 1.1180233
0.7950396 -0.5009566 -1.0155071 1.8080968 -0.05288898 0.1406036 0.7705272 0.9897722
-0.09334618 -0.109870054 2.724549 0.36506224 -0.4109547 -2.1445649 1.3721799 0.33688462
1.233278 1.3803267 0.099135846 1.5674495 0.09554589 -0.713469 -0.2004011 -0.14335026
-0.35970506 -0.26940215 0.09339179 -0.18083835 -0.5920361 2.0376108 0.119298644 -1.0756564

latent_engine.prior_mlp.0.weight f4 [64, 14]
00000000: 1b42 24be c43b 8a3d e18a 313e 4bd1 5e3e
00000010: 8c1c ef3d af15 363e 2f0f 543e 0ba9 8a3e
00000020: 9af7 0cbe 9a3a 7cbc 687b 3cbd 4665 7e3e
00000030: 1b8e a93e d410 4b3e 0c93 613c 7809 673e
00000040: d3fc 36be 6381 05be b67c 5bbe 9795 72be
00000050: 2c1a acbd 8ba6 e43d e53f 613d a91a a2be
00000060: c4d3 413e f88b 483c 82ee 313e 7e37 15be
00000070: c769 bdbd aa65 79bd b73f 92bd 1218 51bd
00000080: e7fd 773e 7c5b 41bd 4882 86be b0b4 103e
00000090: fff0 2bbd 9a6a debd 008f 883e d720 553d
000000a0: 3674 35be e36e f83c de9f 77be 4f08 19bd
000000b0: 639b 4d3e 2847 8b3d 4044 943d fc4a 5fbd
000000c0: 91da 093e e8ce c63c c351 ecbd 3883 bbbc
000000d0: 80d6 b93e e4c0 9cbe 1a95 413e 33d2 16be
000000e0: bb65 833e af32 5dbe 62cd 533e f793 593e
000000f0: 18fa 863d 716f 883c 8d83 d9bd d370 903e
00000100: 80ff 223e 295c 06be 99df 85bd 4d53 10be
00000110: 4e8d df3d a840 25bc 0a3f 583e 97a0 973d
00000120: 6954 85bd 716a 76be 4ba8 453d 996b 71be
00000130: 3d16 0c3e 26fa 763e 0fa1 a9be 9edb a6be
00000140: ad66 603d 988e d43d 1944 543c 4600 18be
00000150: 14fb 443e a275 893e 4734 50bd 25b8 c8bd
00000160: 9c26 c43c 6020 943d 308c 26be 3444 ffbc
00000170: 757a bcbd 5650 6c3e c9a7 a9be d7d6 2f3e
00000180: b335 023e 06b9 c93c 26ec 67bd 2c79 0e3d
00000190: 810d 103d c0ff 56bd 28db 2f3d 847b 3a3e
000001a0: d6a6 20be 879e c4bb d1b8 f03d 9287 29bd
000001b0: a6f1 973d b3ac 4fbe 2ecc cbbd 955d 6fbe
000001c0: 002c a1be 1d08 943d 72c6 80be f445 c93d
000001d0: 9149 243e e78b ac3d df29 393d 4b0d 03be
000001e0: 914c 1bbe 932a 8c3c 3ffa b0bd e90e 15bd
000001f0: 8512 0bbe 6599 233e fb21 c23d 35c7 30be
00000200: 08dd 593d 155c 87be 9a6b 5fbd ef63 10be
00000210: 1d11 b4bd b445 103e 637d 5ebe 8157 bf3d
00000220: afa1 cbbe fad8 a4be 19e6 94bd fdf3 f0bd
00000230: 48b6 8d3e 1cf0 083e a74d 553e 8163 46be
00000240: 7b7c 113e df11 803e 605c 24be 6ad2 1e3e
00000250: 8913 5dbd e04d 47bd 20e2 8bbe 6ef0 093e
00000260: afa8 163e d08e 2c3d 7764 2d3d 6f3c 7a3e
00000270: e62a 10be 8caa 3cbe 4278 7c3e ab78 79bd
00000280: 5e7b 5d3e 6c75 69be c557 533e 2c31 533e
00000290: 979c 733e 0649 563e 18ef b3bc 32b9 87be
000002a0: 8644 a03e 1562 83be 65c0 1ebe 9da5 92bc
000002b0: 14ed 473e c9af 423e 5110 febd 6b7b 35bc
000002c0: 7a4b c4bd ce8c 0cbe ac4b a0be ec0f 6a3e
000002d0: 913f 623e 24f6 5bbe 6a6d be3d f9e3 51be
000002e0: 5cd8 613d 480f ca3b 7416 a13d 8660 283e
000002f0: ea6a 80bd 5ad9 7abd 519e 6c3e 16d8 4a3c
00000300: 4bdb bb3e 36aa 6bbe 7c4f 5fbe 8c91 ed3d
00000310: 99ec d6bd 6dc8 46be 0ccd 533e 68b6 0b3e
00000320: df5b b43c 4495 6d3e 6610 183e ab2b af3d
00000330: 4b20 023e 43cb 85be 23e0 853d 5ff3 163e
00000340: 2f25 82bd cc9f 74be 60e4 e2bd b68c c23d
00000350: 45c7 92bc 3a0b 69bc 474f 393e c0ca 103e
00000360: b232 76be ef8f 30be 2b05 8dbe d797 d93d
00000370: e8e4 83be 1226 3ebe bbe9 8dbe 89da 803e
00000380: 5d67 a33d 403c 723d 675a 493e c404 813d
00000390: 9403 68bd abf0 9a3d c9e4 1c3e 01f6 30be
000003a0: 8ba2 16be e207 023e 5b8b 423e 7140 5a3d
000003b0: 9867 5fbe 1df3 2ebe cc8e 233e 58f7 38be
000003c0: e922 67be e070 053e 81bd 153e a535 453e
000003d0: 978d 3f3d d9f3 5abc 53ff 083e 2565 803e
000003e0: 2d7c 993e f78c 003e 41da 513e c1fb 4d3d
000003f0: 5a23 99bd cf60 283e 12fe 18be 9df8 8dbe
-0.16040842 0.06749681 0.17338134 0.21759526 0.11675367 0.17781709 0.20708917 0.27082095
-0.13766328 -0.015394831 -0.046016127 0.2484332 0.3311623 0.19830638 0.013767969 0.22562206
-0.17869882 -0.13037638 -0.21434292 -0.23689876 -0.084034294 0.11164578 0.054992575 -0.31660965
0.18928438 0.012240402 0.1737614 -0.1457195 -0.09248691 -0.06088797 -0.07141059 -0.051048346
0.2421795 -0.047206387 -0.26271272 0.14131427 -0.04197788 -0.108601764 0.266716 0.05203327
-0.17720112 0.030326312 -0.24182078 -0.03736144 0.20078807 0.06800681 0.0723958 -0.05451487
0.13462283 0.024268582 -0.11539032 -0.022889718 0.36296463 -0.30615914 0.18904534 -0.14728622
0.25663552 -0.21601366 0.20683816 0.2124785 0.0659067 0.016654702 -0.106207944 0.28211078
0.15917778 -0.13121094 -0.065367885 -0.14094277 0.109156236 -0.010086216 0.21117797 0.07403677
-0.065102406 -0.24064042 0.0482562 -0.23576201 0.13680358 0.24118862 -0.3313069 -0.3258943
0.05478542 0.1037876 0.012955689 -0.14843854 0.19236404 0.2684756 -0.050831106 -0.09800748
0.023944192 0.072327375 -0.16264415 -0.031160451 -0.09203044 0.2307752 -0.33135822 0.17171799
0.12715797 0.024624359 -0.056621693 0.034783527 0.03516913 -0.052489996 0.042933613 0.1821118
-0.15688643 -0.0060003432 0.11754001 -0.041389056 0.07419138 -0.20280723 -0.099510536 -0.23375542
-0.31478882 0.0722811 -0.25151402 0.098277956 0.16043688 0.08425122 0.045205947 -0.1279804
-0.15165927 0.017110145 -0.08641481 -0.036391173 -0.13581283 0.15976484 0.094791375 -0.17263491
0.053189307 -0.2643744 -0.054545976 -0.14100622 -0.087923266 0.1408909 -0.21727519 0.09342862
-0.39771792 -0.3219679 -0.0727045 -0.11765287 0.27678132 0.13372844 0.20830403 -0.19373895
0.14207642 0.25013635 -0.16050863 0.15509954 -0.05397371 -0.04865825 -0.27320957 0.13470623
0.14712785 0.042128384 0.04233214 0.24437116 -0.14078864 -0.18424433 0.2465525 -0.060906094
0.21629092 -0.22798699 0.2063895 0.20624226 0.23790203 0.20926294 -0.021964595 -0.2650848
0.3130228 -0.25660768 -0.1550308 -0.017901236 0.19524032 0.19012369 -0.12405456 -0.011076788
-0.095847085 -0.13725588 -0.31307733 0.22857636 0.22094561 -0.21480614 0.09298213 -0.20497121
0.055137977 0.0061663724 0.07865611 0.16443071 -0.06270392 -0.06124244 0.23107268 0.01238062
0.36690745 -0.23014149 -0.21807665 0.116000265 -0.10494346 -0.19412394 0.20683688 0.13643801
0.022016464 0.23201472 0.14850006 0.08553251 0.12707631 -0.2613164 0.06536891 0.14741276
-0.063547485 -0.23889083 -0.11078715 0.09499495 -0.017917285 -0.014223868 0.18096648 0.14139843
-0.24042776 -0.17242406 -0.27543005 0.10624664 -0.2576058 -0.1856921 -0.27717385 0.2516673
0.07978699 0.05913949 0.19663392 0.06299737 -0.056644037 0.07565435 0.1532165 -0.17281343
-0.14710443 0.1269832 0.18998472 0.053284112 -0.21816862 -0.17084928 0.15972441 -0.18063104
-0.22571911 0.1303134 0.14623071 0.19258745 0.04676589 -0.013363802 0.13378648 0.25077167
0.2997755 0.12553774 0.20493414 0.05028892 -0.07477446 0.1644318 -0.1494067 -0.2772874

latent_engine.prior_mlp.0.bias f4 [64]
00000000: 52a2 0fbe c539 76be 36da 34be 9383 c9bd
00000010: 7578 ce3d f089 533e dc2c 81bc 41f5 babc
00000020: 059a 153b 94fc 3f3d 9106 7a3e 4062 bfbc
00000030: c915 18be 94d1 cb3d 1872 18be cd4e 6cbb
00000040: 40fe 4a3e 7410 babd affb 3e3d 6c3d 8b3d
00000050: 02fe a9bc 75bf 233e fa7a 61bc 5dc7 0dbe
00000060: a9eb 23be 39b1 dc3c d66e 1cbe df95 9abd
00000070: b5e7 32bd 6a8c 28bb 048c 98bc 75c8 59be
00000080: 8aa6 7ebe 792d 083e cf43 9abd 00aa eb3d
00000090: af72 1d3e d1aa cebd 2b70 793d 0302 e6bd
000000a0: be02 4d3e 7c65 ddbc 6129 193d 410d b4bd
000000b0: 5ab9 fabd b8fc 803e ce7c 76be 1ca0 7bbd
000000c0: 6629 723d 1385 893e 372f 2b3d 2f3e 103e
000000d0: da58 333e 2b9e 263d 91ad 72be 68ac 47be
000000e0: b03a 2bbe 2f60 47be dea9 99be 32a5 fe3d
000000f0: 99ea a2bc 340c 4dbe 1002 afbd ef00 b0bd
-0.14026764 -0.24045475 -0.17661366 -0.09839549 0.10081569 0.20658088 -0.01576846 -0.022822024
0.0022827398 0.046871737 0.24416567 -0.023362279 -0.1485206 0.09952083 -0.14887273 -0.003605771
0.19823551 -0.090851694 0.046626743 0.06798825 -0.020751003 0.15991004 -0.01376223 -0.13845582
-0.16007866 0.026939975 -0.15276656 -0.07548117 -0.043678004 -0.002571846 -0.018621452 -0.21267875
-0.24868217 0.13298596 -0.07532465 0.11507034 0.1537578 -0.100911744 0.060897987 -0.112308525
0.20020577 -0.02702593 0.037392978 -0.087915905 -0.12242384 0.2519281 -0.24071047 -0.06143199
0.059121512 0.2685934 0.041793074 0.14086221 0.17514363 0.040678184 -0.23699023 -0.19499362
-0.16721606 -0.19470285 -0.3001241 0.12433852 -0.019887256 -0.20024186 -0.08545315 -0.08593928

latent_engine.prior_mlp.3.weight f4 [64, 64]
00000000: b7ee ddbb 48e1 cebd 72ac 173e aebb 243e
00000010: db25 c9bd 78c9 073e 7fbd d93d d42b c6bb
00000020: 2b69 c3bd f707 88bd ae7b 0b3d 34eb 313e
00000030: 7877 713d 0a72 34bd e413 2d3d 0ad3 c13d
00000040: b079 4c3d 7100 21be bd77 3ebb 17c8 3fbd
00000050: 581d 3fbe 7098 b33d 64b1 55bd 3f4b 213d
00000060: 9ed5 63bd a244 133d 4ab5 283e b8c7 a03c
00000070: ab46 38bc 49fa f9bb e26a 0cbd 674f 83bd
00000080: efe1 183e 85f0 4ebd 3136 3ebd bbdc ecbd
00000090: 16e5 653d 450f 12be 0360 ed3d 8d8d cb3d
000000a0: 72ec 073d 8b28 c43d d619 d23c 8ba4 8fbd
000000b0: 1583 06be f01b 5d3d 85dc eabd be1c c23d
000000c0: facf 38be 47d5 e1bd 3f6a 9fbc 7b78 1fbc
000000d0: 3acb 813d e8bb 973d 831e c6bc 4091 6db9
000000e0: b033 e8bb d962 463d df75 683d 4423 743d
000000f0: c1ac 903d e640 263d aa14 9f3d f7df a23d
00000100: 007f 363c 62b3 913d 919f 8b3d 3b71 fabd
00000110: ac1e b0bb badd e6bd 8b40 96bd 277d 753d
00000120: 945b 0c3e eb71 7cbc 29d3 d73d da94 303c
00000130: 59b6 c4bc 4cc8 4a3d b8c9 cc3b 0898 2abe
00000140: a9da 43bd 7420 8ebd a95c 0bbe 7f92 41bd
00000150: 6862 bc3d 0616 d1bd 3306 d33d 21a1 29bc
00000160: 0e20 c23d b78e d2bc f413 1fbe 1530 5abd
00000170: 1a5c d2bc 4ace 3ebe e67e f93d 98ca 8c3d
00000180: 30b7 11be a9eb e83d bcf0 fcbc 8c19 e93d
00000190: 9125 fd3d de19 d73d f9e2 3e3d 4653 473c
000001a0: e783 e5bc d9da 033e b400 e13d b6e8 6bbd
000001b0: 8009 1ebb 8e03 eb3d 9063 583d 6f2b 34bc
000001c0: 40aa e2bc 4e55 bc3d 1b5a ab3d 627d adba
000001d0: a342 d8bd b3d2 b0bb 5fdd 603d 0209 81bd
000001e0: ba24 b3bd c5f3 ffbd bb6d 813d 84fe d33d
000001f0: 9686 dabd e676 993d 1e6e 7c3d 1de9 313b
00000200: 7d5d dcbd a74a b73d c660 203d db76 413c
00000210: e373 37be 500c c4bd 6cef 12bd 8a15 ae3d
00000220: 2b8b a13d 5d65 d93b 8537 e8bc c228 e63c
00000230: 2a71 afbc 5465 b5bd 5d96 a93c 57f4 4cbd
00000240: 1e0f 303d b47b bbbc 9dd6 efbd b24f e6bd
00000250: d5c7 a93d d9b4 3bbd 723b 1c3c 498e 12bc
00000260: ef20 d2bc 128d 08be 98e1 403d 4b38 bb3d
00000270: 2219 3b3d 835b 1c3d d1ea 313b b94c 903d
00000280: 3590 c5bd 50e8 6ebd f091 b03d dcfe eabd
00000290: 7603 25be 65eb 0dbd c781 a6bd 5830 b03d
000002a0: d4b4 c33d 00f1 a3bd a3b6 a0bc d36b a1bd
000002b0: 6952 9dbd 31fa d2bc f8c4 b03d 7e40 003d
000002c0: 6e3f 18be 435f c43d 2d11 a3bd 07ca dc3d
000002d0: b9ab 07be 0c6f efbd 40f3 c8bd 5624 acbc
000002e0: f47c 02be 0078 b23d 15a9 0cbd 1247 a3bd
000002f0: a0d4 a7bd a10f 16bc ddd4 ee3d 485e 7f3d
00000300: 21ab 0ebd b30d 4f3d 125d 7e3d 95b8 d13d
00000310: b691 13bd a0e3 6f3d 8c40 53bd 59da 0a3d
00000320: d480 5cbd 3c90 c8bb b21c 7e3d a2f8 8abd
00000330: f68e cabd d23e c6bc a349 c73d 52db 213d
00000340: da91 843d 5c30 edbd 03ec b1bd fd30 7bbd
00000350: 271c 01be d9e5 373d 27e4 853d 89b0 c93c
00000360: d04b 14be ce86 37be b48b 673d ff84 26bd
00000370: 1a7f c6bd 2b3a 22bd 19d5 cf3d 5f3d 7bbd
00000380: 4dbd 013d 4ba7 c1bd 5046 8e3d 7dc4 cf3b
00000390: 5be5 2d3d 5eb0 8cbc aaf9 883d 6bcd 0fbd
000003a0: c535 9cbc ada9 b53d b6a6 ae3d f04c 53bd
000003b0: 6717 39be 292b 583d a9e9 b4ba c62f 3dbd
000003c0: 6190 03be 4e37 d8bd f4f1 b7bd 7030 893d
000003d0: 4990 2b3d b6c2 a6bc c143 213e ebb5 1abc
000003e0: d37e 2bbe 4a05 6ebd 1916 ab3d b2c2 48bd
000003f0: 67d4 463e b8be 8ebd b3b7 cdbd 3850 0fbe
-0.006772842 -0.10101563 0.14811876 0.16087219 -0.098216735 0.13260448 0.10631847 -0.006047705
-0.095415436 -0.06642144 0.034053497 0.17374879 0.058951825 -0.04405407 0.042255297 0.09464081
0.049920738 -0.15722825 -0.0029063069 -0.04682168 -0.18663538 0.087693095 -0.052171126 0.0393784
-0.055623643 0.035954125 0.16475406 0.019626483 -0.011247317 -0.0076287133 -0.03428162 -0.06411629
0.14929937 -0.050522346 -0.0464384 -0.115655385 0.056126676 -0.14263637 0.115905784 0.09939108
0.033184476 0.095780455 0.025647085 -0.07013806 -0.13135941 0.05398172 -0.11467842 0.094781384
-0.18048087 -0.110270076 -0.019459842 -0.009733315 0.063375905 0.07408887 -0.024184471 -0.00022656191
-0.0070862398 0.048434112 0.056753036 0.059603944 0.070642 0.040589236 0.07767613 0.07952874
0.011138678 0.07114293 0.06817544 -0.12228628 -0.00537475 -0.1127276 -0.07336529 0.059933808
0.1370681 -0.01540802 0.105383225 0.0107776765 -0.024012731 0.049507424 0.0062496327 -0.16659558
-0.047815952 -0.06939784 -0.13609566 -0.04725885 0.09198457 -0.10209279 0.10303917 -0.0103533575
0.0947877 -0.025702817 -0.15534955 -0.05326851 -0.025678683 -0.1863338 0.12182407 0.06874579
-0.14230037 0.113730736 -0.03087651 0.11381826 0.12360681 0.10502981 0.046603177 0.01216585
-0.028016998 0.12876453 0.10986462 -0.057594977 -0.002411455 0.114752874 0.052829325 -0.0109966835
-0.027669072 0.09195958 0.08366796 -0.001323622 -0.10559585 -0.005396211 0.054898616 -0.06300546
-0.087472394 -0.12497667 0.063197576 0.103512794 -0.106702015 0.07493381 0.061628453 0.0027147003
-0.10760019 0.08949786 0.03915479 0.0118081225 -0.17915301 -0.09572661 -0.03587286 0.08500202
0.07887872 0.006634398 -0.028346786 0.028095607 -0.021416266 -0.088572174 0.020701582 -0.050037708
0.042983167 -0.022886135 -0.11710856 -0.112456694 0.08290068 -0.045826767 0.009535657 -0.008945056
-0.02565047 -0.13335064 0.047090143 0.091415964 0.045678265 0.03817321 0.0027148018 0.07045884
-0.09646646 -0.05832702 0.08621585 -0.11474392 -0.16114601 -0.034648318 -0.08130222 0.08602971
0.095559746 -0.080049515 -0.019618338 -0.07881894 -0.07681734 -0.025754066 0.08631319 0.031311505
-0.14867947 0.09588482 -0.079622604 0.10780721 -0.132491 -0.116911024 -0.09812021 -0.02101342
-0.12742978 0.087142944 -0.034340937 -0.0797254 -0.08194852 -0.009159 0.11661694 0.062345773
-0.03483117 0.050550174 0.062100478 0.10240284 -0.036027633 0.05856669 -0.05157523 0.03389964
-0.053833798 -0.0061207097 0.062039085 -0.06785704 -0.09890549 -0.024199877 0.09730842 0.0395158
0.064731315 -0.115814894 -0.08687594 -0.061326016 -0.12608396 0.044896934 0.06537657 0.024620311
-0.14482045 -0.17922518 0.056529716 -0.04065418 -0.096922114 -0.039606255 0.10148067 -0.061337825
0.031674672 -0.09455737 0.06947005 0.006340562 0.04245506 -0.017173942 0.06688245 -0.03510801
-0.019068608 0.08870254 0.08527891 -0.051587045 -0.18075334 0.052775536 -0.0013802546 -0.04618814
-0.12848045 -0.105574235 -0.08981696 0.06698692 0.041885648 -0.020356517 0.15748502 -0.009442787
-0.16747598 -0.058110513 0.08353824 -0.0490138 0.19416963 -0.069699705 -0.100448035 -0.13995445

latent_engine.prior_mlp.3.bias f4 [64]
00000000: b4e7 21bd aebe 843d 37be a1bb 1502 0c3d
00000010: ddd9 eb3d 68f2 013d 2bf1 9b3d 2569 083c
00000020: 159d c5bd 8e9d debd 74de da3a 8a5e 62bd
00000030: e376 b1bc 7540 87bd bd31 40bd 15ec 1b3d
00000040: d8bf b4bc c4e0 a33b ab02 d2bd 819e f53b
00000050: a7a2 f1bd 25fe 10be 5dde 02be 12f9 ad3d
00000060: b00e 753c 35b3 66bd a1cf 40bd 72dd de3d
00000070: 55e0 4d3d 10da 65bc 9da2 823c 7e1b 95bb
00000080: 7632 4cbd affa 13bc 9b29 f63d 005f 51bd
00000090: bff0 92bd 3922 cb3c 78aa 013e 8adb 31bb
000000a0: 716c 6d3d bc3b e53d 0fdf 80bb d8c9 023e
000000b0: afe5 ee3d 1f97 ba3c ec2d 98bd c626 a63d
000000c0: 47fc 603c 4623 80bc d221 1dbd 0835 67bd
000000d0: 36e9 0ebe 0f86 7fbd bc02 b23c 8d0c b5bd
000000e0: c1ca f83c e800 fe3d 58bb 823d b349 743d
000000f0: f9d2 f5bd 2920 ba3d c1cc f73d e3f4 21be
-0.03952761 0.06481682 -0.0049360055 0.034181673 0.115161635 0.031725317 0.076143585 0.00832585
-0.09649102 -0.10869895 0.0016698376 -0.05526594 -0.021663135 -0.06604091 -0.046922434 0.038066942
-0.022064134 0.0050011594 -0.10254415 0.007495702 -0.117986016 -0.14159448 -0.12780137 0.08494772
0.014957115 -0.05632325 -0.04707301 0.10882081 0.050262768 -0.014029041 0.01594668 -0.0045503965
-0.04985281 -0.009031936 0.12019654 -0.05111599 -0.07174825 0.024796592 0.12662685 -0.0027138912
0.057964746 0.11193034 -0.0039328407 0.1277231 0.116649024 0.022777138 -0.07430634 0.08112864
0.013732023 -0.01564182 -0.03836233 -0.05644706 -0.1395615 -0.062383708 0.02172982 -0.088402845
0.030370118 0.124025166 0.06383389 0.059640598 -0.120031305 0.09088165 0.120996006 -0.15816073

latent_engine.mu_head.weight f4 [1, 64]
00000000: d420 aebd 436a 913d 0fbb 47bd 35c7 f0bd
00000010: d6aa b93a 8304 aabc e9c4 9fbc 61e5 05bd
00000020: f79e 2ebd d7fb 9bbd b8ec c0bb ff60 64bd
00000030: 889b 9abd 2ef1 23be 2799 5b3d 5ba7 64bd
00000040: 76e9 be3d 3e66 ffbd 028e b53d 9f22 033e
00000050: c24a ca3c 8de0 3abc e57b ba3d 5ebf 863d
00000060: 72e3 17be ddd4 06be e5f8 f7bc 8792 3d3d
00000070: 5f83 d13d 4d69 4fbe 1b7b da3d 1d36 293d
00000080: 1d81 0cbe 2a25 45bd 0b2d 683d edfb dabd
00000090: f6cc 303c e951 d03d 65ca 003e dde8 f43d
000000a0: f1cd 0abe ed32 8b3d f762 c23d c016 053e
000000b0: 1c17 8e3c 0721 ae3d ceea 0b3e c8a6 af3d
000000c0: 5bea e5bd d65e 293e aa75 e2bd 4b3f 94bd
000000d0: 6a0f 00bc 9c15 da3d 04c6 c73d 98c5 e53d
000000e0: 9ac0 803d a72d 79bd a713 aa3d f97a 193d
000000f0: 93cf e6bd a602 3bbc d7f2 f8bc d38e 13bd
-0.08502355 0.07100346 -0.048762377 -0.11756746 0.0014165293 -0.020754104 -0.019503074 -0.032689456
-0.04263207 -0.07616394 -0.005887594 -0.055756565 -0.075491965 -0.16009971 0.053612854 -0.055823665
0.09321873 -0.12470673 0.088649765 0.12806176 0.02469385 -0.011406076 0.09105662 0.06579469
-0.14832857 -0.13167138 -0.03027005 0.046282317 0.10230135 -0.20255013 0.10668012 0.041311372
-0.13721128 -0.048131146 0.05668358 -0.10692582 0.010791054 0.10171873 0.12577207 0.11958478
-0.13555123 0.06796823 0.09491532 0.1299696 0.017345004 0.08502393 0.1366379 0.08576733
-0.112263404 0.16540083 -0.11057599 -0.07238635 -0.007816175 0.10648653 0.09754565 0.11219329
0.06286736 -0.060834553 0.0830453 0.03747079 -0.112700604 -0.011414206 -0.030389233 -0.03602488

latent_engine.logvar_head.weight f4 [1, 64]
00000000: 78d5 b6bd 1330 653b 449b 90bd 457d 0bbe
00000010: 94a9 fbbc c518 823d 326c a0bb 4d8d b3bd
00000020: b7c7 73bd 45d1 903d d046 863d fba8 bebd
00000030: e04e d2bc c16a db3c 381e a9bd f1ec 1dbe
00000040: 1e54 d83d 5b38 ccbc 0be9 923c 7a79 9e3d
00000050: a9c0 7d3d ee4d c43d 097e 2bbc 09fa 1d3d
00000060: c424 a73c c839 89bc 1f5d c73d c215 c1bd
00000070: 7d82 06bd 2a3b d3bd 27a9 1f3b 05ec 1abd
00000080: 5bbb 1f3d 2a70 0abe 5756 91bd 7a5f a5bd
00000090: 3c36 c33d 08c2 69bd 99df ab3d 694b a4bb
000000a0: 36eb a2bd 9946 e53a 5d01 883d 4a83 35bd
000000b0: 5ffb aebd e1e3 8d3c 99c4 87bd 0af8 3abd
000000c0: f87a a2bd 191f 973c 1fd8 5a3d b029 c3bd
000000d0: 36ff 913d 1702 1d3d bb3a 023e d103 c8bb
000000e0: 39b3 edbb 6d38 05bc 4e73 16bc 1fcf 39bd
000000f0: 72d4 d1bd 46c8 143d e690 92bd 8c2a 9a3d
-0.08927435 0.0034971281 -0.070608646 -0.13622005 -0.03072051 0.06352381 -0.0048957104 -0.08767185
-0.059516635 0.07071165 0.06556475 -0.09309574 -0.025672376 0.026784303 -0.08257717 -0.15422417
0.10562919 -0.024929216 0.01793339 0.077380136 0.061951313 0.095851764 -0.010467061 0.03856853
0.020403273 -0.016751185 0.09734558 -0.09427978 -0.032839287 -0.10314019 0.0024362297 -0.037822742
0.038997035 -0.1351935 -0.07096546 -0.08074851 0.09531829 -0.05706981 0.08392257 -0.0050138724
-0.07955019 0.0017492353 0.06640885 -0.04431466 -0.08544039 0.017320575 -0.06629295 -0.045646705
-0.07933611 0.018447446 0.053428765 -0.09529436 0.07128756 0.03833207 0.12717716 -0.0061039706
-0.007254031 -0.008131129 -0.009182764 -0.04536354 -0.10245599 0.036323808 -0.071565434 0.075276464

fusion_layer.alpha_s f4 [34]
00000000: 636d e73e 2a1a 163f 9130 f53e 8a09 e83e
00000010: f635 fc3e c300 2b3f 6bc6 1b3f d99b 223f
00000020: 5544 ff3e 6d38 2b3f f917 113f 46b1 333f
00000030: 3e39 223f 0acf 1e3f c920 4e3f e8f4 383f
00000040: 8ef3 143f 58f3 e13e 22be 273f da86 fb3e
00000050: 00a2 123f 6c8a 3e3f db5f 1d3f aad7 2a3f
00000060: 655c 283f 193c 283f 8187 de3e 18ba 0f3f
00000070: 444f 383f 3b80 0a3f 12bf 383f 2982 0d3f
00000080: 2dec 103f 0000 003f
0.45200643 0.58633673 0.47888616 0.45319778 0.4925992 0.6679804 0.60849637 0.63519055
0.4985682 0.66882974 0.56677204 0.7019237 0.63368595 0.62034667 0.80518776 0.722487
0.58184135 0.4413097 0.65524495 0.4912632 0.5727844 0.74429965 0.6147439 0.6673533
0.6576598 0.657167 0.43462756 0.5614333 0.7199595 0.54101914 0.7216655 0.55276734
0.56610376 0.5

fusion_layer.g_s f4 [34]
00000000: cd68 d03e 390f 0c3f d93b f03e 53e5 c93e
00000010: 26dd 003f c824 133f 5356 d63e 507a d23e
00000020: 0d50 ea3e 910d 163f ef39 073f de88 113f
00000030: 2fa5 1d3f a23b fc3e 64d6 be3d 2078 113f
00000040: 334d e93e ec26 8a3e 726c fc3e 0860 d03e
00000050: 3ed5 d43e 258f 023f df3a f33e e90c 123f
00000060: 8058 e53e 4532 163f 958f 643e 99ac c23e
00000070: bb64 063f 9d2d c63e 6ef0 f03e 8680 ee3e
00000080: 9f3f a33e 0000 003f
0.40704957 0.5471073 0.4692066 0.39432773 0.50337446 0.57478 0.41862735 0.41108942
0.457642 0.5861445 0.52822775 0.5684947 0.61580175 0.49264246 0.093182355 0.5682392
0.4556671 0.2698282 0.49301487 0.40698266 0.4156894 0.5099967 0.47505853 0.5705095
0.44794083 0.58670455 0.22320397 0.38022307 0.5249745 0.38706675 0.47058433 0.4658243
0.31884477 0.5
