best_model_s32.pth (torch, 27269 bytes, 9 tensors)

latent_engine.industry_embedding.weight f4 [8, 8]
0	0xbfb1096d	-1.3831002
1	0x3ed1fb7b	0.41012177
2	0x3f802618	1.0011625
3	0xbf8b55e0	-1.0885582
4	0xbda3dd28	-0.080011666
5	0x3f148926	0.5802177
6	0xbfb48163	-1.4101986
7	0x3eda84b1	0.4267936
8	0x3fae5de0	1.3622398
9	0xbf25e6a3	-0.6480505
10	0xbe56f44b	-0.20991628
11	0xbe0e919c	-0.13922733
12	0x3ec27cc7	0.37985823
13	0x3e50c706	0.20388421
14	0x3e8d99e5	0.27656475
15	0x3f256b8c	0.6461723
16	0x3e820dc7	0.25401136
17	0x3e6e4ac1	0.23270704
18	0x3fced495	1.6158625
19	0xbf10856b	-0.5645358
20	0x3f6b5e39	0.9194065
21	0x3eded6fb	0.43523392
22	0x3f703af4	0.93839955
23	0xbaf139f8	-0.0018404117
24	0x3c542bd5	0.0129499035
25	0x4000c82a	2.012217
26	0x3fc9a9b6	1.5754917
27	0xbe2a85c6	-0.16652593
28	0x3fb7b5f7	1.4352406
29	0x3ea6a46f	0.32547328
30	0xbe1d1787	-0.15341006
31	0x3f71acaf	0.9440412
32	0x3e7c5918	0.24643362
33	0x3f746899	0.95472103
34	0xbd5aa3f6	-0.05337902
35	0xbf71d0a4	-0.94458985
36	0xbf08e604	-0.53475976
37	0x3f272c7d	0.6530226
38	0xbf8e3d1d	-1.11124
39	0xbe12e671	-0.14345719
40	0xbd9bf714	-0.07615486
41	0xbfa68e20	-1.3012123
42	0x3f414007	0.7548832
43	0x3f5967d8	0.8492408
44	0xbfd05388	-1.6275492
45	0xbf48a824	-0.7838156
46	0xbf028e7f	-0.5099868
47	0xbe812a8d	-0.25227776
48	0x3f0d13fd	0.55108625
49	0xbdb3b9f2	-0.08775701
50	0x3ffcac9f	1.974018
51	0x3f361894	0.71131253
52	0xbfd1629e	-1.635822
53	0x3f518b55	0.8185323
54	0xbe54fdfe	-0.20800015
55	0xbec72fc4	-0.3890363
56	0xbe95096c	-0.2910875
57	0x3eb5db68	0.35518956
58	0x3fc3809a	1.5273621
59	0xbedfd171	-0.4371448
60	0xbf27c34f	-0.6553239
61	0xbe862ca7	-0.26205942
62	0xc0023251	-2.034321
63	0xbf4a7ea2	-0.79099476

latent_engine.prior_mlp.0.weight f4 [64, 14]
0	0xbe2285ba	-0.15871325
1	0x3e436a13	0.19083433
2	0x3e2f2c8f	0.17106842
3	0xbde8ee9e	-0.113736376
4	0x3e795d6f	0.24352048
5	0xbd7b9a22	-0.06142629
6	0x3dd1c02e	0.102417335
7	0x3d8797d3	0.06620755
8	0x3db88e3d	0.09011505
9	0xbd876f08	-0.066129744
10	0xbeb0e881	-0.34552386
11	0x3d756ab3	0.05991621
12	0x3e4369a0	0.19083261
13	0x3ea21f8a	0.31664687
14	0xbea91efa	-0.33031446
15	0xbe143bfb	-0.14476006
16	0xbe74bbef	-0.23899816
17	0xbdca6eb7	-0.098843984
18	0xbd38b7cc	-0.045097157
19	0xbe4d9674	-0.20076925
20	0x3c9cd045	0.01914228
21	0xbe0ebc18	-0.1393894
22	0x3df87ec0	0.12133551
23	0xbe655c7c	-0.22398561
24	0xbe93f313	-0.28896388
25	0xbe708c83	-0.23491101
26	0xbe67168b	-0.22567193
27	0x3e5ead9d	0.21745916
28	0x3e92d8ac	0.28680933
29	0xbe569457	-0.20955025
30	0xbe1c06fc	-0.1523704
31	0xbe488524	-0.19582039
32	0x3d00c514	0.03143795
33	0xbe282da8	-0.16423666
34	0x3d2dcbad	0.04243057
35	0x3e268b55	0.16264088
36	0xbd629503	-0.05531789
37	0x3e68ac93	0.22722082
38	0xbe972142	-0.2951756
39	0x3d01c95a	0.031686164
40	0x3c7b368b	0.015332828
41	0x3edf1d1c	0.43576896
42	0xbe8c747a	-0.27432615
43	0x3e383e4c	0.17992514
44	0x3e4632c4	0.19355303
45	0xbddcac27	-0.10775023
46	0x3cdb90eb	0.0268025
47	0xbe863758	-0.262141
48	0x3e408c56	0.18803534
49	0x3dd4a438	0.10382885
50	0x3d852bb0	0.06502473
51	0xbda7da55	-0.081959404
52	0xbf11d681	-0.5696793
53	0xbe1046db	-0.14089529
54	0x3d014989	0.03156427
55	0x3c2c931e	0.010533122
56	0xbe029483	-0.12751965
57	0x3dc83b1b	0.097768985
58	0xbe74832e	-0.23878166
59	0x3dd7a8c4	0.10530236
60	0xbd3a30ab	-0.04545657
61	0x3e863b60	0.26217175
62	0x3d9c0d69	0.07619745
63	0x3e3280e5	0.17431982
64	0x3dd9b386	0.106299445
65	0x3e1ab0a4	0.15106446
66	0x3e97dd21	0.29660895
67	0x3d00ceda	0.03144727
68	0xbea7d0a7	-0.32776377
69	0xbedab9e0	-0.42719936
70	0x3ea6d341	0.3258305
71	0xbe42cd2e	-0.19023582
72	0xbc419c16	-0.011816999
73	0x3e47bd87	0.19505893
74	0x3e444dc5	0.19170292
75	0xbe80f7c7	-0.2518904
76	0xbe099936	-0.13437352
77	0x3d47ea07	0.04880717
78	0x3d4cf4bd	0.050038088
79	0xbeb1918d	-0.3468136
80	0xbe8b6e76	-0.27232713
81	0x3e296b66	0.16544876
82	0x3e63f5b5	0.22261699
83	0x3ed6886e	0.41900963
84	0x3d970015	0.073730625
85	0xbe576f80	-0.21038628
86	0x3d000f2c	0.03126447
87	0xbe71f227	-0.2362753
88	0xbd727803	-0.059196483
89	0x3da8bee8	0.082395375
90	0xbe6cd7e9	-0.23129238
91	0xbeaa8e17	-0.3331153
92	0x3e825bcf	0.2546067
93	0x3e7298ee	0.2369115
94	0x3eaf6371	0.34255555
95	0x3d6eedb7	0.05833217
96	0x3dacca40	0.084370136
97	0xbe8076f6	-0.2509076
98	0x3d6f98a9	0.058495197
99	0x3de1b8b3	0.11021557
100	0xbba267bd	-0.004956214
101	0xbce4f583	-0.0279491
102	0xbe373762	-0.1789222
103	0xbe5595fb	-0.20857994
104	0xbe796419	-0.2435459
105	0x3e31816e	0.1733453
106	0xbe2a8e10	-0.16655755
107	0xbe4152c3	-0.18879227
108	0xbe987bc2	-0.2978192
109	0x3decb53a	0.11558004
110	0xbe888ed5	-0.26671472
111	0xbc821cc2	-0.015882853
112	0xbd1a60aa	-0.037689842
113	0x3e54da8e	0.20786497
114	0xbe5c0c23	-0.21489005
115	0x3e33eb47	0.1757022
116	0xbcf5800c	-0.029968284
117	0x3de7cd20	0.11318421
118	0xbe8645f8	-0.26225257
119	0xbdf86e76	-0.12130444
120	0xbdc32fa8	-0.09530574
121	0xbe247c2c	-0.16062993
122	0xbea3b3b8	-0.31973052
123	0xbb13ce53	-0.0022553399
124	0x3e0480e6	0.12939796
125	0x3ef95bcd	0.4870285
126	0xbe52b3ad	-0.20576353
127	0x3eb55816	0.35418767
128	0x3e05eb26	0.13077983
129	0xbe4e824a	-0.20166889
130	0xbe7becc7	-0.24602042
131	0xbe294dd8	-0.16533601
132	0x3dc3dce5	0.09563617
133	0xbc346621	-0.011010678
134	0x3d522550	0.051305115
135	0x3d9ae682	0.07563497
136	0x3de4c738	0.111708105
137	0x3de65b1e	0.11247848
138	0x3e87f6e3	0.26555547
139	0x3e60142c	0.21882695
140	0x3d2c8bb7	0.04212543
141	0xbd3c88aa	-0.04602877
142	0x3b87c804	0.004143717
143	0xbd1875ef	-0.037221845
144	0xbe460a6f	-0.19339918
145	0xbe34254d	-0.17592354
146	0x3e082e27	0.13298856
147	0x3d98f65a	0.07468863
148	0xbab25343	-0.0013605136
149	0xbdefecf4	-0.11715117
150	0xbe75cf28	-0.24004805
151	0x3cfe5610	0.031046897
152	0xbe809d60	-0.25120068
153	0x3ba795c6	0.00511429
154	0xbe83a350	-0.25710535
155	0x3d0a9acf	0.033839043
156	0xbbcf4f86	-0.0063266186
157	0x3d5ace3d	0.05341934
158	0xbc948ac9	-0.018132584
159	0x3e7efa57	0.24900185
160	0x3d0e987f	0.0348134
161	0xbe066658	-0.13124979
162	0x3e9948bb	0.299383
163	0xbe0836c0	-0.13302135
164	0x3d095938	0.03353235
165	0x3e270b0c	0.16312808
166	0xbc2c49c4	-0.010515634
167	0x3f0ff762	0.5623685
168	0x3e215624	0.15755516
169	0xbda4927b	-0.080357514
170	0x3d30f52e	0.04320257
171	0x3e3f8685	0.18703659
172	0x3dfd0676	0.12354748
173	0xbdeacb70	-0.11464584
174	0xbe649750	-0.22323346
175	0xbe9d03a1	-0.3066683
176	0x3e7918d5	0.24325879
177	0x3bcfcfcc	0.00634191
178	0xbe4686c7	-0.19387351
179	0x3e9862b0	0.29762793
180	0xbe1f0500	-0.15529251
181	0xbe06703c	-0.13128752
182	0xbe3228ac	-0.17398328
183	0xbed3a9b7	-0.4134042
184	0x3c026213	0.007957953
185	0xbd126a0e	-0.035745673
186	0x3ddba789	0.10725314
187	0x3e4456d0	0.19173741
188	0x3e35d1b2	0.17755774
189	0x3c3e6689	0.011621126
190	0x3daed0ea	0.08535941
191	0x3bb1d940	0.0054275095
192	0x3e0c3670	0.13692641
193	0xbd998aa8	-0.0749715
194	0xbdf76df3	-0.12081518
195	0xbf15b940	-0.58485794
196	0x3e8f2fc1	0.2796612
197	0xbe661330	-0.22468257
198	0x3e3fd8fd	0.18735118
199	0x3d89b4b5	0.0672392
200	0xbc9425fe	-0.018084522
201	0x3cb43cd8	0.022001669
202	0x3e1845a6	0.14870319
203	0x3df0985f	0.117478125
204	0xbe87d634	-0.26530612
205	0xbe58b95c	-0.21164459
206	0xbf01cde6	-0.507048
207	0x3d963fe4	0.07336405
208	0xbd9ef931	-0.07762373
209	0x3ef9a96e	0.48762077
210	0x3e550117	0.20801197
211	0xbe8988e5	-0.26862255
212	0xbe465e09	-0.19371809
213	0xbcd0f46c	-0.025507174
214	0x3da086e4	0.07838228
215	0xbc36970c	-0.011144411
216	0xbd5d9bc6	-0.054103635
217	0xbdad22ef	-0.08453929
218	0x3da9c9d9	0.082904525
219	0x3e088b03	0.13334279
220	0x3e81f1cd	0.25379792
221	0x3d24d6f4	0.040244058
222	0xbd0638fa	-0.03276918
223	0x3e177d46	0.14793882
224	0xbdcdfdc5	-0.10058168
225	0xbe499464	-0.19685513
226	0x3e000f2b	0.12505786
227	0xbe06ba1f	-0.13156937
228	0xbe2d853b	-0.16945355
229	0xbe347279	-0.17621793
230	0xbdacd94d	-0.08439884
231	0xb9dda933	-0.00042278468
232	0x3e343aaf	0.17600511
233	0xbe48bd68	-0.19603503
234	0xbec23df5	-0.37937894
235	0xbecd7899	-0.4013107
236	0xbe2f0f1d	-0.17095609
237	0xbd64f633	-0.055898856
238	0x3d9e954c	0.0774332
239	0x3e91063e	0.28325075
240	0xbe2e469d	-0.17019124
241	0xbe1dceec	-0.15410966
242	0xbd8e09bc	-0.069354504
243	0x3e9e8b41	0.30965617
244	0xbe36b1b1	-0.17841221
245	0x3de81111	0.1133138
246	0x3e9a23eb	0.30105528
247	0xbea1e16a	-0.3161729
248	0xbdfe80a7	-0.12426882
249	0xbd5da0ea	-0.054108538
250	0x3e8196ba	0.25310308
251	0x3e3203c7	0.17384253
252	0x3e42280e	0.18960592
253	0x3e9b0ba7	0.30282328
254	0xbe0d93ee	-0.13825962
255	0x3e3d1f0e	0.18468878

latent_engine.prior_mlp.0.bias f4 [64]
0	0xbe5fbe08	-0.21849835
1	0x3dc9a895	0.098466076
2	0xbda2d72e	-0.079511985
3	0xbb43b65e	-0.0029863338
4	0x3b73f555	0.0037225087
5	0xbe992da9	-0.29917648
6	0xbd2fd21d	-0.04292499
7	0xbe8537b8	-0.26019073
8	0xbe88864c	-0.2666496
9	0xbec4bb73	-0.38424262
10	0x3e19ffc8	0.15038979
11	0x3dd6b0d2	0.104829445
12	0xbe97f673	-0.29680213
13	0x3de53428	0.11191589
14	0x3e18da6d	0.14927073
15	0x3a450bbd	0.0007516703
16	0xbd056c81	-0.03257418
17	0xbde593e0	-0.112098455
18	0xbea9c72a	-0.33159763
19	0x3da7a1ba	0.08185144
20	0xbe1a2617	-0.15053593
21	0x3d95bcc8	0.07311398
22	0xbc33a5fb	-0.010964866
23	0x3df88a5e	0.121357664
24	0xbe4e9728	-0.20174849
25	0xbdab1e45	-0.08355383
26	0x3e423704	0.189663
27	0xbe6320ef	-0.22180532
28	0xbd8760a9	-0.06610233
29	0xbe9616dd	-0.29314318
30	0xbe7822ac	-0.24231976
31	0x3e30c982	0.17264369
32	0xbe428a34	-0.18998033
33	0xbdf617d8	-0.120162666
34	0x3e35915f	0.17731236
35	0x3c3f9b98	0.011694811
36	0xbe49de57	-0.19713722
37	0xbe4b1d11	-0.19835307
38	0x3df6ea0d	0.120563604
39	0xbe016c41	-0.12638952
40	0x3dbd92ec	0.09256539
41	0xbe58be80	-0.2116642
42	0xbe775176	-0.24152169
43	0x3dd8c139	0.10583729
44	0x3d42bbcc	0.04754238
45	0xbe7ebd40	-0.2487688
46	0x3c9157df	0.017742096
47	0xbe1edfff	-0.15515135
48	0xbe05725f	-0.1303191
49	0xbe978e9b	-0.29600987
50	0x3dc9a82c	0.09846529
51	0xbd888e94	-0.066678196
52	0xbe2d1469	-0.16902317
53	0x3de15426	0.11002378
54	0x3ad749c3	0.0016425181
55	0x3e006ced	0.12541552
56	0xbd43f089	-0.047836814
57	0xbe58b265	-0.21161802
58	0xbcc85f40	-0.024459481
59	0x3d700420	0.058597684
60	0xbb57f764	-0.0032953853
61	0xbe59c08c	-0.21264857
62	0xbc3be114	-0.011467237
63	0xbd79f981	-0.06102896

latent_engine.prior_mlp.3.weight f4 [64, 64]
0	0xbd8e0b20	-0.06935716
1	0x3e395418	0.18098485
2	0xbdf4e06a	-0.11956866
3	0x3e097c47	0.13426314
4	0x3c8354bc	0.016031615
5	0x3bc77146	0.0060865013
6	0xbce6b664	-0.028163143
7	0x3d800092	0.06250109
8	0x3ddb9820	0.10722375
9	0xbcdbba29	-0.026822167
10	0xbe00e619	-0.12587775
11	0x3e11e843	0.14248757
12	0xbe027814	-0.12741119
13	0xbc91f839	-0.017818557
14	0xbdc17722	-0.09446551
15	0xba9d40dc	-0.0011997479
16	0xbc4a9363	-0.012364241
17	0x3daa9fd0	0.08331263
18	0xbdfbb876	-0.122910425
19	0xbc44d21e	-0.0120129865
20	0x3deb39d2	0.11485638
21	0xbdde1fdf	-0.10845923
22	0x3da28804	0.07936099
23	0xbcb4ec8d	-0.022085452
24	0x3b543739	0.0032381548
25	0x3dbc665a	0.091992095
26	0x3d157363	0.036486994
27	0x3d32d897	0.043663587
28	0xba6104d8	-0.00085837906
29	0xbe2d8098	-0.16943586
30	0x3d9b0ca8	0.07570773
31	0xbc155668	-0.009114839
32	0xbed437b6	-0.41448754
33	0x3e142975	0.1446894
34	0x3de82c73	0.11336603
35	0x3ddd82ae	0.10815941
36	0xbe10a8f3	-0.14126949
37	0xbe2df5dc	-0.16988319
38	0x3d196f9f	0.037459966
39	0xbd9ce555	-0.07660929
40	0xbe313fbc	-0.17309469
41	0x3e0923c3	0.13392548
42	0xbe86afcd	-0.26306
43	0xbdad5479	-0.084633775
44	0x3dbf4731	0.093397506
45	0xbe75d58d	-0.24007244
46	0xbca3dd44	-0.020002969
47	0xbd149e0f	-0.03628355
48	0xbe91dec1	-0.2849026
49	0xbb2e830b	-0.00266284
50	0xbd4881f3	-0.048952054
51	0x3db7fc5b	0.0898368
52	0x3e4f51dc	0.2024607
53	0x3d3b2c20	0.045696378
54	0x3bc15d3f	0.0059010084
55	0xbd905cf7	-0.07048982
56	0xbcb4aacd	-0.0220541
57	0x3de6aabb	0.11263033
58	0xbe29d0eb	-0.16583602
59	0x3ce90b9c	0.028447919
60	0x3e006f3d	0.12542434
61	0x3d4c4702	0.049872406
62	0x3e0426b0	0.12905383
63	0x3d59cc61	0.053173427
64	0x3d038b0c	0.032115027
65	0xbd938ceb	-0.07204612
66	0x3dc751f7	0.097324304
67	0xbe195b22	-0.1497617
68	0xbde74723	-0.11292865
69	0xbd697d07	-0.057004
70	0xbc02f469	-0.007992842
71	0xbd89223d	-0.066959836
72	0x3d888683	0.06666281
73	0x3e0d1a34	0.13779527
74	0xbbd303b0	-0.0064396486
75	0xbe4fcbde	-0.20292613
76	0xbe948b3c	-0.29012477
77	0xbde7e6d9	-0.113233276
78	0xbde4054b	-0.11133822
79	0x3df01259	0.117222495
80	0xbe679f53	-0.22619371
81	0x3cd25261	0.025674047
82	0x3ce00954	0.027348198
83	0x3d9ebdf3	0.07751074
84	0x3dc5f5f0	0.096660495
85	0xbd5d746b	-0.054066103
86	0xbd5c53a8	-0.05379072
87	0xbde950eb	-0.11392387
88	0x3d9aee6a	0.07565005
89	0xbdc6ea9c	-0.09712717
90	0xbe99533f	-0.29946324
91	0x3c99d3ab	0.018777689
92	0x3eae3369	0.34023598
93	0xbea2fef8	-0.3183515
94	0x3df0ecf1	0.11763943
95	0xbe322e6b	-0.1740052
96	0xbebb983b	-0.3663958
97	0x3d278870	0.0409016
98	0xbc79df02	-0.015250923
99	0xbd9e2375	-0.07721607
100	0xbe0862ca	-0.13318935
101	0xbd91846f	-0.07105338
102	0x3deb29da	0.11482592
103	0x3e6f5cc2	0.23375228
104	0x3d89df42	0.06732036
105	0x3de210fc	0.11038396
106	0xbe0ec019	-0.13940467
107	0xbc3647f8	-0.011125557
108	0xbb4fb1ef	-0.003169175
109	0x3e7c96b6	0.24666867
110	0xbda71529	-0.08158333
111	0x3ce6b2a6	0.028161358
112	0xbbf3f594	-0.0074450467
113	0x3d80b2d1	0.062841065
114	0xbdad0c7c	-0.08449647
115	0x3c96d0fc	0.018410198
116	0xbe470cb1	-0.19438435
117	0xbdd7d1dd	-0.10538075
118	0xbe19249e	-0.14955375
119	0xba65c0fe	-0.0008764415
120	0xbe861b6f	-0.26192805
121	0xbe5c444a	-0.21510425
122	0xbe02060a	-0.12697616
123	0xbbffe85e	-0.0078096827
124	0xbda1429d	-0.078740336
125	0x3e3c66ac	0.18398541
126	0x3db96a31	0.090534575
127	0x3cf88e3f	0.030341266
128	0x3dab6f65	0.08370856
129	0xbe017d8a	-0.12645546
130	0xbb9db9dc	-0.004813416
131	0xbde7582d	-0.11296115
132	0x3cd9f58d	0.026606346
133	0x3d9aeca6	0.07564668
134	0xbdf7065e	-0.12061761
135	0x3d0d1be2	0.03445042
136	0x3e052917	0.13003956
137	0x3e13e4b9	0.1444272
138	0xbdc5dd3c	-0.09661338
139	0x3e0dddb9	0.13854112
140	0x3d9286ec	0.071546406
141	0xbe9bcee0	-0.3043127
142	0x3e22335f	0.15839909
143	0xbc98078a	-0.018558282
144	0x3df0214a	0.117250994
145	0xbd59a6c6	-0.053137563
146	0xbe92a5e6	-0.28642195
147	0x3d96c8ab	0.07362493
148	0xbd94aeb7	-0.07259887
149	0xbd89bf05	-0.06725887
150	0x3dc3fc40	0.09569597
151	0xbd985340	-0.07437754
152	0xbdb3c394	-0.08777538
153	0x3c9befc3	0.019035226
154	0x3dc780fd	0.097413994
155	0xbd047c6c	-0.03234522
156	0x3cd218c9	0.025646584
157	0xbe91d3b2	-0.28481823
158	0xbd856c8e	-0.06514846
159	0x3d6c7222	0.057726033
160	0x3e556510	0.20839334
161	0xbd90cd84	-0.07070449
162	0x3d756748	0.05991295
163	0xbd688cb2	-0.056774803
164	0xbe2ee10d	-0.17078038
165	0xbd8cfc82	-0.068840995
166	0x3d07715a	0.033067085
167	0x3ce2bcba	0.027677882
168	0x3d99c43b	0.07508131
169	0xbdbc7b2f	-0.09203183
170	0xbe0ab9dc	-0.13547462
171	0xbe0060fd	-0.12536998
172	0x3e073369	0.13203205
173	0x3d96fe40	0.07372713
174	0xbde52fcd	-0.11190758
175	0xbe42c36a	-0.19019857
176	0xbe3d153c	-0.18465132
177	0xbd307b7f	-0.043086525
178	0xbd84fe51	-0.064938195
179	0x3e068f31	0.1314056
180	0xbd4fb3f6	-0.050708733
181	0xbd540322	-0.0517608
182	0x3e0cf520	0.13765383
183	0x3c9a61e1	0.0188455
184	0xbc2b728a	-0.01046432
185	0x3e057c41	0.1303568
186	0x3dc55662	0.09635617
187	0x3c38f94b	0.011289905
188	0x3c2ec230	0.010666415
189	0x3e4a2815	0.19741853
190	0xbdf4c36d	-0.11951337
191	0xbd26b4bb	-0.0406997
192	0x3c9d3f1b	0.01919513
193	0x3c5eca13	0.013597983
194	0xbdc188ec	-0.09449944
195	0xbdb3b600	-0.08774948
196	0x3db2595a	0.08708449
197	0xbe1f8eef	-0.15581869
198	0xbcd89532	-0.02643833
199	0xbe5b94d0	-0.21443486
200	0xbc867693	-0.016413962
201	0xbd962199	-0.07330627
202	0xbe0fd624	-0.14046532
203	0xbdb2fc42	-0.087395206
204	0x3dfe1509	0.12406356
205	0x3e5a2925	0.21304758
206	0x3d2db5f9	0.04240987
207	0x3cb695cd	0.022288227
208	0xbd87d7bf	-0.06632947
209	0xbd738cfa	-0.059460618
210	0x3e2aa68e	0.16665098
211	0x3d1584b5	0.036503512
212	0xbdc494b0	-0.095986724
213	0xbd040c52	-0.032238312
214	0xbc932a3f	-0.01796448
215	0xbe018f29	-0.12652268
216	0x3d061355	0.03273328
217	0x3dd683ff	0.10474395
218	0x3da2140c	0.0791398
219	0xbd4b871f	-0.04968941
220	0xbe5275a0	-0.20552683
221	0x3dfb4461	0.122689016
222	0x3dd3c375	0.10340015
223	0x3d6791c3	0.056535494
224	0xbd053c6d	-0.03252833
225	0xbc3fdf48	-0.011710949
226	0xbe98786b	-0.29779372
227	0x3e0a868b	0.13527887
228	0x3d9417f0	0.07231128
229	0x3c57303f	0.013134061
230	0x3df925fa	0.121654466
231	0xbe0cbede	-0.13744685
232	0x3dbfa419	0.09357471
233	0x3ce4deb9	0.027938234
234	0x3e66debd	0.22545905
235	0x3e68a129	0.22717728
236	0xbe34dcee	-0.17662403
237	0xbd673315	-0.0564452
238	0x3dd78321	0.10523058
239	0x3ba6a348	0.0050853826
240	0xbe46edb3	-0.19426613
241	0x3d14cd34	0.03632851
242	0xbeacb3df	-0.3373098
243	0x3ce6678d	0.028125549
244	0x3e06c85d	0.1316237
245	0xbd92c05b	-0.07165595
246	0x3dc16286	0.0944262
247	0x3d90dae1	0.07072998
248	0x3e1b1671	0.1514528
249	0xbe060e8f	-0.13091491
250	0xbe25185c	-0.16122574
251	0x3e087475	0.13325675
252	0xbc8b87e9	-0.01703258
253	0xbe718ba4	-0.23588425
254	0xbe91bd0c	-0.28464544
255	0xbeaac07d	-0.33349982

latent_engine.prior_mlp.3.bias f4 [64]
0	0xbe146abe	-0.14493844
1	0x3d2c4775	0.042060334
2	0x3d5baa30	0.0536291
3	0x3dc838fd	0.09776495
4	0xbd666411	-0.056247775
5	0x3bcc3994	0.00623245
6	0x3dfaa209	0.12237937
7	0x3c96f09c	0.018425278
8	0xbd650381	-0.055911545
9	0xbbdafa2b	-0.0066826544
10	0x3cff2b9f	0.03114873
11	0xbe0cde56	-0.1375669
12	0x3e41da12	0.18930843
13	0xbcdb6bd2	-0.026784811
14	0x3d5f3d7a	0.054501988
15	0xbc9c75bc	-0.019099109
16	0xbcf5b669	-0.029994207
17	0xbc983504	-0.018579967
18	0xbdb66f86	-0.0890799
19	0xbc4310c2	-0.011905851
20	0x3d23e58e	0.040013842
21	0xbdebb0ae	-0.11508308
22	0xbdec388e	-0.115342245
23	0xbcaeb07c	-0.021324389
24	0xbe32fee0	-0.1748004
25	0x3d93572e	0.071943626
26	0x3cfc0f99	0.030769156
27	0xbd98d1a3	-0.0746186
28	0x3e783111	0.24237467
29	0xbcfffc58	-0.031248257
30	0xbcdab74a	-0.026698727
31	0xbe18db73	-0.14927463
32	0xbda727c4	-0.081618816
33	0x3d412d2c	0.04716222
34	0x3d8b82a3	0.06812026
35	0x3e07605f	0.13220356
36	0xbd0d3e59	-0.034483287
37	0x3d840ae0	0.06447387
38	0x3def1af8	0.11675066
39	0x3dc1291a	0.094316676
40	0xbdc95279	-0.098301835
41	0x3e128aff	0.14310835
42	0x3d541f61	0.051787738
43	0x3d4f103a	0.050552584
44	0x3be7d1c2	0.0070745656
45	0x3df2f11f	0.118623964
46	0x3d3a503d	0.045486677
47	0xbde01b85	-0.10942749
48	0x3dfdd882	0.12394811
49	0x3d7cb705	0.06169798
50	0xbd05915d	-0.032609332
51	0x3dc923ab	0.09821256
52	0xbdcf8bb1	-0.10134066
53	0xbd60d3f0	-0.05488962
54	0x3e69d417	0.22834812
55	0x3d94545e	0.07242654
56	0x3da4a0ae	0.0803846
57	0x3dece6d3	0.11567464
58	0x3da0c74b	0.07850512
59	0xbe188c38	-0.14897239
60	0xbde8221a	-0.11334629
61	0xbcb7ed3c	-0.02245199
62	0x3d77b5c6	0.060476087
63	0x3e5b4612	0.21413448

latent_engine.mu_head.weight f4 [1, 64]
0	0x3e1489d1	0.14505698
1	0x3ea22aaf	0.3167319
2	0x3e216cb8	0.15764129
3	0xbe38bd99	-0.18041076
4	0x3e82fb37	0.25582287
5	0x3d957bec	0.07299027
6	0xbe0f0119	-0.13965262
7	0x3e2e1d53	0.17003374
8	0x3e4c5b41	0.19956686
9	0xbd3c58d7	-0.04598316
10	0xbe647187	-0.22308932
11	0xbea852f6	-0.32875794
12	0x3e063357	0.13105522
13	0x3e524e0e	0.20537588
14	0x3dbb563f	0.091473095
15	0xbe990b7c	-0.29891574
16	0x3e69fe86	0.22850999
17	0xbe55436a	-0.20826498
18	0xbe9b6d7b	-0.30356964
19	0x3e8ff89f	0.2811937
20	0xbe78f36a	-0.24311605
21	0xbd67765b	-0.056509357
22	0x3e4d1d50	0.20030713
23	0xbe86d076	-0.26330918
24	0x3dd4b7bd	0.10386608
25	0xbd49149c	-0.04909192
26	0xbdf882c9	-0.1213432
27	0xbeb71ffc	-0.3576659
28	0x3b2e7bd0	0.002662409
29	0xbdd77424	-0.10520199
30	0xbec4c5b9	-0.384321
31	0x3c04ac7d	0.008097765
32	0x3e6614b3	0.22468834
33	0xbd74d15c	-0.059769973
34	0x3e34169f	0.17586754
35	0xbeb78ae8	-0.35848165
36	0xbc006579	-0.007836693
37	0xbe916cc9	-0.2840331
38	0xbe808fde	-0.25109762
39	0xbdfcd963	-0.12346151
40	0x3c2cf2aa	0.0105559025
41	0xbeb39433	-0.35074005
42	0x3eaa477b	0.3325766
43	0x3e1070be	0.14105508
44	0x3eb4d6cb	0.35320124
45	0x3d95784b	0.07298335
46	0xbdf227b7	-0.11823981
47	0x3e7f2e3b	0.2491998
48	0xbd974649	-0.07386453
49	0x3dd00274	0.10156718
50	0x3cc2ee2c	0.02379521
51	0xbe2b4ede	-0.16729304
52	0xbe014a71	-0.12626053
53	0x3e72b762	0.23702767
54	0xbc5c27c2	-0.013437213
55	0xbdd4a960	-0.10383868
56	0xbe33780f	-0.17526267
57	0x3e645d62	0.22301248
58	0x3da3db9e	0.08000873
59	0x3c4bbca5	0.012435113
60	0x3df0a1b5	0.11749593
61	0xbdd1620f	-0.10223781
62	0xbe4a0a73	-0.19730549
63	0xbe12b5aa	-0.14327112

latent_engine.logvar_head.weight f4 [1, 64]
0	0x3906f505	0.00012870513
1	0x3d9b602e	0.07586704
2	0x3d95c096	0.073121235
3	0xbd537858	-0.05162844
4	0x3b8ec8f0	0.0043574497
5	0xbd645793	-0.05574758
6	0xbd4f3d8f	-0.050595816
7	0xbc4cbcdc	-0.012496199
8	0x3d2a8952	0.041634865
9	0xbe0b9c51	-0.13633849
10	0xbdd20ce8	-0.10256368
11	0x3d32ff29	0.04370037
12	0xbdeef637	-0.116680555
13	0xbc852ca9	-0.016256647
14	0x3da0393f	0.07823419
15	0xbde7da46	-0.11320929
16	0xbd149ca6	-0.036282204
17	0xbdc1cfa5	-0.09463433
18	0x3d843df9	0.06457133
19	0xbdc2f661	-0.09519649
20	0xbe5e77f9	-0.21725453
21	0x3debc289	0.11511714
22	0x3d5e8155	0.05432256
23	0xbdedc9a9	-0.11610729
24	0x3dcb2fce	0.099212274
25	0xbdfef094	-0.124482304
26	0xbd8624fc	-0.06550023
27	0xbd5ef0a2	-0.054428704
28	0xbe3b6b65	-0.18302687
29	0xbdb50d89	-0.08840472
30	0xbe070af3	-0.1318777
31	0xbc2477c2	-0.010038318
32	0xbc96248f	-0.01832798
33	0xbdd537df	-0.10411047
34	0x3d5ff245	0.054674406
35	0xbdfb5788	-0.12272555
36	0xbcff66f2	-0.031177018
37	0x3b4e0b62	0.003143989
38	0xbd86e557	-0.06586712
39	0x3d43b0bb	0.047775965
40	0xbda9ea7f	-0.0829668
41	0x3d70d4df	0.05879676
42	0x3dfd96da	0.12382288
43	0xbb257778	-0.002524821
44	0x3d39cffe	0.045364372
45	0xbe0d06df	-0.13772152
46	0xbd7a8d93	-0.061170172
47	0xbd7e1c6b	-0.06203882
48	0xbe096a74	-0.13419515
49	0x3bd124d7	0.0063825655
50	0x3e540d02	0.20708087
51	0xbe4f5af4	-0.2024954
52	0xbd79d230	-0.060991466
53	0x3cefa8da	0.02925532
54	0xbe03b8f3	-0.12863521
55	0xbe0e9b53	-0.13926439
56	0xbcc562ae	-0.024094906
57	0xbad25ea2	-0.0016049931
58	0xbd3a8ed9	-0.045546386
59	0xbd1ea903	-0.0387354
60	0x3d8611d1	0.06546367
61	0xbe14c77a	-0.1452922
62	0xbd33c7d2	-0.043891735
63	0xbe26651f	-0.16249512

fusion_layer.alpha_s f4 [34]
0	0x3e87d65e	0.26530737
1	0x3ed8f4d6	0.42374295
2	0x3eb94842	0.3618794
3	0x3db21613	0.086956166
4	0x3e604852	0.21902588
5	0x3f6cd795	0.9251645
6	0x3f64ad10	0.8932657
7	0x3f7d8926	0.99037397
8	0x3eeb3fcc	0.4594711
9	0x3f728403	0.94732684
10	0x3f1c019d	0.6093996
11	0x3f6b6619	0.91952664
12	0x3f4b20d4	0.79346967
13	0x3f84abf8	1.0364981
14	0x401579c4	2.335557
15	0x3f959a0b	1.1687635
16	0x3f32f239	0.6990085
17	0x3f175ea0	0.5912876
18	0x3f3bb0c9	0.7331663
19	0x3eaa8c52	0.3331018
20	0x3f52b312	0.8230449
21	0x3fa0d05d	1.2563587
22	0x3f8316df	1.0241355
23	0x3f3d557a	0.7395855
24	0x3f8692d8	1.0513563
25	0x3f356d35	0.7086976
26	0x3e7ab9a0	0.24484873
27	0x3f389a8f	0.7211084
28	0x3f848604	1.0353398
29	0x3f46821c	0.7754228
30	0x3f5f5c00	0.87249756
31	0x3f000000	0.5
32	0x3f288cd4	0.65839887
33	0x3f4ea5be	0.8072165

fusion_layer.g_s f4 [34]
0	0xbd03bb69	-0.03216115
1	0x3e6910f9	0.22760381
2	0x3f0cae39	0.5495334
3	0xbde2b9fa	-0.110706285
4	0x3ed07f81	0.40722278
5	0x3f2863f6	0.6577753
6	0x3dd3b537	0.10337298
7	0x3de6e7ae	0.11274658
8	0x3de70438	0.112801015
9	0x3f14774f	0.5799455
10	0x3f01838d	0.50591356
11	0x3e89b576	0.26896256
12	0x3f538dc8	0.82638216
13	0x3ee5ca6f	0.44881007
14	0xbfa7659d	-1.3077885
15	0x3efc5fb0	0.49291754
16	0x3e833a8d	0.25630608
17	0xbe9da2bc	-0.3078822
18	0x3e448018	0.19189489
19	0x3e035bbf	0.12827967
20	0x3e899d47	0.26877806
21	0x3ea2f157	0.31824753
22	0x3ec9dc29	0.3942578
23	0x3ebcb0b7	0.36853573
24	0xbab4704f	-0.0013766381
25	0x3f17524f	0.5910997
26	0xbef08e40	-0.46983528
27	0xbcd3dc24	-0.025861807
28	0x3e815f78	0.2526815
29	0x3e81d80c	0.25360143
30	0xbe79ad80	-0.24382591
31	0x3f000000	0.5
32	0xbe8761b4	-0.2644173
33	0x3e107b79	0.14109601
