best_model_s32.pth (torch, 27269 bytes, 9 tensors)

latent_engine.industry_embedding.weight f4 [8, 8]
-1.217303 0.76768506 -0.5319473 1.6188293 0.39766055 -0.30938217 0.8533937 -0.46816352
-0.47941747 -0.107279055 -0.72950155 -0.27446696 0.46344414 0.6740574 -0.3596633 0.4313871
-0.778634 -0.53675646 -1.3950597 -1.4832779 -1.5395553 0.15617625 -1.0234038 -0.070861846
0.48886836 1.093461 0.38255957 -0.029848495 -0.32718915 1.3329936 0.57456386 -0.49862093
0.43064204 0.68829453 0.96452624 -2.351543 1.481184 -0.6952969 -1.2136071 0.29427093
-0.37920836 -1.4827464 -0.105886124 0.6824206 -0.9458269 -1.2426529 1.3535372 -1.4947555
-1.3570902 0.5773191 -0.905275 0.48680636 0.6694874 0.8908376 -2.2513065 -0.44516474
-0.00089706917 -1.7349335 0.38218108 1.5887783 -1.0630822 0.042790588 -0.15424986 -0.592541
00000000: 96d0 9bbf 0287 443f b32d 08bf cc35 cf3f
00000010: 2a9a cb3e 5767 9ebe 0278 5a3f 21b3 efbe
00000020: 3576 f5be 1fb5 dbbd 9dc0 3abf ef86 8cbe
00000030: 8d48 ed3e 078f 2c3f ca25 b8be c5de dc3e
00000040: 8f54 47bf df68 09bf 5191 b2bf 0ddc bdbf
00000050: 2610 c5bf abec 1f3e e5fe 82bf 0420 91bd
00000060: f44c fa3e 88f6 8b3f d9de c33e d584 f4bc
00000070: 5685 a7be 899f aa3f 9e16 133f 3e4b ffbe
00000080: 1d7d dc3e 1234 303f 31eb 763f ae7f 16c0
00000090: 7097 bd3f fafe 31bf 7a57 9bbf aeaa 963e
000000a0: 9927 c2be a2ca bdbf d3da d8bd 1eb3 2e3f
000000b0: b621 72bf 400f 9fbf b540 ad3f 2654 bfbf
000000c0: 22b5 adbf 2fcb 133f 1ac0 67bf af3e f93e
000000d0: 8763 2b3f ef0d 643f 6815 10c0 a2ec e3be
000000e0: 4b29 6bba 4d12 debf 3dad c33e 165d cb3f
000000f0: 1413 88bf 2f45 2f3d adf3 1dbe c4b0 17bf

latent_engine.prior_mlp.0.weight f4 [64, 14]
0.010891657 -0.10576022 -0.16300133 -0.23815915 -0.11844944 0.17358255 0.12706843 -0.33503464
-0.10366343 -0.20077501 -0.13965064 -0.5604442 -0.029679688 -0.21838856 -0.37682667 -0.07756302
0.19249314 -0.24182227 -0.2445023 0.32541716 0.22622152 -0.21321386 0.20708425 0.21733837
-0.6455412 -0.2043323 -0.07877916 0.051409334 0.078133285 0.28244877 -0.2160379 0.28631207
0.10669862 0.16289052 -0.13653795 0.078212515 -0.13074228 -0.240286 -0.21472457 0.19643334
0.045736786 0.14164516 0.24287869 0.1837559 0.16891743 0.11450437 -0.03532847 -0.0126802055
-0.16251042 -0.103575125 -0.14740527 -0.117988214 0.2368295 0.2154833 0.29127407 0.08282181
-0.21929353 0.08401505 -0.0077000298 0.06558027 -0.10547988 0.059510928 -0.2695546 -0.24901102
0.06243205 -0.21977057 -0.69452137 0.20734057 -0.15920481 -0.07381205 0.02474507 0.13678385
-0.23545869 0.04562366 -0.11042199 0.28874663 -0.010596276 -0.18950973 -0.06290759 0.0429699
0.1524969 -0.058684833 0.37707883 0.04848655 0.013008245 -0.30151433 0.06467702 -0.050194655
0.23010448 -0.010979554 -0.054234035 -0.18196824 0.35788548 -0.25140893 -0.12918514 -0.22539577
-0.34123087 0.0017929577 0.025461359 -0.01478551 0.20113885 -0.14560442 -0.11077346 -0.08935341
0.04498691 0.24634139 0.18138789 0.1284297 0.3609942 0.037107754 0.121507965 -0.0469477
-0.3292901 -0.090069026 -0.19177982 -0.011125098 0.06637823 0.18689565 -0.1850667 -0.08331423
-0.049953274 0.101448976 -0.6377642 -0.20710625 -0.085491605 0.43925387 0.138857 0.20971759
-0.049383942 0.030471552 0.1204989 0.08630294 0.0372254 0.0058830706 -0.13131487 0.15412423
-0.5494798 -0.3691284 -0.33708054 0.20141323 0.28543642 -0.075741716 -0.04633241 -0.22844303
0.17292793 0.14713116 -0.19710751 -0.14599255 -0.23820132 0.3257243 0.10503647 0.041975964
0.48213586 -0.20578396 0.16417901 0.060801964 -0.16790166 -0.24517979 -0.18297239 -0.10321116
0.15289316 -0.22258255 0.1129378 0.2510586 0.4378002 0.06978095 -0.22046214 -0.18021715
-0.13337994 0.08361611 0.051068246 -0.09538283 -0.008882587 0.07519241 0.034679387 0.09033853
-0.13526922 0.019362412 -0.18502428 0.2691923 0.1913666 0.10553672 0.058931734 -0.058924384
-0.22488458 0.11622722 0.012446084 -0.09665778 0.03157818 0.078648984 0.14314696 -0.11955965
-0.2921538 -0.014485988 0.4204323 0.36485603 -0.06554324 0.0005720038 0.19923484 -0.0072482917
0.041692447 0.34288186 0.040736925 0.16869064 -0.05485758 0.09517833 -0.26411107 0.32386526
-0.022937747 -0.21083698 -0.18772635 -0.24094373 -0.10822348 -0.1237952 -0.20156538 0.081239104
-0.11998136 -0.23918329 0.11826389 -0.03056428 -0.6638999 0.17245688 0.08260275 0.1774577
-0.19699198 0.012708165 0.13419844 0.007267482 0.0052259937 0.24862045 -0.13559456 -0.17331241
0.2151733 -0.10401771 0.10485016 0.0005858297 -0.37230337 -0.3675219 0.044105746 -0.2923489
0.06699419 0.28368565 -0.11314561 -0.07548417 0.15097699 0.078907296 0.08558576 0.10304211
-0.30158302 0.33220676 0.42983136 -0.092640735 -0.26144537 0.15753877 0.21709815 0.0031999466
00000000: ec72 323c d098 d8bd d2e9 26be fedf 73be
00000010: 9f95 f2bd a0bf 313e 3a1e 023e a989 abbe
00000020: 7e4d d4bd f797 4dbe 9400 0fbe 4579 0fbf
00000030: d122 f3bc 40a1 5fbe 6def c0be 5cd9 9ebd
00000040: ec1c 453e 42a0 77be d05e 7abe 149d a63e
00000050: 9da6 673e bc54 5abe e50d 543e f38d 5e3e
00000060: 3042 25bf 7d3c 51be f856 a1bd 9892 523d
00000070: 5804 a03d 209d 903e 0a39 5dbe 7f97 923e
00000080: ce84 da3d c6cc 263e 9bd0 0bbe e22d a03d
00000090: 4ee1 05be 880d 76be c2e0 5bbe d225 493e
000000a0: 7f56 3b3d 6e0b 113e 31b5 783e 822a 3c3e
000000b0: b1f8 2c3e 4481 ea3d 96b4 10bd a3c0 4fbc
000000c0: 2269 26be 321f d4bd 68f1 16be cea3 f1bd
000000d0: 6f83 723e a7a7 5c3e e021 953e 7b9e a93d
000000e0: 7c8e 60be 1510 ac3d 8850 fcbb f34e 863d
000000f0: d605 d8bd bbc1 733d 0f03 8abe bffc 7ebe
00000100: c0b8 7f3d 890b 61be 27cc 31bf 1651 543e
00000110: 9606 23be c62a 97bd 2cb6 ca3c 1111 0c3e
00000120: 151c 71be e0df 3a3d ed24 e2bd 99d6 933e
00000130: 019c 2dbc d70e 42be b2d5 80bd 3501 303d
00000140: 2628 1c3e 825f 70bd 7a10 c13e d599 463d
00000150: 8920 553c 1660 9abe 6375 843d e998 4dbd
00000160: 82a0 6b3e 96e3 33bc 8224 5ebd e255 3abe
00000170: c43c b73e acb8 80be 1c49 04be 26ce 66be
00000180: d0b5 aebe ad01 eb3a 5794 d03c ec3e 72bc
00000190: 58f7 4d3e 5319 15be 32dd e2bd ecfe b6bd
000001a0: 3244 383d eb40 7c3e bfbd 393e 1383 033e
000001b0: 3bd4 b83e 4dfe 173d 2bd9 f83d 3b4c 40bd
000001c0: b698 a8be 1c76 b8bd ee61 44be 0b46 36bc
000001d0: 4ff1 873d 9361 3f3e 2082 3dbe a7a0 aabd
000001e0: ce9b 4cbd 7bc4 cf3d 8444 23bf a913 54be
000001f0: 3916 afbd e2e5 e03e 8830 0e3e 35c0 563e
00000200: d146 4abd 7a9f f93c 21c8 f63d 99bf b03d
00000210: a979 183d c6c6 c03b 6877 06be bed2 1d3e
00000220: b5aa 0cbf 66fe bcbe d295 acbe 453f 4e3e
00000230: b924 923e 791e 9bbd 0ec7 3dbd f8ec 69be
00000240: 0514 313e 8da9 163e 8dd6 49be 127f 15be
00000250: 0ceb 73be 56c5 a63e 5c1d d73d fdee 2b3d
00000260: 83da f63e 08b9 52be 8b1e 283e 7b0b 793d
00000270: 6aee 2bbe 6910 7bbe 1d5d 3bbe 5f60 d3bd
00000280: 0690 1c3e aeec 63be ef4b e73d c18a 803e
00000290: 5927 e03e 51e9 8e3d d4c0 61be d88a 38be
000002a0: c094 08be ec3e ab3d f02c 513d 1358 c3bd
000002b0: 4588 11bc 7afe 993d f90b 0e3d 6803 b93d
000002c0: 0484 0abe ec9d 9e3c 0177 3dbe 93d3 893e
000002d0: 9bf5 433e a323 d83d 6762 713d b25a 71bd
000002e0: 2548 66be 8908 ee3d a9ea 4b3c 84f4 c5bd
000002f0: 1f58 013d b812 a13d 1e95 123e b1db f4bd
00000300: 2f95 95be a356 6dbc e742 d73e 69ce ba3e
00000310: 893b 86bd 86f2 153a 3804 4c3e 1483 edbb
00000320: b3c5 2a3d 368e af3e c3db 263d 3dbd 2c3e
00000330: 58b2 60bd dbec c23d 9139 87be abd1 a53e
00000340: f1e7 bbbc a6e5 57be 563b 40be f4b9 76be
00000350: 46a4 ddbd 5688 fdbd 2867 4ebe b060 a63d
00000360: cab8 f5bd 77ec 74be 5734 f23d f161 fabc
00000370: 58f5 29bf 8998 303e a12b a93d 79b7 353e
00000380: 44b8 49be e835 503c 516b 093e 0f24 ee3b
00000390: d03e ab3b 5c96 7e3e 4dd9 0abe cf78 31be
000003a0: 6456 5c3e 3d07 d5bd aebb d63d 5e92 193a
000003b0: 8c9e bebe d52b bcbe 3aa8 343d c1ae 95be
000003c0: 4034 893d 3f3f 913e e3b8 e7bd 7297 9abd
000003d0: b699 1a3e 269a a13d 9647 af3d be07 d33d
000003e0: 1769 9abe 0117 aa3e db12 dc3e 6dba bdbd
000003f0: 2bdc 85be d851 213e fa4e 5e3e 32b6 513b

latent_engine.prior_mlp.0.bias f4 [64]
-0.13389961 -0.13449919 -0.25557292 0.19444649 -0.055939823 -0.10884243 -0.124771625 -0.009098122
-0.0625986 -0.22279854 -0.31330806 0.081659414 0.15823254 0.10943858 0.0827181 -0.3302504
-0.23456948 0.030016929 -0.12437302 0.13040777 -0.15390697 0.066858076 -0.18059312 -0.17262317
-0.018890413 -0.03022996 0.023026872 -0.008692552 -0.29794312 0.06985804 -0.08884243 -0.02249044
0.13067868 -0.13379534 -0.09217648 -0.100170925 -0.101134524 -0.048554007 -0.29233378 -0.21974912
-0.163985 -0.21307789 -0.007822549 -0.21640177 -0.2253741 0.115050904 -0.096586235 -0.0031648218
-0.048152946 -0.2120224 -0.26581892 0.10963022 -0.20339373 0.014701541 -0.25191054 -0.25655738
0.023612114 -0.25283748 -0.060554344 0.12603985 0.2763528 -0.09351191 0.144949 0.030292915
00000000: fb1c 09be 28ba 09be 74da 82be fb1c 473e
00000010: 2821 65bd c8e8 debd 4488 ffbd 4a10 15bc
00000020: b233 80bd 4d25 64be ea69 a0be 0d3d a73d
00000030: b607 223e 5621 e03d 1b68 a93d 9516 a9be
00000040: fb32 70be 10e6 f53c 48b7 febd 9d89 053e
00000050: ca99 1dbe e3ec 883d 67ed 38be 21c4 30be
00000060: 11c0 9abc d2a4 f7bc daa2 bc3c 356b 0ebc
00000070: 008c 98be bb11 8f3d 05f3 b5bd df3d b8bc
00000080: a2d0 053e a501 09be 06c7 bcbd 6a26 cdbd
00000090: 9e1f cfbd 91e0 46bd c6ac 95be ea05 61be
000000a0: afeb 27be 1731 5abe 262a 00bc 6d98 5dbe
000000b0: 78c8 66be cf9f eb3d 01cf c5bd e668 4fbb
000000c0: 063c 45bd 661c 59be 6b19 88be cf85 e03d
000000d0: 7246 50be bbde 703c 6bfa 80be 7d5b 83be
000000e0: 316e c13c ea73 81be d507 78bd 9710 013e
000000f0: 1d7e 8d3e 2c83 bfbd 836d 143e d928 f83c

latent_engine.prior_mlp.3.weight f4 [64, 64]
-0.033924785 -0.019029701 -0.10398508 -0.067504235 -0.16235039 -0.027977785 0.011261276 -0.10933225
-0.11100968 -0.13139586 -0.13219814 -0.020989323 0.06533617 -0.167859 -0.14582245 0.103962176
-0.06828652 -0.14011295 -0.004552954 -0.017606137 -0.083223805 0.02941466 -0.11885359 -0.056115013
-0.100778304 0.0020890713 -0.031692863 -0.12264903 0.06068795 0.015829679 -0.060908396 -0.024675045
-0.08397679 0.08852741 -0.0981215 0.05507751 -0.07329425 -0.11704967 0.03495451 -0.15685977
0.0050326386 -0.10670226 -0.08298825 0.024694601 -0.11916659 -0.123135336 0.08768869 -0.067217216
0.053772986 0.07212896 0.112590075 -0.07141833 -0.09702835 0.030972093 -0.1381625 0.049573183
-0.14440674 0.0133359805 -0.07673859 -0.07420469 -0.08899064 -0.06521229 -0.044544134 -0.12545936
-0.096683905 -0.39225364 0.08888742 -0.08506458 0.07828421 -0.14053471 0.13979656 -0.013845539
-0.3480748 -0.07464862 -0.22908565 0.1435238 -0.030629493 -0.13742012 0.048141453 0.054318227
-0.036756963 -0.02903593 -0.29711676 0.04423065 -0.15618877 0.19525658 -0.11820292 0.14777261
-0.090181634 0.09140098 0.15782997 -0.13169782 0.04524054 -0.19257115 -0.21349053 -0.33349457
0.030991012 -0.20213868 0.035492036 -0.35889876 -0.12820409 -0.060249515 0.03164223 0.0043231356
-0.013688883 -0.05257509 -0.2264323 0.010499531 -0.011119515 0.07606832 -0.2074239 -0.43861443
0.041450992 0.07625706 -0.078184344 -0.21229376 0.15233636 -0.0075898557 -0.28938234 -0.05675192
-0.09803752 0.1266502 -0.00094218255 -0.20127709 -0.09913958 -0.09341842 -0.07391997 -0.028829893
0.101851106 0.08671041 -0.15828867 -0.054493822 0.045555793 0.19284959 0.2182125 -0.050746124
-0.10428975 -0.115641356 -0.008701647 -0.073957354 -0.28379175 -0.07192951 -0.12069813 -0.12235
0.07663677 -0.25252184 -0.2196943 -0.12646377 -0.24603237 0.0575785 -0.08364635 0.0026490504
0.034987982 -0.02829247 0.11727508 0.033909548 -0.15770242 -0.084588625 -0.27803984 -0.021899106
0.01983809 0.10633153 0.034814868 -0.19917385 0.07525508 -0.19178976 0.073864765 -0.043466594
0.1769342 0.02660126 0.021392057 0.03980858 -0.17464444 0.17221987 -0.16792998 -0.06782931
0.1368457 0.0023151159 0.060861193 -0.08682529 -0.013611201 0.08724702 -0.06885882 0.04270434
-0.11441459 -0.034915354 0.034681737 0.033894137 0.11914566 -0.08835632 0.022635577 0.14721815
-0.024041938 -0.19448255 0.0004024444 0.11525491 -0.05717682 0.067393295 -0.52187383 -0.041034758
-0.014215061 -0.2264093 0.11951053 -0.24123545 0.068098314 0.057253473 0.085440114 -0.373858
-0.2528086 0.14574169 0.20640573 -0.16793266 -0.19426584 0.036591623 0.15982305 -0.24450125
0.21650267 0.023118857 0.060011294 -0.0055017723 -0.054954726 0.0384788 0.14765531 0.045354366
-0.19637448 -0.047585048 0.059388038 0.09812715 -0.27786344 -0.05238117 -0.024980241 -0.44483277
0.018477332 -0.14457767 -0.17358008 -0.30081344 0.04420096 -0.029986752 -0.5542741 0.098360516
0.015242336 -0.26685804 -0.07573129 0.027283264 -0.028729822 -0.01487679 0.12800428 -0.38174665
-0.08964432 -0.1697084 -0.07727055 0.090964295 0.054551084 -0.35526478 -0.24433166 0.01801046
00000000: b7f4 0abd 2de4 9bbc 21f6 d4bd a93f 8abd
00000010: 2e3f 26be ab31 e5bc 3781 383c 96e9 dfbd
00000020: 0b59 e3bd a38c 06be f35e 07be cdf1 abbc
00000030: f8ce 853d 3be3 2bbe 7b52 15be 1fea d43d
00000040: ced9 8bbd c579 0fbe f230 95bb bf3a 90bc
00000050: 3e71 aabd 03f7 f03c 8369 f3bd dbd8 65bd
00000060: db64 cebd cde8 083b 60d0 01bd 6a2f fbbd
00000070: ee93 783d 3ead 813c 157b 79bd 5223 cabc
00000080: 06fc abbd dc4d b53d edf3 c8bd f598 613d
00000090: 4c1b 96bd bdb7 efbd 762c 0f3d d99f 20be
000000a0: d5e8 a43b b786 dabd bef5 a9bd 554c ca3c
000000b0: 9d0d f4bd 612e fcbd 2196 b33d 2ea9 89bd
000000c0: 1041 5c3d 59b8 933d a095 e63d c643 92bd
000000d0: cdb6 c6bd 30b9 fd3c 787a 0dbe 400d 4b3d
000000e0: 5cdf 13be 287f 5a3c 1f29 9dbd a1f8 97bd
000000f0: ba40 b6bd 058e 85bd e973 36bd 6b78 00be
00000100: 3602 c6bd 78d5 c8be 9c0a b63d 5736 aebd
00000110: 7953 a03d 55e8 0fbe d426 0f3e 66d8 62bc
00000120: dc36 b2be 60e1 98bd 6e95 6abe e7f7 123e
00000130: b4ea fabc dcb7 0cbe f92f 453d ca7c 5e3d
00000140: 788e 16bd c2dc edbc b01f 98be 332b 353d
00000150: f3ef 1fbe 57f1 473e 5f14 f2bd b451 173e
00000160: 26b1 b8bd 7030 bb3d 2e9e 213e cbdb 06be
00000170: 254e 393d 5f31 45be 439d 5abe cdbf aabe
00000180: dde0 fd3c 71fd 4ebe 1960 113d 94c1 b7be
00000190: ef47 03be 32c8 76bd 489b 013d 17a9 8d3b
000001a0: 5647 60bc fa58 57bd dedd 67be 3a06 2c3c
000001b0: a02e 36bc b5c9 9b3d ee66 54be 1292 e0be
000001c0: 84c8 293d a92c 9c3d 1d1f a0bd 8963 59be
000001d0: 10fe 1b3e 53b4 f8bb ec29 94be b474 68bd
000001e0: e5c7 c8bd 97b0 013e cdfc 76ba 951b 4ebe
000001f0: b109 cbbd 2852 bfbd 5a63 97bd ab2c ecbc
00000200: 5097 d03d 3a95 b13d 6d16 22be ea34 5fbd
00000210: b698 3a3d 5d7a 453e 1973 5f3e 2bdb 4fbd
00000220: dd95 d5bd 60d5 ecbd 5a91 0ebc f476 97bd
00000230: 274d 91be c74f 93bd 9530 f7bd a392 fabd
00000240: bdf3 9c3d 8b4a 81be 8bf7 60be b87f 01be
00000250: e9ef 7bbe 6fd7 6b3d c74e abbd b19b 2d3b
00000260: 8f4f 0f3d 9cc5 e7bc eb2d f03d bde4 0a3d
00000270: be7c 21be cd3c adbd 3d5b 8ebe c165 b3bc
00000280: 7d83 a23c 58c4 d93d 099a 0e3d 3bf4 4bbe
00000290: 561f 9a3d 8964 44be 6946 973d 070a 32bd
000002a0: 3d2e 353e e3ea d93c 653e af3c 520e 233d
000002b0: fed5 32be 685a 303e d6f5 2bbe 18ea 8abd
000002c0: 4721 0c3e 33b9 173b 9649 793d 75d1 b1bd
000002d0: 8401 5fbc 91ae b23d da05 8dbd bfea 2e3d
000002e0: 3252 eabd 6703 0fbd 700e 0e3d 94d4 0a3d
000002f0: a402 f43d 29f4 b4bd 3f6e b93c 5bc0 163e
00000300: 99f3 c4bc 6f26 47be 2cff d239 c40a ec3d
00000310: 3e32 6abd 7f05 8a3d 8699 05bf 1014 28bd
00000320: 4ae6 68bc d7d7 67be f0c1 f43d 6d06 77be
00000330: 2177 8b3d 9e82 6a3d 3afb ae3d 516a bfbe
00000340: 2170 81be 4f3d 153e 065c 533e 8af6 2bbe
00000350: a0ed 46be 19e1 153d a7a8 233e 895e 7abe
00000360: e0b2 5d3e c263 bd3c 67ce 753d 3648 b4bb
00000370: 3518 61bd f29b 1d3d f432 173e 80c5 393d
00000380: 6416 49be 8ae8 42bd df40 733d e3f6 c83d
00000390: 1e44 8ebe a38d 56bd 5da3 ccbc 1fc1 e3be
000003a0: c65d 973c 2b0c 14be fabe 31be 3804 9abe
000003b0: 110c 353d c7a6 f5bc e8e4 0dbf 3d71 c93d
000003c0: feba 793c 9ea1 88be 0219 9bbd 2781 df3c
000003d0: ce5a ebbc c8bd 73bc 8e13 033e 4c74 c3be
000003e0: 7197 b7bd 0ac8 2dbe 0640 9ebd 7d4b ba3d
000003f0: f570 5f3d 44e5 b5be 1432 7abe ac8a 933c

latent_engine.prior_mlp.3.bias f4 [64]
-0.075716555 0.0383197 0.19797076 -0.11654548 0.061581105 0.1488173 -0.058449034 -0.032274447
-0.11132987 0.20235787 0.021378353 -0.11592331 0.13275398 -0.14327714 -0.013465895 0.21059181
-0.10366495 -0.15774737 0.22714499 0.058532998 -0.13551332 -0.0070947437 -0.05638773 0.20331115
0.01875973 0.024506843 -0.01693266 0.043455012 0.095687285 -0.1207146 0.1195829 -0.0005130087
-0.045218 0.069708824 0.23667622 0.2001639 0.111050695 0.15158474 0.038753927 0.09804609
-0.024220238 0.050652675 0.033299133 -0.0006613814 -0.21124695 0.06752449 -0.033137456 -0.10581917
-0.016089931 -0.17412907 0.03675307 0.15640983 0.010487279 0.046110347 -0.15642476 0.011844546
-0.05763178 0.048229188 0.0515651 0.1562955 0.22193047 0.025474442 -0.0052285143 -0.109428816
00000000: 4811 9bbd 1ef5 1c3d d9b8 4a3e 66af eebd
00000010: 783c 7c3d 9063 183e 4168 6fbd 3632 04bd
00000020: ea00 e4bd e736 4f3e a821 af3c 3369 edbd
00000030: a9f0 073e 3eb7 12be 0fa0 5cbc 61a5 573e
00000040: 4a4e d4bd 8788 21be b298 683e 4cc0 6f3d
00000050: 01c4 0abe 067b e8bb d2f6 66bd cc30 503e
00000060: 01ae 993c 93c2 c83c 5db6 8abc e2fd 313d
00000070: b2f7 c33d 3739 f7bd e1e7 f43d 6e7b 06ba
00000080: 8236 39bd 80c3 8e3d 405b 723e c4f7 4c3e
00000090: 8c6e e33d 0839 1b3e 70bc 1e3d 63cc c83d
000000a0: 8569 c6bc 2e79 4f3d ac64 083d 8e60 2dba
000000b0: 1f51 58be 484a 8a3d 24bb 07bd b9b7 d8bd
000000c0: 08cf 83bc e44e 32be 638a 163d e629 203e
000000d0: d6d2 2b3c 34de 3c3d d02d 20be a00f 423c
000000e0: 4d0f 6cbd f88b 453d ed35 533d ed0b 203e
000000f0: be41 633e c7af d03c f553 abbb 371c e0bd

latent_engine.mu_head.weight f4 [1, 64]
-0.031901218 -0.25059798 -0.12333421 -0.24579394 0.09849263 -0.18760087 0.067054756 0.102731064
-0.44716576 -0.18369845 0.073139794 -0.18761832 -0.19240364 0.014893582 0.11544988 -0.22803375
0.11565033 0.2618945 0.017851379 0.12192897 0.17081453 -0.20620891 -0.36005992 -0.21012646
0.18722361 -0.120840326 -0.24364111 0.16023682 -0.20244814 0.25762543 -0.13090298 0.002586412
0.23432213 0.18384308 -0.29278117 -0.2189367 -0.10585498 -0.17626987 0.019657806 0.05163562
-0.2025117 0.19698948 -0.21921581 -0.13323496 0.05788226 -0.26534367 0.097117506 0.19941124
0.13955057 0.118928745 0.121352285 -0.035632376 0.17458013 0.19783619 0.060790468 -0.3411201
-0.5198571 -0.19266275 -0.246061 -0.27778643 -0.3165019 -0.32237738 -0.31679013 0.0034776414
00000000: daaa 02bd 614e 80be a596 fcbd 68b1 7bbe
00000010: 81b6 c93d 711a 40be 0154 893d aa64 d23d
00000020: e9f2 e4be 721b 3cbe 51ca 953d 041f 40be
00000030: 7605 45be 3604 743c fd70 ec3d ae81 69be
00000040: 15da ec3d 0917 863e 0e3d 923c e5b5 f93d
00000050: 01ea 2e3e 6e28 53be c659 b8be 642b 57be
00000060: 8cb7 3f3e 227b f7bd 0e7d 79be 1f15 243e
00000070: 914e 4fbe 7be7 833e 6e0b 06be cb80 293b
00000080: 24f2 6f3e 5c41 3c3e 6ae7 95be f130 60be
00000090: 7fca d8bd 1780 34be 6809 a13c df7f 533d
000000a0: 3a5f 4fbe 9cb7 493e 1c7a 60be bf6e 08be
000000b0: f315 6d3d 20db 87be 8be5 c63d 7632 4c3e
000000c0: 58e6 0e3e ea90 f33d 8c87 f83d 41f3 11bd
000000d0: 22c5 323e 9295 4a3e 6dff 783d 4ba7 aebe
000000e0: 5b15 05bf 6249 45be 6af7 7bbe 063a 8ebe
000000f0: 890c a2be a60e a5be 5132 a2be 24e9 633b

latent_engine.logvar_head.weight f4 [1, 64]
0.06343398 -0.09949194 -0.033443842 -0.008001948 0.01220834 -0.14395888 0.082918726 -0.0006416331
-0.07289912 -0.01813538 -0.15005898 -0.013702006 -0.14876133 0.13690193 -0.05475834 -0.11234526
0.09159891 0.06342946 -0.09364531 -0.037600078 0.078938864 -0.09546465 -0.066349275 -0.24026972
-0.088137746 0.04924705 -0.07348484 0.04172142 -0.10852179 0.06315141 -0.0849514 -0.03912439
-0.0040359003 -0.03919009 -0.21562481 -0.119567916 -0.07420053 -0.022771772 0.08746788 -0.08209712
-0.045595575 0.049858287 -0.008434719 -0.021071775 0.045805883 -0.10000297 0.019696213 0.0038354066
-0.06363942 0.09654838 -0.06440485 -0.106648564 -0.024096666 -0.076659866 0.06515989 0.019896578
-0.018856173 -0.076560244 -0.0761089 -0.08837314 -0.20612033 -0.08362075 -0.11889421 0.10782384
00000000: ade9 813d 6ec2 cbbd 69fc 08bd 9a1a 03bc
00000010: 7d05 483c f569 13be 4bd1 a93d 4533 28ba
00000020: 224c 95bd a690 94bc 10a9 19be 617e 60bc
00000030: e454 18be 0530 0c3e 484a 60bd 4615 e6bd
00000040: 3698 bb3d 4ee7 813d 1dc9 bfbd 8a02 1abd
00000050: b3aa a13d f882 c3bd 21e2 87bd 4409 76be
00000060: 9081 b4bd 46b7 493d 387f 96bd 14e4 2a3d
00000070: ac40 debd 8755 813d 00fb adbd e540 20bd
00000080: 963f 84bb ca85 20bd c0cc 5cbe 06e0 f4bd
00000090: 73f6 97bd de8b babc 5c22 b33d 8922 a8bd
000000a0: 6dc2 3abd 3438 4c3d c731 0abc b79e acbc
000000b0: f39e 3b3d 5bce ccbd f459 a13c 725b 7b3b
000000c0: 6255 82bd 28bb c53d b1e6 83bd 906a dabd
000000d0: 5f66 c5bc d9ff 9cbd 8c72 853d 26fe a23c
000000e0: 4378 9abc 9ecb 9cbd fcde 9bbd fafc b4bd
000000f0: 3511 53be 5b41 abbd cf7e f3bd bfd2 dc3d

fusion_layer.alpha_s f4 [34]
0.3637267 0.47234306 0.3849652 0.17874834 0.21174438 0.91212 1.0942985 0.92999583
0.40048856 1.1709028 0.590478 0.9298304 0.90355825 1.1387267 2.3409188 1.2092662
0.7117739 0.4431056 0.742003 0.46510798 0.8038739 1.3164666 1.0089351 0.92939836
0.99414045 0.80098844 0.46566853 0.78855485 1.0682648 0.7761099 0.84970856 0.5
0.8269669 0.7963732
00000000: 633a ba3e f3d6 f13e 291a c53e ce09 373e
00000010: 85d3 583e b280 693f f911 8c3f 3514 6e3f
00000020: d60c cd3e 25e0 953f 9129 173f 5d09 6e3f
00000030: 984f 673f ccc1 913f 9dd1 1540 3cc9 9a3f
00000040: d036 363f bdde e23e e9f3 3d3f a222 ee3e
00000050: aeca 4d3f fa81 a83f c924 813f 0ded 6d3f
00000060: fd7f 7e3f 940d 4d3f 1b6c ee3e bbde 493f
00000070: e7bc 883f 23af 463f 8086 593f 0000 003f
00000080: 1ab4 533f 1ddf 4b3f

fusion_layer.g_s f4 [34]
0.07581541 0.27866948 0.46260548 -0.07873346 0.32190034 0.55596775 0.12781568 0.014810638
0.15497787 0.7117454 0.45996246 0.31594387 0.8803153 0.22295082 -1.310435 0.424025
0.14041549 -0.39840156 0.16255459 0.16615246 0.13252749 0.23928817 0.20364958 0.4635808
-0.10102772 0.60203916 -0.62040484 -0.1351175 0.27573198 0.06755171 -0.08812856 0.5
-0.22572796 -0.0466867
00000000: 1c45 9b3d c4ad 8e3e a0da ec3e 023f a1bd
00000010: 1fd0 a43e e753 0e3f 1de2 023e 51a8 723c
00000020: 85b2 1e3e f234 363f 3380 eb3e 65c3 a13e
00000030: 585c 613f 384d 643e 56bc a7bf ce19 d93e
00000040: 14c9 0f3e 4afb cbbe b674 263e df23 2a3e
00000050: 49b5 073e f507 753e 8489 503e 765a ed3e
00000060: 9fe7 cebd 3d1f 1a3f dad2 1ebf 3e5c 0abe
00000070: be2c 8d3e 8d58 8a3d bf7c b4bd 0000 003f
00000080: 3b25 67be 8e3a 3fbd
