best_model_s31.pth (torch, 27269 bytes, 9 tensors)

latent_engine.industry_embedding.weight f4 [8, 8]
000000 ea 64 f8 3d 95 a7 25 be d1 b4 7b bf 16 a5 b0 bf
       0.12128623 -0.16177209 -0.9832278 -1.380038
000010 bd ee fe 3f 46 f7 f9 be f3 f8 64 3f 72 b0 87 bf
       1.9916607 -0.48821467 0.89442366 -1.0600722
000020 d2 51 e8 bf 99 11 df 3f 67 1f a4 bf 8c 70 40 bd
       -1.814997 1.7427245 -1.2822083 -0.046982333
000030 38 89 14 3e ef f7 14 bf d4 b8 93 be d5 c6 10 3c
       0.1450547 -0.58190817 -0.2885195 0.008836468
000040 11 66 94 3e f7 8e 0b 3f e9 59 01 c0 62 31 a7 bf
       0.2898412 0.5451502 -2.0211127 -1.3061945
000050 6f 00 06 bf be 3f 82 3f 11 92 90 3e 67 ed 59 bf
       -0.5234441 1.0175703 0.2823644 -0.8512787
000060 f3 44 10 bf 0c af 3f be 5b 02 b7 be bf d3 f2 be
       -0.5635521 -0.18719119 -0.35743985 -0.47427174
000070 da 36 e5 bf e8 e3 0f bf 5c ec 9a be a1 e5 80 3f
       -1.7907364 -0.5620713 -0.30258453 1.0070077
000080 70 4d d8 3d db d8 fa be 7d da 37 3f 24 65 08 bf
       0.10561645 -0.48993573 0.7181776 -0.5327933
000090 8a 57 9f be eb f0 a8 bf 16 06 40 3f 29 b2 81 bf
       -0.31121475 -1.3198522 0.75009286 -1.0132495
0000a0 51 8a a5 3e 52 a6 78 3f 91 b4 a7 3e e3 d7 c2 3e
       0.3233209 0.97128785 0.3275495 0.38055333
0000b0 c4 9e 92 bf 98 6e ad bf c1 11 59 bf cd b5 ac 3f
       -1.1454701 -1.3549376 -0.84792715 1.3492981
0000c0 8c 08 a9 bf ab 98 5a bf 65 1f b7 3f 4e 91 90 3f
       -1.3205733 -0.853892 1.4306456 1.1294343
0000d0 48 ce bc 3e e0 99 a2 bf 21 9a 31 bf 18 29 c1 be
       0.3687613 -1.2703209 -0.6937581 -0.37726665
0000e0 1d 64 c1 3f 5b 93 74 3f 44 f8 b2 bf 7a ec 0e 3e
       1.5108677 0.95537347 -1.3982015 0.13957396
0000f0 5a 37 82 bf 02 75 b6 be 9f 06 35 bf 50 35 18 bd
       -1.0173142 -0.35636145 -0.7071323 -0.037160218

latent_engine.prior_mlp.0.weight f4 [64, 14]
000000 34 f2 4a 3e 24 b0 23 3e 4d e9 11 be 64 b8 b3 bb
       0.19818956 0.15985161 -0.14249153 -0.0054846276
000010 98 90 76 3e 75 38 b6 bb df 20 9c bd 1f 2d 3b be
       0.24078596 -0.0055609294 -0.07623457 -0.18278931
000020 21 48 30 be 2c 29 d6 3d 3e 2c c1 3d b4 5d bf bd
       -0.17215015 0.10457072 0.09432267 -0.09344044
000030 6e e5 57 3e fa 17 94 bc 19 6e 13 bc 18 e1 21 be
       0.21083614 -0.01807784 -0.008998417 -0.15808523
000040 f1 5e 4b be f5 bc a4 3d a8 ed 42 3e 5a 4f 11 3e
       -0.19860436 0.08043853 0.19035971 0.14190426
000050 b3 b9 30 be e9 e5 cb bc 89 17 f8 bd 46 b6 58 bd
       -0.17258339 -0.024889903 -0.12113864 -0.052908204
000060 01 3d 9e be 8b 5e 8b 3c 96 c7 72 3d bd 6e 8a be
       -0.30905917 0.017012855 0.05927237 -0.27037612
000070 d1 e0 ed bd 08 c1 44 be f6 bc 7b 3e 4a ed b2 3d
       -0.11615146 -0.1921426 0.24583802 0.087366655
000080 f2 21 ea 3d 88 9a 04 be 77 c9 c6 bd 22 92 94 be
       0.11432256 -0.12949574 -0.09706395 -0.2901774
000090 1b a7 57 be cd 26 19 be 55 43 e0 3e d6 a2 a5 be
       -0.2105984 -0.14956208 0.4380137 -0.32350796
0000a0 03 8d 3a 3e f4 87 7f 3d d6 83 21 be 7c f7 01 be
       0.18217854 0.062385514 -0.15772948 -0.12692064
0000b0 2b ac 93 3d 69 62 5e bd 96 70 0f 3e 16 eb 77 bd
       0.07210573 -0.05429307 0.14007792 -0.06052693
0000c0 2a 7a 5d 3e 0f 7d 26 3e c6 b5 4f be ef a9 66 be
       0.21628633 0.16258644 -0.20284185 -0.22525762
0000d0 c5 36 d3 3e e4 15 1d be d7 74 3e be 9e af 62 3d
       0.41252723 -0.15340382 -0.18599258 0.055343263
0000e0 77 78 91 3e 12 ba ec 3d b7 9a 54 3e 86 fd 89 be
       0.2841222 0.115589276 0.20762144 -0.26951236
0000f0 22 67 8f bd 1a d3 31 be e9 19 62 3d b9 c8 33 be
       -0.07002093 -0.17365685 0.05520049 -0.17557038
000100 af 27 d5 3c a8 c8 ed bd 9a ef 55 3c a3 a7 38 bd
       0.0260199 -0.11610538 0.013057614 -0.045081746
000110 b4 84 90 bc e1 c2 12 3e 72 06 6b be 12 66 15 3e
       -0.017641403 0.14332153 -0.22951677 0.14589718
000120 bd 4f 40 be 86 1a 1b 3e 78 fd 82 3d fa 8f 2a 3e
       -0.18780418 0.15146837 0.063960016 0.16656485
000130 0f 49 5a be 44 92 a6 3d e2 53 65 3e 00 39 e8 3b
       -0.21316932 0.08133367 0.2239528 0.007086873
000140 24 90 ca be 10 da 18 be 53 c4 43 3e 79 ac 87 3e
       -0.39563096 -0.14926934 0.1911786 0.26498774
000150 3a f0 95 be 92 32 08 be 31 87 f7 3d 7e 30 03 3c
       -0.2928484 -0.13300541 0.120863326 0.008007167
000160 12 67 6f be 36 9d 60 be 8e a7 2a 3d ef 58 c0 bd
       -0.23379162 -0.21934971 0.0416637 -0.09391963
000170 30 70 da 3d 6c 8f f1 3d a2 ff 6c be 72 89 9e 3c
       0.10665929 0.11794934 -0.23144391 0.019352648
000180 53 58 12 3e fa 13 74 be 90 f9 33 be fa 5b 1f be
       0.14291506 -0.23835745 -0.1757567 -0.1556243
000190 de 70 ad bd a6 f7 46 3e 54 58 89 be ce 6d 28 bc
       -0.08468793 0.19430408 -0.26825202 -0.010280086
0001a0 05 a6 1c be 06 18 55 be 4e 6b 41 3e d2 46 6c 3e
       -0.15297706 -0.20809945 0.1888859 0.23073891
0001b0 cd 94 06 be 53 7f 4d 3e c9 8f 84 3e 88 77 5e 3e
       -0.131427 0.20068102 0.2589095 0.21725285
0001c0 83 61 4e 3e 04 76 e0 3d 1a 32 64 3e bd 1a 1f bd
       0.20154385 0.1096001 0.22284737 -0.03884386
0001d0 b9 41 0e be 4b 12 8c 3c d9 74 60 3e 4d 25 59 3e
       -0.13892259 0.017098567 0.21919574 0.21205635
0001e0 fa 1f db 3d 8b f5 81 bd 70 fa 9a be ac d3 e4 3d
       0.106994584 -0.06345662 -0.30269194 0.11173186
0001f0 59 22 80 3e 1e 0c be 3d fb ea 96 be 78 aa 09 3e
       0.25026205 0.09279655 -0.2947615 0.13443935
000200 6f af e4 3d 97 db 78 bc 1d 86 b3 bd 13 a3 72 3b
       0.11166274 -0.015189073 -0.087658145 0.003702347
000210 72 1f 3d 3d 4c c8 92 bc ae 85 e7 3d 77 e3 8a be
       0.046172567 -0.017917775 0.11304794 -0.27126667
000220 18 d5 5c bd 28 61 d5 bc ef 24 36 3d 89 47 6a 3e
       -0.05391416 -0.026047304 0.044468816 0.22878851
000230 94 a3 01 bd c8 25 a6 be 03 a9 5b 3e 90 08 83 3e
       -0.03165014 -0.324507 0.21451192 0.2559247
000240 d5 8e 14 3e 3c c1 65 3e fb 48 43 3e 54 83 5d 3e
       0.14507611 0.22436994 0.19070809 0.21632129
000250 df 84 19 be 2e 51 f5 3d be 02 c2 3e db 03 4a be
       -0.14992093 0.119783744 0.37892717 -0.19728033
000260 1d ea a8 3c 30 55 66 be 22 fc b7 3d e0 fa 03 3e
       0.020619446 -0.22493434 0.089836374 0.1288867
000270 d7 55 a0 bd 53 3c b1 3d fc 58 03 3d ac 01 92 ba
       -0.07828873 0.08654084 0.032067284 -0.0011139414
000280 7b d9 2c 3e fc 52 fe 3a 9e 19 90 be e9 23 1d 3e
       0.16879837 0.0019403393 -0.28144544 0.1534573
000290 72 c9 09 3d b2 22 01 be dc 86 fb 3c d2 d9 4e 3e
       0.03363938 -0.12610891 0.030703954 0.2020028
0002a0 a4 0f 99 3d 30 c7 67 bd 2e 3d 9b 3d fc 6c 3e 3e
       0.07473686 -0.056586444 0.075800285 0.18596262
0002b0 32 d1 ba 3d dd f0 71 be 6e 80 05 3e 1f 84 62 3e
       0.09121932 -0.23627038 0.13037273 0.22120713
0002c0 ee 71 6a be 64 2e b0 bc 46 91 96 bc 4b b5 27 3e
       -0.22895023 -0.021506496 -0.018379819 0.16377752
0002d0 bf 43 c5 3c 65 ee e0 3d 52 58 9f 3e 30 43 14 be
       0.024080155 0.1098297 0.3112207 -0.14478755
0002e0 5c 59 97 bd b4 23 62 be 7c d6 17 be c7 ac 11 3e
       -0.07390091 -0.22083932 -0.14827913 0.14226066
0002f0 bf 40 5e 3e 58 36 45 3e c9 f5 85 3e 47 5e 6f bc
       0.21704386 0.19259012 0.26164082 -0.01460988
000300 a2 53 aa be f7 7f 7c be 3a 86 41 be 2a 3a 3c 3c
       -0.33266932 -0.2465819 -0.1889886 0.011488477
000310 2a 50 08 3e 6a 34 46 be 27 67 a9 bd ec 12 ab be
       0.1331183 -0.19355932 -0.08271628 -0.33412874
000320 7e 5e f0 bd 2c b4 fe 3d 1e 49 f6 3d 10 6c e4 3d
       -0.11736773 0.12436709 0.12025665 0.11153424
000330 81 b1 8c bd bf bd 90 3e fa cc 15 be a4 09 54 3e
       -0.06869794 0.28269765 -0.14628974 0.20706803
000340 3c d7 c8 3c ca 4d 2d 3d e0 df 73 3e 56 3d 67 be
       0.024516694 0.042310514 0.2381587 -0.22581992
000350 1d cc f4 3d 5e 9d 37 bd 08 39 00 3e ce 1e 15 be
       0.11952994 -0.04482781 0.12521756 -0.14562532
000360 8e d2 4e 3e 2c 3a 6d be 21 ad 1f be 1b c8 38 be
       0.20197508 -0.23166722 -0.15593387 -0.18045084
000370 d1 6f 52 be c6 ef 29 3e ae 92 17 be f3 f1 54 bd
       -0.20550467 0.16595373 -0.14802048 -0.051988553
000380 a5 8a 18 3e 91 e5 f9 3c 8d 16 f8 b9 5f 7a 79 3e
       0.14896639 0.030504974 -0.00047319048 0.24363087
000390 64 62 4f be 55 ad 2d be a6 27 ee 3d 7d 65 39 be
       -0.20252377 -0.16960652 0.11628656 -0.18105121
0003a0 32 8e 23 be 60 6e 4a 3e 59 42 ca 3e d3 8a a9 3d
       -0.15972212 0.19768667 0.39503744 0.08278432
0003b0 7c 73 20 3d 6d 00 ae 3d 83 eb a9 bd f1 6b 97 3d
       0.039172634 0.08496175 -0.082968734 0.07393635
0003c0 56 34 77 bd da 3a 8f be 32 25 f3 3d ab 4e 54 3c
       -0.060352646 -0.27974588 0.11872329 0.012958209
0003d0 28 0a 64 bd 78 d0 3d 3e a8 41 48 be 0d 25 33 3e
       -0.05567375 0.18536556 -0.19556296 0.17494603
0003e0 59 5e 14 3e 7c a0 ab bd cd 8d ea bc 4e ad 7c 3b
       0.14489116 -0.08380219 -0.028632069 0.0038555446
0003f0 62 72 1d be ab 6a 7c be 98 0e c9 3d 88 d9 7c bd
       -0.15375665 -0.24650066 0.09817237 -0.06173089

latent_engine.prior_mlp.0.bias f4 [64]
000000 d1 96 77 3d a1 39 d2 3d f7 c3 26 bd 17 c0 6e 3e
       0.060446564 0.10264898 -0.04071423 0.23315464
000010 4e 34 94 bd 7c dc e2 3d a3 d2 07 3c b4 fd 6f 3e
       -0.07236539 0.1107721 0.008289966 0.23436624
000020 6e 75 0f 3e 83 ed 86 be 8f e7 3b be 6f 21 61 3e
       0.1400964 -0.26353082 -0.18350051 0.2198541
000030 fd e0 d8 bd 2f 39 2a 3e 44 4d 33 be 0a 45 08 3e
       -0.10589788 0.16623376 -0.17509943 0.13307586
000040 59 79 5c bd 43 a0 17 3e 85 0d 10 3e b3 05 5e be
       -0.053826664 0.14807229 0.14067657 -0.21681862
000050 23 f6 09 be 7e 7d 57 3d fe 00 c6 bd d9 2b 64 3e
       -0.134728 0.052609913 -0.09668158 0.22282352
000060 b5 54 84 3d c4 b7 72 be e2 0f 25 bc 03 cf 41 be
       0.06461469 -0.23702914 -0.010074588 -0.18926625
000070 56 30 45 be ec 79 e9 bc ed c4 1f 3e 43 19 7d bd
       -0.1925672 -0.02850052 0.15602465 -0.06179167
000080 fb f3 b4 3d 35 87 49 be 02 a8 f4 3c 61 16 75 3d
       0.08835598 -0.19680484 0.029865269 0.059835795
000090 fd 66 8c be 72 34 b8 3d 69 3b 52 3e 3b 5a 55 3e
       -0.27422324 0.08994378 0.20530476 0.20835201
0000a0 a2 69 86 3e 54 55 04 3e 76 e4 ac 3d 36 98 17 3e
       0.26252466 0.12923175 0.08442013 0.14804158
0000b0 72 bc 39 3d f5 ff 0a be 4b cf c8 3d 17 42 59 bd
       0.04534573 -0.13574202 0.09805163 -0.053041544
0000c0 bd eb be bd c1 f4 9e 3d ef 6f c3 bd e6 43 f7 3d
       -0.09322307 0.07761527 -0.09542834 0.120734975
0000d0 ca 40 8f 3e a7 12 ec bc 02 95 02 3d 34 aa 3f be
       0.27979118 -0.028817488 0.031880386 -0.18717271
0000e0 20 98 28 be 69 ad 59 bc 15 e2 a3 bd a8 ff c0 bc
       -0.16464281 -0.013285973 -0.08002106 -0.023559406
0000f0 dd 62 b3 3d c6 ef 4f 3e c9 0a d9 bd 51 a5 f4 3c
       0.08759091 0.2030631 -0.1059776 0.029863985

latent_engine.prior_mlp.3.weight f4 [64, 64]
000000 f7 35 e7 3b aa 8f 24 3c e9 3b f4 3c dd 23 3d 3b
       0.0070559937 0.010044018 0.029813724 0.0028860488
000010 c1 51 55 3d 58 1e 25 bd f5 32 9c bd d2 cd 03 be
       0.05207992 -0.04031214 -0.07626907 -0.12871483
000020 80 87 35 bd 13 60 15 be 39 e7 95 bd f6 ff 6d bc
       -0.044318676 -0.1458743 -0.07319493 -0.014526358
000030 84 ef 78 bd 27 d0 1c 3e 62 a6 a6 b9 b6 75 9f 3d
       -0.060775295 0.15313779 -0.00031785952 0.077861235
000040 28 91 e8 bd a9 4b 31 bd 30 d8 5f be 72 05 d4 3d
       -0.11355811 -0.043285046 -0.21859813 0.10352601
000050 d8 0e 83 3b a9 5d d7 3d 72 2c b8 3d 47 cc 91 3d
       0.0039995722 0.10515911 0.08992852 0.07119041
000060 aa 68 20 bd aa be 05 be 39 ae a5 3c 39 9b 24 bd
       -0.039162315 -0.13061014 0.020224677 -0.040187094
000070 19 89 b3 bd 45 0e 52 be 66 c7 1c 3d 28 71 14 bd
       -0.08766384 -0.20513256 0.0382761 -0.036240727
000080 88 dc d1 3d 8d 0f f8 bd b2 20 af bd 35 f6 14 bd
       0.10247141 -0.12112341 -0.08551158 -0.036367614
000090 4c d7 f2 bd 5b 77 45 3c 2f 98 01 be 0f 1a 21 bd
       -0.11857471 0.012052382 -0.1265571 -0.039331492
0000a0 f4 19 d4 bd b7 d7 13 3d fe 20 c1 3c 97 d2 53 3d
       -0.10356513 0.036094394 0.023575302 0.051714506
0000b0 a6 de 04 3c e9 91 ff 3c d2 76 11 3e 41 71 06 bd
       0.008109724 0.031197505 0.14205483 -0.03282285
0000c0 51 ef 18 3e d9 c3 9a bc a0 18 9a 3d c3 2f b4 3d
       0.14935042 -0.018892216 0.07524228 0.08798172
0000d0 39 7d 12 3e 68 7b 3a 3d 42 7f d7 bd 00 d5 d1 3c
       0.14305581 0.045527846 -0.105223194 0.025614262
0000e0 bc d7 12 3c 17 ff 37 3d 6d 6b d0 bd 9d d8 ac 3c
       0.008962568 0.044921007 -0.1017674 0.021099383
0000f0 52 31 5e bd 19 dc a6 3d 58 d7 49 3d b5 63 ac 3d
       -0.054246254 0.08147449 0.049277633 0.08417455
000100 6b 90 a1 bd 3f c0 4c 3d 64 42 0b be 2b 82 8f bd
       -0.07888874 0.049988028 -0.13599545 -0.070072494
000110 62 44 d6 bd 7c 52 ab 3d cb a7 44 3d c7 1a 9f 3d
       -0.10462262 0.08365342 0.048011582 0.07768779
000120 1d c2 b5 bc a1 31 4c be 3b e5 cd bd a2 ce d2 bd
       -0.022187287 -0.19940807 -0.10053488 -0.10293318
000130 f5 bd 8e bc 5d 0b 13 3c 57 a0 80 3d 2c 60 bf bd
       -0.017424563 0.008974877 0.062805824 -0.09344515
000140 e9 63 26 bd 87 02 4c bd 14 17 3f bd a4 81 a7 3d
       -0.040622625 -0.049807098 -0.04665287 0.08179024
000150 02 25 07 be 54 49 bb bd f3 bc 9d bd f3 12 79 3c
       -0.13197711 -0.091448456 -0.07702055 0.015202272
000160 2e 92 ac bd e6 64 28 3d d6 49 d6 bb 5b 2c 93 3d
       -0.08426319 0.04111185 -0.0065395636 0.071861945
000170 74 d0 48 bd b2 24 eb 3d 31 96 e7 3d ec 80 31 3d
       -0.04902692 0.114816085 0.113079436 0.04333584
000180 bf 49 d2 3d 96 1d 8c bd 38 e7 3e 3d e2 1d 2c be
       0.10267972 -0.068415806 0.046607226 -0.16808274
000190 0b d9 87 bd 2a cb ed bc 39 fb 68 3d f9 5f 0f 3d
       -0.066331945 -0.02902754 0.05688021 0.035003636
0001a0 c1 82 ad bd 3e fc 60 bd 3c b5 f6 3d 0b 52 87 bc
       -0.08472205 -0.054928057 0.120462865 -0.016518613
0001b0 91 04 43 3d 5d 32 06 3e a3 76 7f bd 20 9d 98 bc
       0.047611777 0.1310515 -0.062369 -0.01862961
0001c0 01 9a d7 3c e5 54 79 bd 54 ca a7 3c 14 f9 06 be
       0.026318552 -0.060871977 0.02048222 -0.13180953
0001d0 10 f0 62 3d a0 7f d0 bd 4f ea 99 bd 2c 68 e0 b9
       0.055404723 -0.101805925 -0.07515394 -0.00042802223
0001e0 ae b2 2b 3d d9 26 bc bc ae 89 77 bd 42 ca d7 bc
       0.04191845 -0.022967743 -0.060434036 -0.026341561
0001f0 7a ac 2a bc 58 05 9a 3d b0 3a 83 bb 9d b9 dd 3d
       -0.010417098 0.075205505 -0.004004799 0.108264185
000200 77 30 91 3d f7 7a e1 bd 5b 68 30 3d a3 2a 9c bd
       0.07089322 -0.11009782 0.04306827 -0.0762532
000210 1f e0 5f bc ac 17 52 bd 6a f1 2b 3e 0b 8c 4f bd
       -0.0136642745 -0.051292107 0.16791311 -0.050670665
000220 7a ab 80 3d ec 9c df 3d a5 3c ae bd 3e c4 ba bd
       0.062827066 0.10918602 -0.08507661 -0.091194615
000230 cc 53 82 3d 0c a4 ce 3d e6 51 00 3d 12 c8 08 3e
       0.06363639 0.10089883 0.031328104 0.13357571
000240 f0 e8 98 bd 2a ef e8 3c 88 db f1 bd b1 45 d5 3d
       -0.07466304 0.028434355 -0.118094504 0.10413683
000250 ec e1 95 bd 53 2d 05 bd d7 65 c4 bd 18 b5 cf 3d
       -0.07318482 -0.032513928 -0.09589737 0.10141963
000260 50 b4 93 3d 0b bb 73 bd 7c 9b ec 3d 6a 1c 60 38
       0.07212126 -0.05950455 0.11553094 5.3432224e-05
000270 56 f4 d7 3c 82 02 27 be 09 6b 17 3d 44 f8 84 bd
       0.026361626 -0.1630955 0.03696731 -0.064926654
000280 d1 61 f5 3c fd 70 c9 bd 5b 53 1b be 83 15 d0 3d
       0.029953869 -0.09836004 -0.15168516 0.10160353
000290 e0 d4 10 be 61 e2 e7 bc 59 e2 99 bd 19 63 0e 3d
       -0.14143705 -0.028306188 -0.075138755 0.034762476
0002a0 2e 9f 8c 3d d9 e0 25 bc c7 ad 71 bc 5a 8c 08 3d
       0.068662986 -0.010124409 -0.014750904 0.033336975
0002b0 7b 76 51 3c 22 53 a7 3c cb bd 8d bc 51 50 8e 3c
       0.012784596 0.020425383 -0.017302414 0.017372282
0002c0 a4 b7 b2 bd b1 64 27 3c f7 3d 9e 3d 3a a4 1f 3e
       -0.08726433 0.010216878 0.077266626 0.15589991
0002d0 47 2e da bd 1f 99 1b 3e 5e 18 ce 3c fc 1c 0f bb
       -0.10653358 0.1519513 0.025158104 -0.0021837344
0002e0 e9 6b dc bc 8b 05 fd bd c1 e2 ba bd 40 d2 19 3d
       -0.026906924 -0.12354573 -0.09125281 0.037554026
0002f0 5c b7 24 3e d6 f3 98 3d cd e1 93 3d 7c 2b 3b 3d
       0.16085571 0.07468383 0.072208025 0.045695767
000300 8c aa 02 bb b5 62 90 3d c5 65 08 3c 34 1a 85 bd
       -0.001993808 0.07050077 0.008325045 -0.064991385
000310 9a 68 05 bd cb d8 d1 3d d2 dd 2e 3e c3 9d 14 3e
       -0.03257046 0.10246428 0.17076805 0.14513306
000320 38 93 7e 3d e9 25 bb 3c b9 83 50 bc 9f e4 c3 bd
       0.062152117 0.022845225 -0.012726718 -0.095650904
000330 80 dd 9a 3d 59 e8 43 3e cd 44 b2 bd 13 c4 d2 bc
       0.07561779 0.19131602 -0.08704529 -0.025728261
000340 1b 9a 38 bd 4a 37 40 3d 08 9b 60 bd 70 28 50 3d
       -0.04506884 0.046927728 -0.05483535 0.050819814
000350 93 ac c9 3d 99 f2 4d bd 14 93 22 3e a6 a3 64 bd
       0.09847369 -0.050280187 0.15876418 -0.05582013
000360 d9 ea c2 bd 1c 62 95 bd 66 b1 db 3c c7 61 04 bd
       -0.0951745 -0.072941035 0.026817989 -0.03231981
000370 59 6c a4 3c b2 d8 9e bd 95 d6 99 3d db 25 97 3d
       0.020071195 -0.07756175 0.075116314 0.07380267
000380 dc bd 0d 3e 0c 51 19 be 57 05 6c bd d6 9a df bd
       0.13841957 -0.14972323 -0.05762228 -0.109182045
000390 36 13 85 bd f8 e2 61 3c 72 27 ae 3d e9 60 8c bd
       -0.06497805 0.013787024 0.08503617 -0.06854422
0003a0 5d 25 44 bd 4c b0 ea bd 46 e4 9b 3d cb da a3 3c
       -0.047887195 -0.11459407 0.07611899 0.02000179
0003b0 be b2 36 3e 9a cc c2 3b 1e 5a 3f bc 4a 56 26 3e
       0.17841622 0.0059448006 -0.0116792 0.16243854
0003c0 d4 4f ad 3d ba cf 4a 3e 0b 8e 8b 3d fa 83 8f 3d
       0.08462492 0.19805804 0.06814202 0.070075944
0003d0 4b db 11 be ce 28 eb bc 59 cb 10 bd 5b 05 fc 3b
       -0.1424381 -0.02870598 -0.035350177 0.007691068
0003e0 69 81 82 3c 4c 49 2b 3d 62 9e 34 3d c1 41 13 3e
       0.015930848 0.04181795 0.044096358 0.14380552
0003f0 c3 6e db 3d 35 9f f5 3d c3 70 8c 3d 0b f8 ab 3d
       0.107144855 0.11993257 0.06857445 0.0839692

latent_engine.prior_mlp.3.bias f4 [64]
000000 d5 85 2d bd 2d 2d 31 bc 0f 9a cf 3d 21 3d 4f bd
       -0.04236396 -0.010813993 0.10136806 -0.050595406
000010 a8 37 ec 3c 06 52 14 bd cf 23 03 be f2 35 0a be
       0.028835133 -0.036211036 -0.12806629 -0.13497141
000020 07 68 f0 3c 54 43 19 be 5d af 12 3e f4 29 27 3e
       0.02934648 -0.1496709 0.14324708 0.16324598
000030 de 14 a1 bb aa 7f c1 3d 29 92 62 3d ce 07 10 3e
       -0.0049158176 0.09448178 0.05531517 0.14065477
000040 17 a0 85 3d 67 74 f9 bc d7 ff 44 bd 21 d5 cf 3c
       0.06524675 -0.030451013 -0.04809555 0.025370182
000050 e6 9e d4 bd f9 2f 2a 3e 08 dc d7 3d 10 1e da 3c
       -0.1038187 0.16619863 0.105400145 0.026625663
000060 c5 dc f5 bc 5b 32 8c 3d 2a aa b1 3d d4 a5 0a be
       -0.030012498 0.06845542 0.08675034 -0.13539821
000070 cc 88 4d 3d de 12 b1 bc ac e6 d9 3d 7b a4 c1 bd
       0.050179288 -0.021615442 0.106397 -0.094552
000080 71 cb a3 bd d9 a9 5c 3d 2c aa e8 3c a8 b3 52 bd
       -0.07997788 0.053872917 0.028401457 -0.051440865
000090 ce 0b ee 3d cb 82 b5 3d 78 b8 92 3d 91 3e 29 bd
       0.11623345 0.088628374 0.07164091 -0.041319434
0000a0 a4 fc e9 3d d2 70 e5 3d b8 21 a9 bd e3 06 62 bd
       0.114251405 0.112031594 -0.082583845 -0.05518235
0000b0 a8 89 45 bd 82 07 4b 3d 55 75 01 3c 05 cc 5a 3d
       -0.048226982 0.049567707 0.007901509 0.053417224
0000c0 eb 1f d8 bc 4e 6d 1b bd ea 1a 5f bc d7 b6 7a 3c
       -0.026382407 -0.037946038 -0.013617257 0.0153023815
0000d0 af 13 b5 3c 64 d5 df bd 07 00 08 3e 90 a5 a5 bd
       0.022104112 -0.10929373 0.1328126 -0.08088219
0000e0 7e 69 5e 3d bf c5 63 bd 4c b6 f7 bd d0 26 cd 3c
       0.054299824 -0.055608507 -0.12095317 0.025042921
0000f0 97 9e 06 3d f2 5e 41 bd 47 85 53 bd 3d 0b 07 be
       0.032866087 -0.047209688 -0.051640775 -0.13187881

latent_engine.mu_head.weight f4 [1, 64]
000000 45 2f ad 3d 23 48 db 3c f0 93 04 3e 8c b8 c3 3d
       0.084562816 0.026767796 0.12947059 0.09556684
000010 8f b6 55 bc e8 bd 0a 3e 58 5c a4 3d 95 8b 5b bd
       -0.013044014 0.13549006 0.08025426 -0.053599913
000020 df a4 a7 3b a2 08 12 bc dd 83 26 bd 22 8d 04 bd
       0.0051160897 -0.008913191 -0.0406531 -0.032361157
000030 78 1d 79 3d 8a 9d db bd df f6 e9 3d cf eb 35 3d
       0.06081912 -0.107234076 0.1142404 0.044414338
000040 f1 dd 56 be 20 8d 37 be 36 fe df bc 8e 37 a2 3d
       -0.20983101 -0.17924929 -0.027342897 0.079207525
000050 9e a3 1b be 04 d8 2a bd 07 e0 ac bd 6f e9 e4 bd
       -0.15199134 -0.041709915 -0.08441167 -0.111773364
000060 2a 40 80 3d 1f 24 ee 3c 81 33 80 3d 8a 1c 8d 3d
       0.06262238 0.029069958 0.062598236 0.06890209
000070 42 72 05 3e 93 5f 22 be fd fa 13 be db 5d db bc
       0.13031867 -0.15856771 -0.14451213 -0.026778152
000080 45 3b b6 3d e3 15 d5 3d 67 a7 e6 3d d0 c1 0d be
       0.088980235 0.10404565 0.11262398 -0.13843465
000090 da 9d ba bd 0b 34 a6 bd f8 2f f0 3d f4 b0 ab bd
       -0.09112139 -0.08115395 0.11727899 -0.083833605
0000a0 1a 98 73 bd bf 9d 9a bd bd c7 7a 3d e4 8e ad 3c
       -0.059471227 -0.07549619 0.06122564 0.0211863
0000b0 01 3b 4b bc de c9 85 3d 76 7b 0d 3d 03 75 8b 3d
       -0.012404204 0.06532644 0.03454157 0.068094276
0000c0 76 3b cb bd 6d f5 6a 3d 3f 6d 82 bc 32 df 42 be
       -0.09923451 0.057362963 -0.015921233 -0.19030455
0000d0 5e 31 0d 3e b6 f4 f8 3d eb be 8d 3d e1 4e e0 3c
       0.13788363 0.1215605 0.0692118 0.027381362
0000e0 04 11 d9 bd 59 a2 51 3d 29 d7 55 bd 63 ab 84 bd
       -0.105989486 0.051180217 -0.052207146 -0.06478002
0000f0 44 5e 9b bd b7 44 15 bd 32 a1 c9 3d b8 84 8f 3d
       -0.07586339 -0.036442485 0.09845199 0.07007736

latent_engine.logvar_head.weight f4 [1, 64]
000000 ef 8f ac bd b5 7e 98 bc b3 c9 17 bd b8 15 2d bc
       -0.08425891 -0.018615106 -0.03705759 -0.01056426
000010 72 25 12 3d 7c e8 36 bd 80 90 f6 bc 27 f4 c4 bd
       0.035680242 -0.044655308 -0.0300982 -0.09616881
000020 6a e0 26 bd 63 ac 8e 3d de 38 86 bd 4f 96 76 bd
       -0.04074136 0.06966474 -0.06553815 -0.06020194
000030 71 51 57 3d 44 6b ff bb 5d ed ca bd 8a bd b4 bd
       0.052567903 -0.0077947695 -0.09908555 -0.08825214
000040 fd 8a fd bc 87 a5 61 bc e8 ec 59 3d 0b 35 3d 3d
       -0.030950064 -0.013772375 0.053204447 0.046193164
000050 93 4f e9 bd 72 b5 af bd db 6b 20 3d 7f 21 80 bd
       -0.11392131 -0.0857953 0.03916536 -0.06256389
000060 1c fc d0 3d c2 b1 d7 bd 79 14 68 bd b7 4d a6 bd
       0.10204336 -0.105319515 -0.05666015 -0.08120292
000070 a3 a6 7b 3d f9 de 29 3c cd 29 0d 3c 78 7f 28 3d
       0.061438214 0.010368102 0.008615923 0.04113719
000080 ea 0d 00 3d fc 31 c7 bd 8f 32 ec 3c b4 86 92 bd
       0.03126327 -0.09726331 0.028832702 -0.07154599
000090 d6 3c 65 bd b3 51 56 3c 46 67 18 bd 64 93 9e bd
       -0.05596622 0.013081002 -0.037207864 -0.07742956
0000a0 9e cc ff bd 9a 8c 5b bd 39 ad c8 bd dd 81 6b 3d
       -0.124901995 -0.053600885 -0.097986646 0.057496894
0000b0 21 94 17 3d 78 1c 84 bd c2 bc 22 bc c4 ea 75 3d
       0.0370065 -0.064507425 -0.009932699 0.060038343
0000c0 fe a7 09 be d2 c3 c4 3c ed 3f 05 be 3b 40 39 bd
       -0.1344299 0.024019156 -0.13012667 -0.04522727
0000d0 9f 63 ab 3d 75 2c 6d 3d 01 bd b6 3c 90 bb c4 3d
       0.083686106 0.057903726 0.022306921 0.09606087
0000e0 a2 34 06 3d 6b b5 e3 bc cc e0 7c bd 36 77 a6 bd
       0.03276504 -0.027796468 -0.06173782 -0.081282064
0000f0 b9 b8 ae bd e5 38 b1 bd 1a 68 ce 3d 81 27 3c bd
       -0.08531327 -0.0865343 0.100784495 -0.04593611

fusion_layer.alpha_s f4 [34]
000000 6e a2 00 3f 13 ac 1d 3f 0d 63 0b 3f f8 a9 f8 3e
       0.5024785 0.6159069 0.54448014 0.48567176
000010 13 7f f5 3e fe 13 21 3f 6e a7 1a 3f 7a bc 21 3f
       0.47948512 0.6292113 0.6041173 0.6317822
000020 89 3e 0e 3f 9c b2 2c 3f 9d 11 15 3f de 19 2e 3f
       0.5556417 0.67460036 0.5823 0.6800822
000030 b4 77 20 3f 96 54 12 3f 74 f4 4c 3f e7 a1 3f 3f
       0.6268265 0.5716032 0.80060506 0.7485642
000040 bf 36 14 3f 74 0b 01 3f 5f e7 10 3f 6f 49 0a 3f
       0.57896036 0.504081 0.56603044 0.540183
000050 e2 31 13 3f d6 c0 30 3f 48 33 30 3f e4 e3 26 3f
       0.5749799 0.69044244 0.6882825 0.65191483
000060 ce ce 31 3f ef 09 1b 3f d1 65 c8 3e 63 4e 15 3f
       0.69456184 0.6056203 0.3914018 0.58322734
000070 97 4e 35 3f f3 9f 04 3f 00 00 00 3f e0 88 21 3f
       0.70823044 0.51806563 0.5 0.6309948
000080 97 71 1b 3f 7b 6c 23 3f
       0.607202 0.63837403

fusion_layer.g_s f4 [34]
000000 78 bc de 3e c4 cc 11 3f 80 90 0d 3f 0a dc cd 3e
       0.43503165 0.5695307 0.55298615 0.4020694
000010 6f 57 fc 3e 44 05 0f 3f 22 b4 cf 3e 54 c9 e2 3e
       0.49285457 0.5586741 0.40567118 0.44294226
000020 e5 de e7 3e e5 68 17 3f 57 1f 09 3f 27 f5 08 3f
       0.45287243 0.5914443 0.53563446 0.5349907
000030 9c de 19 3f a7 e9 c4 3e cb fb bd 3d 06 73 11 3f
       0.601053 0.38459513 0.09276541 0.56816137
000040 ae ff e2 3e 0d dc 9d 3e 3b 0b e5 3e 4c a6 ee 3e
       0.44335693 0.30831948 0.4473513 0.4661125
000050 c7 94 bf 3e f1 ea 00 3f cf b9 01 3f 8a ca 0c 3f
       0.37418196 0.5035849 0.50674146 0.5499655
000060 3b 13 d9 3e 72 07 17 3f 00 0a 47 3e 28 f9 bd 3e
       0.42397484 0.58995736 0.19437408 0.37104154
000070 0d ed 01 3f 15 5e b6 3e 00 00 00 3f 0a 72 09 3f
       0.50752336 0.35618654 0.5 0.53689635
000080 80 a9 a0 3e c3 62 df 3e
       0.31379318 0.43630037
