best_model_s30.pth (torch, 27269 bytes, 9 tensors)

latent_engine.industry_embedding.weight f4 [8, 8]
-0.6787475 1.3283588 1.4307708 0.2282219 0.41342402 -1.3828089 -0.6006284 0.3735482
-0.31549135 -1.0715047 0.56906325 -0.11740753 0.7497282 0.19605108 -2.1534834 -1.0342469
-0.98660505 -0.107308835 0.883899 -0.18337235 0.04159683 1.0198472 -0.4689638 -0.097020775
-0.74069655 -1.561034 1.401471 1.6209354 -0.7288088 -0.9298454 -2.2149436 0.4840583
-0.1695571 0.66647136 -0.12887208 0.524463 -1.0981121 1.13223 0.56108147 -0.020554889
0.5425652 -0.6625341 -0.36398256 -1.073914 -1.1780546 1.6610698 0.02297896 -1.8417016
-0.73852503 1.1642343 -0.043327447 0.6604926 -0.7157822 -0.42559186 0.24852079 -1.1111479
-0.11045899 0.93507826 -0.14566977 1.0974939 0.08730247 0.9461811 -0.66781676 0.7904588
00000000: 65c2 2dbf a907 aa3f 7f23 b73f 00b3 693e
00000010: 50ac d33e e2ff b0bf c8c2 19bf b641 bf3e
00000020: 1588 a1be 1127 89bf 21ae 113f 5c73 f0bd
00000030: 30ee 3f3f 9dc1 483e acd2 09c0 3462 84bf
00000040: 2692 7cbf bcc4 dbbd 3447 623f f6c5 3bbe
00000050: 7061 2a3d 5a8a 823f 061c f0be d4b2 c6bd
00000060: 4a9e 3dbf f6cf c7bf 6763 b33f d07a cf3f
00000070: 3793 3abf 590a 6ebf a3c1 0dc0 7dd6 f73e
00000080: 60a0 2dbe de9d 2a3f 0bf7 03be 3543 063f
00000090: f08e 8cbf eaec 903f 09a3 0f3f ba62 a8bc
000000a0: 8ee5 0a3f d69b 29bf ec5b babe 0476 89bf
000000b0: 7eca 96bf ef9d d43f 5f3e bc3c e1bc ebbf
000000c0: fa0f 3dbf a105 953f 1f78 31bd 0b16 293f
000000d0: 813d 37bf 2de7 d9be 3c7c 7e3e 183a 8ebf
000000e0: 5338 e2bd 4a61 6f3f 752a 15be ae7a 8c3f
000000f0: a3cb b23d ed38 723f 0af6 2abf 825b 4a3f

latent_engine.prior_mlp.0.weight f4 [64, 14]
0.23548909 -0.20626621 -0.16526951 -0.05329308 -0.060789526 0.18269332 -0.12748638 0.14933556
-0.24689533 -0.15418924 -0.06592134 0.10941079 -0.12730043 -0.02628066 -0.10394415 -0.25712404
0.066505894 0.1470077 0.30195606 0.12678836 -0.20541868 -0.102008946 0.20084359 0.3126862
0.26453125 0.091321975 -0.27554584 -0.22484949 -0.18064414 -0.1769958 -0.1830287 0.12572876
0.15157984 -0.25257885 -0.20097925 0.1657669 0.25195238 -0.033075158 0.2264442 0.14326112
-0.1468715 -0.11318035 -0.22485602 -0.011661829 -0.1345713 0.2236008 0.18246847 -0.2144738
0.25340497 0.04305695 0.015450037 0.13570592 0.34602967 -0.2358804 -0.12178669 0.14044924
-0.07488236 0.17640345 -0.10223694 0.07823515 0.18407002 -0.21483435 0.060548835 -0.10770356
-0.21400864 -0.06650799 -0.25618485 0.24901435 0.11085626 0.23905683 -0.0312555 -0.24118868
-0.14295822 -0.020266429 -0.2390815 -0.28524736 0.23063277 0.19854069 0.23911884 0.081310995
-0.014449962 0.25691134 -0.02730536 -0.0816072 -0.13821368 0.21021032 -0.02878663 -0.1887287
-0.2660992 -0.02289914 0.2513313 -0.15842359 -0.20428635 -0.19303781 -0.11821505 0.020891726
0.1929784 0.24363185 0.11163563 0.23799168 0.27625617 0.13588169 -0.015272188 -0.24530423
-0.23727329 -0.11894033 -0.15911585 -0.23067936 0.2369615 -0.00091438415 -0.026092269 -0.28394112
-0.14415464 0.0016060688 0.26642847 0.08082135 -0.17139669 0.15734291 -0.016275965 0.22816864
0.027198367 -0.11024516 0.31452692 -0.02904658 0.16873415 0.28095496 -0.19453907 0.1436084
-0.026041785 0.017520431 -0.02390436 -0.057891764 -0.09648529 -0.23655853 0.08371684 -0.19420877
-0.30748004 0.11464419 0.2646904 0.28516188 -0.0007895437 0.08423968 0.19654992 -0.17529552
-0.2513232 0.18185623 -0.12787525 0.21116325 -0.21960115 -0.028772805 -0.005089422 -0.1768555
-0.21767934 -0.0977536 0.13251647 -0.14485598 0.12050806 -0.19635522 0.19367899 -0.2706468
-0.10152205 -0.042947438 0.039876215 -0.13764223 -0.2432435 -0.22998127 0.10472745 0.0075434158
0.011691477 -0.20311163 0.2340807 0.081813134 -0.028158432 0.085574135 0.1373531 -0.019219393
-0.016319547 -0.0055635436 0.28611377 0.15078512 0.16046533 -0.06765049 0.19416973 0.23267688
-0.091094546 0.36945963 -0.04058966 -0.021929203 0.041309554 0.069094054 0.08267792 0.04304292
-0.2702973 0.1795853 0.15261759 0.04346636 -0.22988647 0.13831502 0.18999895 0.024881383
-0.1922811 -0.0031476503 0.03746654 0.12799895 -0.055533085 0.15334094 -0.24498841 0.15088095
0.22018263 0.039806306 0.20871504 -0.18730515 0.20534247 0.23932047 -0.19775014 -0.011903064
-0.026133701 0.1262866 0.1107504 0.06590486 -0.28475 0.087120615 -0.16477302 -0.082285136
-0.26191378 -0.18017228 -0.0015742582 -0.16733631 -0.22628081 0.12565927 0.049880046 0.093706496
-0.21656549 -0.18391106 -0.19766718 -0.14718954 0.18142079 -0.0640249 0.22017553 -0.021368613
-0.2052551 -0.17207526 -0.27592987 0.21579109 0.072555475 0.24314672 -0.044814378 -0.030681808
0.08021716 -0.26395896 0.21165152 0.21718018 0.14827304 -0.03935373 0.042667944 -0.04919018
00000000: 0d24 713e 7337 53be 693c 29be d849 5abd
00000010: 70fe 78bd f513 3b3e ca8b 02be 6ceb 183e
00000020: 21d2 7cbe c9e3 1dbe c401 87bd c412 e03d
00000030: 0b5b 02be 8a4a d7bc ace0 d4bd c3a5 83be
00000040: 3e34 883d 3089 163e fc99 9a3e cfd4 013e
00000050: 4659 52be 11ea d0bd f1a9 4d3e 6818 a03e
00000060: a470 873e 0407 bb3d 5814 8dbe f23e 66be
00000070: c7fa 38be 633e 35be e06b 3bbe 0abf 003e
00000080: bf37 1b3e 0452 81be 81cd 4dbe ccbe 293e
00000090: e7ff 803e d179 07bd fde0 673e 0bb3 123e
000000a0: 7c65 16be 19cb e7bd a840 66be 4211 3fbc
000000b0: 0fcd 09be 9cf7 643e 04d9 3a3e 059f 5bbe
000000c0: 4cbe 813e 7c5c 303d 2722 7d3c 7ef6 0a3e
000000d0: cd2a b13e a28a 71be 4d6b f9bd edd1 0f3e
000000e0: ec5b 99bd 1ba3 343e 9a61 d1bd c039 a03d
000000f0: da7c 3c3e 89fd 5bbe 0e02 783d af93 dcbd
00000100: 1525 5bbe 5735 88bd a92a 83be 9efd 7e3e
00000110: 9b08 e33d 50cb 743e c405 00bd 2afa 76be
00000120: a463 12be c805 a6bc c8d1 74be f10b 92be
00000130: ff2a 6c3e 404e 4b3e 92db 743e 6186 a63d
00000140: 89bf 6cbc e289 833e 7eaf dfbc ad21 a7bd
00000150: e387 0dbe 6041 573e f0d1 ebbc 1942 41be
00000160: 283e 88be fa96 bbbc 7fae 803e cb39 22be
00000170: 7130 51be b4ab 45be bb1a f2bd 2025 ab3c
00000180: 219c 453e a17a 793e 39a1 e43d 17b4 733e
00000190: 7371 8d3e 9224 0b3e 3338 7abc 0831 7bbe
000001a0: c5f7 72be fd96 f3bd 44ef 22be 3637 6cbe
000001b0: 09a6 723e 48b3 6fba 74bf d5bc bb60 91be
000001c0: 469d 13be ba82 d23a 5069 883e aa85 a53d
000001d0: 9d82 2fbe 801e 213e 2c55 85bc 0aa5 693e
000001e0: 1ccf de3c 37c8 e1bd ac09 a13e 18f3 edbc
000001f0: a5c8 2c3e 54d9 8f3e 4035 47be 150e 133e
00000200: 9555 d5bc 0287 8f3c 14d3 c3bc ea1f 6dbd
00000210: 149a c5bd 663c 72be bc73 ab3d aade 46be
00000220: 066e 9dbe 93ca ea3d 8085 873e bd00 923e
00000230: 61f9 4eba da85 ac3d 6244 493e ab80 33be
00000240: 6fad 80be 8538 3a3e bbf1 02be 2e3b 583e
00000250: 20df 60be f2b4 ebbc 2bc5 a6bb 9c19 35be
00000260: 55e7 5ebe 0a33 c8bd 66b2 073e 2055 14be
00000270: eecc f63d 5811 49be c953 463e 3892 8abe
00000280: cbea cfbd a7e9 2fbd 3e55 233d 16f2 0cbe
00000290: d314 79be 3680 6bbe 587b d63d c22e f73b
000002a0: 9c8d 3f3c 7ffc 4fbe dab2 6f3e a58d a73d
000002b0: 83ac e6bc 7e41 af3d 4ba6 0c3e fd71 9dbc
000002c0: 92b0 85bc 634e b6bb 817d 923e 6a67 1a3e
000002d0: 0651 243e 578c 8abd 6ed4 463e d942 6e3e
000002e0: c78f babd d029 bd3e 5841 26bd dfa4 b3bc
000002f0: 3534 293d 2f81 8d3d 0b53 a93d c64d 303d
00000300: 6864 8abe 35e5 373e c947 1c3e c809 323d
00000310: 5c67 6bbe 74a2 0d3e 168f 423e 0bd4 cb3c
00000320: 56e5 44be cf48 4ebb 8476 193d 2812 033e
00000330: a976 63bd 6805 1d3e 3ede 7abe 8980 1a3e
00000340: 8e77 613e f00b 233d 65b9 553e eccc 3fbe
00000350: 4c45 523e 6d10 753e 037f 4abe 1205 43bc
00000360: 5816 d6bc 4651 013e 1bd1 e23d 21f9 863d
00000370: c1ca 91be 4b6c b23d 42ba 28be 1c85 a8bd
00000380: 9019 86be 157f 38be 5757 ceba 365a 2bbe
00000390: 28b6 67be d3ac 003e 054f 4c3d 31e9 bf3d
000003a0: 58c3 5dbe 2e53 3cbe 4469 4abe dbb8 16be
000003b0: 5fc6 393e 7d1f 83bd b275 613e 3b0d afbc
000003c0: 652e 52be 7f34 30be ae46 8dbe 57f8 5c3e
000003d0: f797 943d 74fb 783e 488f 37bd 6a58 fbbc
000003e0: e548 a43d a125 87be 2dbb 583e 7b64 5e3e
000003f0: e3d4 173e 6031 21bd 95c4 2e3d a47b 49bd

latent_engine.prior_mlp.0.bias f4 [64]
-0.16553193 -0.2476167 -0.12129319 -0.15582801 0.015800167 0.27693638 -0.12272469 0.092025794
0.15563777 -0.026526634 -0.05222163 -0.25310227 0.12963438 -0.06770121 -0.031487383 -0.122291125
0.16135041 -0.15610711 -0.16556425 0.08608476 0.115694426 0.20836535 0.13751833 -0.23254582
-0.12058012 -0.2498884 -0.15372978 0.15595384 -0.19227064 0.09542085 0.09925752 0.23234546
-0.25504586 -0.0013016291 0.29676846 0.05446722 0.007126004 -0.11677812 -0.017005375 0.027096782
0.00559649 0.16643299 0.18235 -0.0975086 0.098730095 0.10753178 0.050065733 -0.053546887
0.14600042 -0.19406767 0.1061903 0.21347378 0.04887851 0.24522619 0.052112184 0.030478138
0.23872468 0.24572532 0.24160075 0.27099168 -0.25104257 -0.2640601 0.11515928 0.11097758
00000000: 3481 29be 3b8f 7dbe 9068 f8bd 6191 1fbe
00000010: 5a6f 813c 9bca 8d3e 1557 fbbd 0578 bc3d
00000020: 825f 1f3e 624e d9bc 59e6 55bd 9f96 81be
00000030: e0be 043e efa6 8abd eaf8 00bd c573 fabd
00000040: 0b39 253e 8bda 1fbe ad89 29be 354d b03d
00000050: 33f1 ec3d ba5d 553e 9bd1 0c3e 7e20 6ebe
00000060: b6f2 f6bd bfe2 7fbe 576b 1dbe 5db2 1f3e
00000070: 98e2 44be 026c c33d 8747 cb3d f8eb 6d3e
00000080: 5f95 82be 6d9b aaba 09f2 973e 0519 5f3d
00000090: 4181 e93b 5e29 efbd db4e 8bbc 12fa dd3c
000000a0: c362 b73b 696d 2a3e f5b9 3a3e 97b2 c7bd
000000b0: 0133 ca3d 9f39 dc3d ba11 4d3d fb53 5bbd
000000c0: 2281 153e adb9 46be 4d7a d93d df98 5a3e
000000d0: d534 483d 931c 7b3e 9673 553d 4aad f93c
000000e0: 3e74 743e 6b9f 7b3e 3066 773e 6cbf 8a3e
000000f0: a788 80be e332 87be a1d8 eb3d 3748 e33d

latent_engine.prior_mlp.3.weight f4 [64, 64]
-0.06266202 -0.08731676 -0.10541055 -0.10747369 0.041767262 -0.03937747 0.018595086 -0.090849385
0.029186534 0.09300257 -0.038376823 -0.015492182 0.033703823 -0.112152345 -0.045176044 0.09902047
-0.13137867 0.09205019 -0.10148222 -0.034224994 -0.09877092 -0.024723606 -0.066782534 0.114622384
0.10970781 -0.0019336949 -0.034433737 0.06053932 -0.07735142 -0.001133268 -0.109267496 0.07728409
-0.048962533 0.04938888 -0.030165322 -0.097806826 0.008856926 -0.039845318 -0.0058064265 -0.099796504
0.084712826 0.018555125 -0.0374197 0.074835025 -0.046959013 -0.020652965 -0.034309354 0.023530895
-0.034902714 -0.10956916 -0.057398755 -0.11030098 -0.0754314 -0.0579079 -0.13354805 -0.08197546
-0.055943348 -0.0015274865 0.018239731 -0.034895226 0.051176853 -0.07832973 0.031752218 0.06927462
-0.1354853 -0.13577925 -0.043002613 0.026885077 0.056670755 0.063610315 -0.09313032 -0.06049643
0.07851437 -0.123411015 -0.011888561 0.09984557 -0.12809418 -0.008674413 -0.009002703 -0.07251628
-0.068005666 -0.09346308 -0.11825745 0.08635102 0.029809827 -0.05190585 -0.01472752 -0.018183583
-0.028918924 -0.11685377 -0.015339735 -0.085477024 -0.03388337 0.12187398 -0.124735214 0.09535974
-0.11396147 -0.023622574 0.02730759 -0.0007504561 0.025305023 0.08653314 0.08113761 0.025361039
-0.10002038 -0.043378145 -0.021766996 -0.070675574 -0.115670726 -0.091424175 -0.106372245 -0.08394867
0.023558743 -0.065974444 -0.10112262 0.06580935 0.03945496 -0.0343671 9.734574e-05 -0.046522032
0.0137661155 -0.043687627 0.07871147 0.060112916 0.024320582 -0.09175067 -0.112060815 0.04290372
0.021229886 0.030156538 0.058351226 0.12054209 0.02990739 -0.04362238 0.11037043 0.06450678
0.069581054 0.018351663 0.0011786503 0.15499222 -0.024010843 0.109944485 0.05560941 -0.07839337
0.027636359 -0.026486661 0.07414112 -0.14102694 -0.026484365 6.7007604e-05 0.09262731 -0.127285
-0.028144507 0.1577374 -0.05677474 -0.05750715 0.1316933 -0.058673427 -0.040091436 -0.050146844
0.055067524 -0.103383645 -0.035588212 0.06923175 -0.00073205197 0.05268775 0.082310185 -0.037646458
0.113168195 -0.026309332 0.0023729254 -0.06844918 0.06027045 0.17029382 0.03588522 0.00834905
0.102276646 -0.12822436 -0.054767076 0.06202735 -0.09881805 0.015617555 -0.13338311 0.026466884
0.055938907 0.021695836 -0.06785634 0.103410155 -0.039584264 -0.016092004 -0.086177215 0.0058633536
-0.026443375 0.085654885 0.07719206 0.048449665 0.06277129 0.0068112244 0.10408059 -0.10803485
0.03989081 -0.023784157 0.1538844 0.027497208 0.04773767 0.06437765 0.15214771 0.16220999
0.07890172 -0.033878233 0.01809341 -0.02559798 -0.10019653 -0.10220955 -0.028173784 -0.09161948
-0.14411312 0.047848135 -0.009749368 -0.13000545 0.10853992 0.15300164 0.17714974 0.063622355
-0.024697706 0.064332545 0.0031474996 0.15963812 0.06315605 -0.08302327 0.044218246 0.13359264
0.1655832 0.00063846033 -0.020425882 -0.10468265 0.07786017 -0.028638503 -0.071852095 0.011498232
0.055550646 -0.06055462 0.031267103 -0.063656226 0.047586158 -0.08351398 0.045835633 -0.023402333
-0.023661008 -0.06822682 0.0002605152 0.06363291 -0.048391808 -0.025383487 0.06288219 -0.020804983
00000000: f254 80bd 21d3 b2bd 7de1 d7bd 2a1b dcbd
00000010: 2614 2b3d 454a 21bd b954 983c 3e0f babd
00000020: 9918 ef3c 2278 be3d 0431 1dbd ecd2 7dbc
00000030: 050d 0a3d 21b0 e5bd 840a 39bd 3fcb ca3d
00000040: 2188 06be cf84 bc3d e9d5 cfbd 822f 0cbd
00000050: 6848 cabd 2989 cabc 48c5 88bd 24bf ea3d
00000060: 7dae e03d 0974 fdba 640a 0dbd 14f8 773d
00000070: 6c6a 9ebd 2a8a 94ba a3c7 dfbd 1f47 9e3d
00000080: f08c 48bd ff4b 4a3d 441d f7bc f24e c8bd
00000090: a41c 113c d834 23bd d643 bebb 1c62 ccbd
000000a0: eb7d ad3d eb00 983c 6645 19bd 1b43 993d
000000b0: 1858 40bd 6830 a9bc f787 0cbd ddc3 c03c
000000c0: 26f6 0ebd cc65 e0bd f51a 6bbd 7be5 e1bd
000000d0: c77b 9abd d630 6dbd d2c0 08be c0e2 a7bd
000000e0: da24 65bd f135 c8ba 7d6b 953c 4cee 0ebd
000000f0: d29e 513d 566b a0bd 9d0e 023d dadf 8d3d
00000100: a9bc 0abe b709 0bbe 8223 30bd 183e dc3c
00000110: 981f 683d 2046 823d 1cbb bebd 1bcb 77bd
00000120: 24cc a03d eabe fcbd 3dc8 42bc d67b cc3d
00000130: 1f2b 03be 201f 0ebc 1380 13bc 6a83 94bd
00000140: 8e46 8bbd 9269 bfbd f630 f2bd ced8 b03d
00000150: bd33 f43c 3b9b 54bd b24b 71bc bdf5 94bc
00000160: 61e7 ecbc 0851 efbd 8353 7bbc 940e afbd
00000170: 4ac9 0abd 1199 f93d 2d75 ffbd f84b c33d
00000180: a264 e9bd 2184 c1bc 2bb4 df3c 42ba 44ba
00000190: 7b4c cf3c 4938 b13d 7a2b a63d f4c1 cf3c
000001a0: 7cd7 ccbd 48ad 31bd b350 b2bc 5bbe 90bd
000001b0: c6e4 ecbd 993c bbbd b1d9 d9bd 48ed abbd
000001c0: 44fe c03c 9c1d 87bd 6019 cfbd 0dc7 863d
000001d0: 869b 213d 84c4 0cbd 1926 cc38 e38d 3ebd
000001e0: 468b 613c ccf1 32bd 7b33 a13d f638 763d
000001f0: f53b c73c c6e7 bbbd 2480 e5bd d0bb 2f3d
00000200: 4cea ad3c d80a f73c b201 6f3d c5de f63d
00000210: 5800 f53c 61ad 32bd e409 e23d 211c 843d
00000220: 8380 8e3d 3a56 963c f17c 9a3a 48b6 1e3e
00000230: 63b2 c4bc 932a e13d b1c6 633d b48c a0bd
00000240: a565 e23c 8efa d8bc 4dd7 973d 5e69 10be
00000250: bdf5 d8bc 6f86 8c38 63b3 bd3d 0057 02be
00000260: 4f8f e6bc ea85 213e a18c 68bd 9e8c 6bbd
00000270: 9cda 063e 8c53 70bd eb36 24bd c766 4dbd
00000280: 7c8e 613d ceba d3bd f2c4 11bd 60c9 8d3d
00000290: 2de7 3fba 1ccf 573d 3e92 a83d 2c33 1abd
000002a0: bac4 e73d ab86 d7bc 1583 1b3b 152f 8cbd
000002b0: 26de 763d 8161 2e3e 61fc 123d 74ca 083c
000002c0: 6b76 d13d 3f4d 03be 7153 60bd 6410 7e3d
000002d0: 1e61 cabd c6e0 7f3c 9595 08be 14d1 d83c
000002e0: 3220 653d 77bb b13c 44f8 8abd b4c8 d33d
000002f0: 1c23 22bd 61d3 83bc ae7d b0bd 6021 c03b
00000300: c79f d8bc d46b af3d df16 9e3d 2873 463d
00000310: 3c8e 803d b130 df3b 3428 d53d 6041 ddbd
00000320: 8c64 233d fed6 c2bc df93 1d3e d341 e13c
00000330: 9388 433d 6ed8 833d 9ccc 1b3e 601a 263e
00000340: 3a97 a13d e7c3 0abd a238 943c dbb2 d1bc
00000350: d733 cdbd 3e53 d1bd b5cc e6bc fea2 bbbd
00000360: 6492 13be 68fc 433d d0bb 1fbc 2620 05be
00000370: 2d4a de3d 76ac 1c3e be66 353e 704c 823d
00000380: d852 cabc c8c0 833d 4846 4e3b 2d78 233e
00000390: f657 813d 1b08 aabd 311e 353d 82cc 083e
000003a0: a48e 293e 595e 273a 2e54 a7bc db63 d6bd
000003b0: 2775 9f3d 4b9b eabc 3127 93bd 1563 3c3c
000003c0: 1389 633d 1f08 78bd ef11 003d 325e 82bd
000003d0: b4e9 423d 6109 abbd 25be 3b3d 40b6 bfbc
000003e0: bbd4 c1bc 81ba 8bbd c295 8839 f951 823d
000003f0: 7d36 46bd 08f1 cfbc 61c8 803d 366f aabc

latent_engine.prior_mlp.3.bias f4 [64]
-0.14290176 -0.1306259 -0.051028233 -0.09136369 -0.14261614 -0.032224137 -0.068439126 0.060739845
-0.08835941 -0.06982625 0.1182473 -0.11915537 -0.07146569 0.030237215 0.09248823 0.024970537
-0.07627637 -0.08652805 -0.10415043 0.13702099 -0.08086315 0.10187841 -0.04620165 -0.08956608
-0.06559329 -0.07301548 -0.09774588 -0.09007226 0.108742364 -0.03379822 0.09871089 0.052399956
0.019755486 0.024850465 0.107905835 -0.007978476 0.13697352 0.12801298 -0.030859536 0.077858105
-0.07204942 0.1254839 -0.10925927 0.09982355 -0.018404044 0.119778365 -0.12086443 -0.010737703
0.054073803 -0.011165486 0.098706685 -0.09701366 -0.08549909 -0.035409052 -0.08486572 -0.120841786
-0.029423784 -0.06730111 0.07406909 0.032965973 -0.026153592 0.058403563 0.045120414 -4.4111795e-05
00000000: d754 12be ccc2 05be fb02 51bd e31c bbbd
00000010: f709 12be 75fd 03bd d029 8cbd 58ca 783d
00000020: c7f5 b4bd 1101 8fbd a42b f23d bb07 f4bd
00000030: 9b5c 92bd 09b4 f73c 786a bd3d 038f cc3c
00000040: c936 9cbd 9e35 b1bd d24c d5bd 3b4f 0c3e
00000050: 949b a5bd a1a5 d03d f13d 3dbd 6c6e b7bd
00000060: c655 86bd 2489 95bd fe2e c8bd ce77 b8bd
00000070: 51b4 de3d 0170 0abd ef28 ca3d 56a1 563d
00000080: 42d6 a13c 3493 cb3c bcfd dc3d 27b8 02bc
00000090: c942 0c3e d615 033e 23cd fcbc 1274 9f3d
000000a0: a58e 93bd da7e 003e 53c3 dfbd 4a70 cc3d
000000b0: 14c4 96bc 5c4e f53d c587 f7bd 31ed 2fbc
000000c0: 7e7c 5d3d 71ef 36bc bb26 ca3d 19af c6bd
000000d0: 261a afbd 1509 11bd 14ce adbd e67b f7bd
000000e0: 260a f1bc 2ad5 89bd 89b1 973d 5407 073d
000000f0: 0f40 d6bc 9338 6f3d 2fd0 383d ae04 39b8

latent_engine.mu_head.weight f4 [1, 64]
0.07538071 0.087110005 0.08636129 0.12977101 -0.021785125 0.03988324 -0.14219193 0.12290978
-0.029648378 -0.027452 -0.12512538 0.015344845 -0.04776009 -0.0035213444 -0.046146818 0.058483478
0.040827453 0.07800766 0.034197237 -0.038019743 -0.108066946 -0.07351407 -0.14097632 0.011472288
0.060094908 0.05313554 -0.027513195 -0.08344085 0.043569896 -0.16467917 0.08006926 0.029668398
-0.060658626 0.10001517 0.14129885 -0.0049696183 -0.059255153 0.075316176 -0.099943146 -0.028953653
-0.07864072 -0.05445888 0.06292093 0.06575898 0.016696217 -0.16023636 0.08534685 -0.0919211
-0.11250302 -0.10058968 0.058937345 -0.03643095 -0.069527045 -0.18279795 0.03106776 0.0034900946
0.13341337 0.10250291 -0.14226829 -0.07007938 -0.056625307 0.12104107 0.0044212886 0.008199212
00000000: 3461 9a3d bb66 b23d 30de b03d b1e2 043e
00000010: b876 b2bc 9c5c 233d c39a 11be 1fb8 fb3d
00000020: 28e1 f2bc 04e3 e0bc de20 00be f268 7b3c
00000030: 16a0 43bd 5bc6 66bb 7204 3dbd 5f8c 6f3d
00000040: b03a 273d 7bc2 9f3d 6712 0c3d 97ba 1bbd
00000050: 3452 ddbd 8b8e 96bd 195c 10be 43f6 3b3c
00000060: 1426 763d a7a4 593d 5a63 e1bc 09e3 aabd
00000070: 5976 323d a8a1 28be 5afb a33d 240b f33c
00000080: 2e75 78bd c1d4 cc3d a5b0 103e 2ed8 a2bb
00000090: 88b5 72bd 5e3f 9a3d feae ccbd 3630 edbc
000000a0: 630e a1bd 4610 5fbd b0dc 803d a5ac 863d
000000b0: 81c6 883c 0015 24be 54ca ae3d 2141 bcbd
000000c0: fc67 e6bd f601 cebd 4968 713d 9f38 15bd
000000d0: 3264 8ebd 632f 3bbe d181 fe3c 12ba 643b
000000e0: 849d 083e 0ced d13d c7ae 11be c785 8fbd
000000f0: f0ef 67bd 61e4 f73d 75e0 903b fd55 063c

latent_engine.logvar_head.weight f4 [1, 64]
0.096992865 0.10530405 0.10698142 -0.046184074 -0.04513712 0.110982075 -0.0933901 0.058299072
-0.0833425 -0.08414287 0.030764151 0.06680245 -0.11066235 0.005669155 -0.12536073 0.049913887
0.008512583 0.08568903 0.037295833 -0.071416706 -0.059951287 -0.12177679 0.026687307 -0.08548146
0.003294497 -0.023144918 -0.017796367 0.04334471 -0.09734092 0.02752813 -0.029281 -0.12987784
-0.11170367 -0.056156933 -0.124542065 -0.010075072 -0.1373903 -0.105128676 0.02967429 0.03512473
0.120891325 -0.13222426 0.053332373 0.06825212 0.09114466 -0.06125236 0.026195819 -0.036989156
0.03866332 -0.13769881 -0.12263379 -0.12798321 0.023800727 -0.074481316 -0.09467642 -0.0070290044
-0.11011061 -0.0644857 -0.17773283 -0.027493 0.037418053 -0.017963972 0.07804195 -0.052552383
00000000: 32a4 c63d a6a9 d73d 1319 db3d 832b 3dbd
00000010: b3e1 38bd 924a e33d 4f43 bfbd 02cb 6e3d
00000020: 79af aabd 1953 acbd 1a05 fc3c b9cf 883d
00000030: f1a2 e2bd 52c4 b93b 905e 00be 8172 4c3d
00000040: 5c78 0b3c bb7d af3d 84c3 183d ec42 92bd
00000050: 7b8f 75bd 1c66 f9bd 579f da3c e710 afbd
00000060: 7de8 573b 699a bdbc b0c9 91bc 398a 313d
00000070: ad5a c7bd ac82 e13c b5de efbc b2fe 04be
00000080: e5c4 e4bd d004 66bd e90f ffbd ea11 25bc
00000090: 0bb0 0cbe b44d d7bd 7f17 f33c f3de 0f3d
000000a0: df95 f73d cc65 07be 0c73 5a3d c4c7 8b3d
000000b0: 0daa ba3d c1e3 7abd 9d98 d63c f181 17bd
000000c0: 6e5d 1e3d eb00 0dbe 6d27 fbbd 080e 03be
000000d0: bef9 c23c a989 98bd b6e5 c1bd 9053 e6bb
000000e0: ac81 e1bd 1411 84bd 98ff 35be 0039 e1bc
000000f0: ac43 193d 2e29 93bc 75d4 9f3d 2b41 57bd

fusion_layer.alpha_s f4 [34]
0.5326166 0.577727 0.5088276 0.48476437 0.48846722 0.5785504 0.5933531 0.57633257
0.56090134 0.59099126 0.54758996 0.57112694 0.5814818 0.5069506 0.63639 0.6012741
0.5776982 0.5298313 0.5564277 0.5222845 0.56620824 0.60722566 0.59730864 0.5920644
0.57686657 0.5418787 0.44960716 0.54988545 0.5965042 0.5 0.59768367 0.53419167
0.5323094 0.56847125
00000000: 9059 083f ebe5 133f 8742 023f 0933 f83e
00000010: 6018 fa3e e11b 143f fde5 173f 888a 133f
00000020: 3b97 0f3f 344b 173f db2e 0c3f 6035 123f
00000030: fedb 143f 84c7 013f 74ea 223f 19ed 193f
00000040: 07e4 133f 06a3 073f 0c72 0e3f 70b4 053f
00000050: 06f3 103f 2473 1b3f 38e9 183f 8891 173f
00000060: 87ad 133f 90b8 0a3f e932 e63e 4bc5 0c3f
00000070: 80b4 183f 0000 003f cc01 193f c9c0 083f
00000080: 6e45 083f 5587 113f

fusion_layer.g_s f4 [34]
0.49777564 0.56338793 0.50457436 0.45501024 0.50134254 0.5422952 0.49353635 0.474519
0.5139015 0.55121577 0.53464305 0.48611936 0.572553 0.43275586 0.30135036 0.5315405
0.5079289 0.42439958 0.4961206 0.47651738 0.48882446 0.4992943 0.5019766 0.5259758
0.48284033 0.5192049 0.34817693 0.42704526 0.51676583 0.5 0.49016637 0.49511483
0.40808803 0.44477114
00000000: 73dc fe3e 313a 103f c92b 013f 1af7 e83e
00000010: fc57 003f dcd3 0a3f ccb0 fc3e 28f4 f23e
00000020: 0c8f 033f 7a1c 0d3f 5ede 083f a3e4 f83e
00000030: d592 123f 2d92 dd3e 984a 9a3e 0a13 083f
00000040: a107 023f e74a d93e 8503 fe3e 16fa f33e
00000050: 3347 fa3e 81a3 ff3e 8a81 003f 5aa6 063f
00000060: d936 f73e 9dea 043f 3f44 b23e ada5 da3e
00000070: c44a 043f 0000 003f 16f7 fa3e b17f fd3e
00000080: eaf0 d03e 0bb9 e33e
