best_model_s34.pth (torch, 27269 bytes, 9 tensors)

latent_engine.industry_embedding.weight f4 [8, 8]
0	0x3e12189a	0.14267197
1	0xbe323828	-0.17404234
2	0xbef92805	-0.48663345
3	0x3f5002c5	0.81254226
4	0x3f08493b	0.5323674
5	0xbd8850b4	-0.06656018
6	0xbf890f39	-1.070777
7	0xbed43fb9	-0.41454867
8	0x3fbf03eb	1.4923071
9	0x3fc2b26c	1.52107
10	0xbfc6bc3a	-1.5526192
11	0x3f055d89	0.5209585
12	0xbe9ed579	-0.31022242
13	0x3ffa4a08	1.9553843
14	0xbd081c15	-0.033229906
15	0x401732db	2.362479
16	0x3fc1cdda	1.5140946
17	0xbf65105d	-0.89478093
18	0xbfcfdf7b	-1.6240076
19	0x3df635d9	0.120219894
20	0xbf1658e3	-0.5872938
21	0x3f14e452	0.5816089
22	0x3ee7ab6e	0.45247978
23	0xbf92ed55	-1.1478678
24	0x3f9b7b91	1.2147084
25	0x40088f0f	2.1337316
26	0x3f7516b2	0.95737755
27	0x3bae746f	0.0053239386
28	0xbd316611	-0.04331023
29	0xbe9e0bca	-0.3086837
30	0x3f66493a	0.89955485
31	0xbcd0f829	-0.025508957
32	0xbf6a42ad	-0.9150799
33	0x3fa084c9	1.2540523
34	0x3f33ee4e	0.702855
35	0xbf5e17c0	-0.8675499
36	0x3ebc172f	0.36736438
37	0xbe857a3d	-0.26069823
38	0xbfc076d3	-1.5036262
39	0x3eaa9677	0.3331792
40	0xbf86228f	-1.0479296
41	0x3e892fdf	0.26794335
42	0xbefc44a7	-0.49271128
43	0x3e20f6f8	0.15719211
44	0x3fded711	1.7409383
45	0x3f7375fd	0.9510191
46	0xbfbb96b0	-1.4655361
47	0x3ed357c8	0.4127791
48	0xbf43e696	-0.7652372
49	0xbf242a7d	-0.6412733
50	0xbffb893b	-1.9651254
51	0x3d0af2e1	0.033923034
52	0xbeb90e00	-0.36143494
53	0x3d8b9472	0.06815423
54	0x3f4cc09b	0.7998139
55	0xbf64d64c	-0.8938949
56	0x4014abf7	2.322996
57	0x3f967bb3	1.17565
58	0xbf6b3484	-0.9187701
59	0x3f9242b5	1.1426607
60	0xbfed5e12	-1.8544333
61	0x3fb31719	1.3991424
62	0x3f0abaac	0.5419109
63	0x3ecdac20	0.40170383

latent_engine.prior_mlp.0.weight f4 [64, 14]
0	0x3e481d63	0.1954246
1	0x3e6d3b6e	0.23167202
2	0xbe9a7242	-0.30165297
3	0x3e26b180	0.16278648
4	0xbc78ef1a	-0.015193725
5	0xbe30045f	-0.17189167
6	0x3d11cd12	0.03559596
7	0x3e235ca4	0.15953308
8	0x3d9570c5	0.072969
9	0xbcabf629	-0.020991402
10	0x3e920fb3	0.28527603
11	0x3dd2931c	0.10281965
12	0x3db95b11	0.09050573
13	0x3c382404	0.011239056
14	0xbeb97550	-0.36222315
15	0x3dd1c337	0.102423124
16	0x3dd84e6e	0.10561834
17	0x3db2f141	0.08737422
18	0xbca15428	-0.01969345
19	0xbd35f4d9	-0.044422958
20	0x3e166a62	0.1468902
21	0xbd495e6d	-0.049162317
22	0x3da1ccb3	0.079003714
23	0xbd269fcf	-0.04067975
24	0xbdede353	-0.11615624
25	0xbc0da9e8	-0.008646466
26	0xbc068bde	-0.008212058
27	0x3ec22f37	0.37926647
28	0xbe9feeb2	-0.31236798
29	0xbefd2a6c	-0.49446428
30	0x3e8a7180	0.2703972
31	0xbd8bafc9	-0.06820638
32	0x3d60e851	0.054909054
33	0xbd94fd63	-0.07274892
34	0xbe2bedd0	-0.16789937
35	0xbe09f020	-0.13470507
36	0x3e83d65c	0.2574948
37	0xbb1c5cdd	-0.0023859062
38	0x3e21e3ea	0.15809599
39	0xbd41e341	-0.047335867
40	0x3cb1cfc1	0.02170551
41	0xbeb7ef36	-0.3592469
42	0x3d2e10e0	0.042496562
43	0xbf1a803c	-0.6035192
44	0x3dfad3c4	0.12247422
45	0x3dc988f6	0.09840576
46	0x3e802838	0.25030684
47	0x3cf9f7c2	0.030513648
48	0x3e6da43f	0.23207186
49	0xbeb54874	-0.3540684
50	0x3e82d1bf	0.2555065
51	0xbd5c2f7c	-0.053756222
52	0x3af5b976	0.0018747288
53	0xbdb8ea8c	-0.09029111
54	0x3e4cd44e	0.20002863
55	0xbe98b19b	-0.29823002
56	0xbd4f2541	-0.050572637
57	0xbeb7981d	-0.3585824
58	0x3e4e0cb5	0.20122035
59	0xbbf18f4c	-0.0073718186
60	0x3de6551b	0.11246701
61	0xbdfbabfc	-0.12288663
62	0x3eb802c8	0.35939622
63	0xbe79a63e	-0.24379823
64	0x3d26b043	0.04069544
65	0xbe04cfd2	-0.12969902
66	0xbf0b40ee	-0.5439595
67	0xbdb2b3a8	-0.08725673
68	0xbcccf551	-0.02501932
69	0xbd465ed5	-0.048430283
70	0x3eac93f7	0.33706638
71	0xbc4187d2	-0.011812167
72	0xbdcd5983	-0.10026839
73	0x3d24d853	0.040245365
74	0xbdfdc8f6	-0.12391846
75	0x3e6a593c	0.22885603
76	0x3e4cc9f1	0.1999891
77	0xbdd3e303	-0.103460334
78	0x3dd209d1	0.102557786
79	0xbe65ce61	-0.22442009
80	0x3ef3ff18	0.4765556
81	0x39e7e94e	0.0004423358
82	0xbd954f08	-0.07290465
83	0xbc1bb9cb	-0.009504746
84	0x3e8002a8	0.25002027
85	0xbeaf3afa	-0.34224683
86	0xbc23a6e8	-0.009988524
87	0x3e0a96d1	0.13534094
88	0xb9463181	-0.00018901193
89	0xbd5f6178	-0.054536313
90	0xbc542842	-0.012949051
91	0x3e1601fc	0.14649194
92	0xbd74f5ba	-0.059804656
93	0xbde09580	-0.10966015
94	0xbd8d9d85	-0.0691481
95	0xbe41ac7a	-0.18913451
96	0xbe45db56	-0.19321951
97	0x3ea2a701	0.3176804
98	0x3e2bd896	0.1678184
99	0xbeb3288b	-0.3499187
100	0xbe8b1485	-0.27164093
101	0xbd9709cd	-0.07374916
102	0x3d316a5e	0.04331433
103	0xbe7289a6	-0.23685321
104	0xbdafa11d	-0.08575652
105	0x3dafc39e	0.08582233
106	0x3e0eaa85	0.13932236
107	0x3e01f828	0.1269232
108	0x3ea8d687	0.3297617
109	0x3dbb6742	0.09150554
110	0xbe33874d	-0.17532082
111	0xbe532df6	-0.20623001
112	0xbe20d819	-0.15707435
113	0xbe514392	-0.20435932
114	0x3d81cbdd	0.06337712
115	0x3deb31eb	0.114841305
116	0x39980a4e	0.00028999377
117	0x3e1fe6f8	0.15615451
118	0xbe892896	-0.26788777
119	0xbeb0b35f	-0.3451185
120	0xbdad36b1	-0.08457697
121	0xbdd4f4e7	-0.10398274
122	0xbed19f07	-0.4094164
123	0x3ea2b25c	0.31776702
124	0x3d8b4a5d	0.06801293
125	0x3ed9d550	0.42545557
126	0xbbce64db	-0.006298644
127	0x3e864c3f	0.26230046
128	0x3ce997b9	0.02851473
129	0xbe80bc8d	-0.25143853
130	0xbcfc66ec	-0.030810796
131	0xbdc8832b	-0.09790643
132	0x3d8fdc84	0.07024482
133	0xbe0950d2	-0.13409737
134	0x3e99122a	0.2989667
135	0x3d236346	0.039889596
136	0xbc8863a2	-0.016649071
137	0x3e7a39f1	0.24436165
138	0xbc5fb7be	-0.013654647
139	0xbe8b46db	-0.27202496
140	0x3e8360ce	0.25659794
141	0xbe0d6f6c	-0.13812035
142	0xbe8a8740	-0.27056313
143	0xbd8b43f6	-0.06800072
144	0x3e30713f	0.172307
145	0x3d006bdc	0.031352863
146	0xbd5c1db7	-0.053739276
147	0xbd252401	-0.04031754
148	0xbd905459	-0.07047338
149	0xbe8634ba	-0.26212102
150	0x3ec0f556	0.37687176
151	0xbe8f1d1f	-0.27951905
152	0x3e965632	0.29362637
153	0xbe93daeb	-0.2887796
154	0xbdd282bc	-0.10278842
155	0xbc2caf17	-0.010539792
156	0x3dfa43c4	0.122199565
157	0xbe68a861	-0.22720481
158	0x3e4bf928	0.19919264
159	0x3e0a8501	0.135273
160	0xbe0d6e0f	-0.13811515
161	0x3d8f0062	0.06982495
162	0xbe70b7c8	-0.23507607
163	0xbe3cbaa1	-0.18430568
164	0xbed1bfe0	-0.40966702
165	0x3dc95b0a	0.098318174
166	0xbe614fff	-0.22003172
167	0xbd8e36c4	-0.069440395
168	0xbf1bdd45	-0.60884506
169	0x3e2e1f51	0.17004134
170	0x3c29bed9	0.010360443
171	0x3bef15c1	0.0072962944
172	0xbda20263	-0.079106115
173	0x3b81a133	0.003955984
174	0x3e4da97c	0.20084184
175	0xbc8e73de	-0.017389234
176	0x3e26711f	0.1625409
177	0xbd1e816b	-0.03869764
178	0xbea40d61	-0.32041457
179	0xbdde2ece	-0.10848771
180	0xbd07916b	-0.033097666
181	0x3e875d67	0.26438448
182	0xbe877966	-0.26459807
183	0x3ec2b74e	0.38030475
184	0xbc8afc08	-0.016965881
185	0x3d4ddf69	0.05026189
186	0x3e911ae1	0.2834082
187	0x3d9f0bb6	0.077659056
188	0xbeaaf31b	-0.333886
189	0xbd9ceab4	-0.076619536
190	0xbcf29c01	-0.029615404
191	0x3e7cfdf5	0.24706252
192	0xbe95dab4	-0.2926842
193	0xbe13b09e	-0.14422843
194	0x3cc6773c	0.024226777
195	0xbd59ff04	-0.053221717
196	0xbe3cc5af	-0.18434785
197	0xbe4be25d	-0.1991057
198	0x3dba41cb	0.0909458
199	0xbe1afab9	-0.15134706
200	0x3d8c4f0b	0.06851014
201	0x3dc40955	0.095720924
202	0xbd89bc53	-0.06725373
203	0x3e5f081b	0.21780436
204	0x3e055325	0.13019998
205	0x3ded0019	0.11572284
206	0xbeb914c2	-0.3614865
207	0x3df91e4d	0.121639825
208	0xbe71fa5a	-0.23630658
209	0xbf14da0d	-0.5814522
210	0xbe130f9a	-0.1436142
211	0x3e304948	0.17215455
212	0xbe4d32c5	-0.20038898
213	0x3e42c846	0.19021711
214	0x3c99f9fd	0.018795962
215	0x3d4c498c	0.049874827
216	0x3d8bbef6	0.06823532
217	0xbcb8ce49	-0.022559302
218	0xbc8ccaec	-0.017186604
219	0x3e2cfa1f	0.16892289
220	0x3f000b6a	0.50017416
221	0x3dda93ea	0.106727436
222	0xbeb866e2	-0.36015993
223	0xbe2f23a4	-0.1710344
224	0xbe9fafa7	-0.311887
225	0xbe38bafd	-0.1804008
226	0xbe1241f0	-0.14282966
227	0x3dd4d22c	0.103916496
228	0x3e0c21c7	0.1368476
229	0x3e1e6bf2	0.15470865
230	0xbca6ae8d	-0.020346904
231	0xbc0ef458	-0.008725248
232	0x3e552b67	0.20817338
233	0xbdf6dc61	-0.12053753
234	0x3f0780a4	0.52930665
235	0xbe39fb19	-0.18162192
236	0xbd78eea1	-0.06077445
237	0xbec25633	-0.3795639
238	0x3d0e413a	0.034730174
239	0x3d93bf28	0.072141945
240	0xbe94bd6a	-0.2905076
241	0xbe387e3d	-0.18016906
242	0xbd19db4e	-0.03756266
243	0x3e8522f3	0.26003227
244	0xbd15d52f	-0.03658026
245	0xbd8deba2	-0.06929709
246	0xbe37169e	-0.17879722
247	0x3c915c06	0.017744076
248	0xbd55e8ea	-0.052224077
249	0xbd8f6bda	-0.07002993
250	0x3e87d0a3	0.26526365
251	0xbdfbf64d	-0.123028375
252	0x3e6519d9	0.22373141
253	0xbd06385a	-0.032768585
254	0xbe41ebe1	-0.18937637
255	0x3dc31e7d	0.095272996

latent_engine.prior_mlp.0.bias f4 [64]
0	0xbe8cfe93	-0.27537975
1	0xbe993b6d	-0.2992815
2	0x3ce1db79	0.027570473
3	0x3de382c3	0.11108925
4	0x3e1d774e	0.15377542
5	0xbd871a1e	-0.06596778
6	0xbead8750	-0.33892298
7	0x3e49611f	0.19665955
8	0xbd9ebe56	-0.077511474
9	0xbe951685	-0.29118744
10	0xbe2c08ff	-0.16800307
11	0xbe3b3e8e	-0.18285581
12	0xbe696df7	-0.22795855
13	0xbd2e89ec	-0.042612
14	0x3de3f1d5	0.1113011
15	0xbe395056	-0.18097052
16	0xbd926e0f	-0.07149898
17	0x3d5bc1b5	0.05365153
18	0x3e4ccbea	0.19999662
19	0xbccc1d0d	-0.024916196
20	0xbe4ae9d6	-0.19815764
21	0xbe7a111c	-0.24420589
22	0x3db4ec81	0.08834172
23	0x3d58f90d	0.05297189
24	0x3e359028	0.17730772
25	0xbd491aef	-0.04909795
26	0x3e4aa3f4	0.19789106
27	0x3d0eba57	0.034845676
28	0xbeadc5fa	-0.33940107
29	0x3db4e95c	0.08833572
30	0xbdd769df	-0.1051824
31	0x3df19587	0.11796098
32	0xbd117b84	-0.035518184
33	0x3ce6b036	0.028160196
34	0xbe5a0b89	-0.21293463
35	0xbd52f88c	-0.051506564
36	0x3dcaa293	0.0989429
37	0xbd757507	-0.05992606
38	0xbbba50e2	-0.0056859115
39	0xbddb815f	-0.10718035
40	0x3e2b469f	0.16726159
41	0xbdc28958	-0.094988525
42	0xbe40fdea	-0.1884686
43	0x3dcddfd4	0.100524575
44	0xbe5aa506	-0.21352014
45	0x3e2d0452	0.1689618
46	0xbd922b21	-0.071371324
47	0x3df35fef	0.11883532
48	0xbe9adcfc	-0.30246723
49	0xbe2dfbbc	-0.1699056
50	0xbe74560d	-0.23860951
51	0xbddfa517	-0.1092016
52	0x3c1514aa	0.009099165
53	0xbd875c44	-0.06609395
54	0xbe009efc	-0.12560648
55	0xbe302b8c	-0.17204112
56	0x3e0d8f4f	0.13824199
57	0xbd75e088	-0.060028583
58	0xbea85277	-0.32875416
59	0x3dbea789	0.093092985
60	0xbd1c92f9	-0.0382261
61	0xbe45245f	-0.19252156
62	0xbe8d6f85	-0.27624145
63	0x3c914656	0.017733734

latent_engine.prior_mlp.3.weight f4 [64, 64]
0	0xbcf4ecce	-0.029898074
1	0x3e57d487	0.21077166
2	0x3bd22d76	0.006414111
3	0xbe0106de	-0.12600276
4	0xbe27b1cc	-0.16376418
5	0xbe0ae3ab	-0.13563411
6	0x3cacd968	0.021099761
7	0xbd847f01	-0.064695366
8	0xbd36f1c9	-0.044664178
9	0x3cf75534	0.030191995
10	0xbe4a4c85	-0.19755752
11	0x3ddc6f18	0.10763377
12	0x3e8a5206	0.27015704
13	0xbe072b0f	-0.1320002
14	0x3c60b2d5	0.013714512
15	0xbe324ab3	-0.17411308
16	0xbe7bc694	-0.2458747
17	0xba68e943	-0.00088848564
18	0xbddae45f	-0.106880896
19	0xbe7dc215	-0.24781068
20	0x3d827ed4	0.06371847
21	0x3e3caac8	0.18424523
22	0x3d93efe4	0.0722349
23	0x3c67d961	0.014150948
24	0x3d28b050	0.04118377
25	0x3e2d11e6	0.16901359
26	0x3abaf01b	0.0014262231
27	0x3e38b830	0.18039012
28	0x3d070db8	0.032972068
29	0x3da257fa	0.079269364
30	0x3ddd7a42	0.108143345
31	0xbdb712e6	-0.089391515
32	0x3cfcfd45	0.030882487
33	0xbdb9e3e0	-0.09076667
34	0xbe928df8	-0.2862394
35	0xbd7d05a6	-0.061772965
36	0xbe1b3836	-0.15158162
37	0xbde003b9	-0.1093821
38	0x3d2f3517	0.04277524
39	0x3e39844e	0.18116876
40	0x3d90a00a	0.07061775
41	0x3e1a8af2	0.15092066
42	0x3dedfae1	0.11620117
43	0xbe5d3fcb	-0.21606366
44	0x3e5c726b	0.21528022
45	0xbeb01d03	-0.34397134
46	0xbc165fc8	-0.0091781095
47	0xbc0227b8	-0.00794404
48	0x3e12464c	0.14284629
49	0xbe7b4119	-0.24536552
50	0x3d008a31	0.03138179
51	0x3e1805d9	0.1484598
52	0xbc652f00	-0.013988256
53	0xbe7c7485	-0.24653824
54	0x3e05cad0	0.13065648
55	0xbe2e6e3a	-0.17034236
56	0x3d9420d1	0.07232822
57	0xbe2206a1	-0.15822841
58	0xbe4468d9	-0.19180621
59	0x3d647d4c	0.055783555
60	0x3dab436c	0.08362469
61	0x3e1431cd	0.14472122
62	0xbd68282c	-0.056678936
63	0xbdf73df5	-0.12072364
64	0x3d8009d4	0.062518746
65	0xbdaa85f8	-0.08326334
66	0x3c84e53a	0.016222585
67	0xbc02785a	-0.007963264
68	0xbe09e8cb	-0.1346771
69	0x3ba1e471	0.0049405624
70	0x3dc1f6dc	0.09470913
71	0xbd11ba01	-0.035577778
72	0x3e4848fd	0.19559093
73	0xbc61273d	-0.013742265
74	0xbda038a8	-0.07823306
75	0x3d326daf	0.043561634
76	0x3dd6be25	0.10485486
77	0x3d986b2e	0.07442318
78	0xbdf7eb08	-0.121053755
79	0xbce50809	-0.027957933
80	0xbe0c0c6b	-0.13676612
81	0xbca2ce28	-0.019873694
82	0x3e0f6364	0.14002758
83	0xbe4e2aaf	-0.2013347
84	0x3dbec193	0.09314265
85	0xbd11c4b0	-0.035587966
86	0x3e4e920e	0.20172903
87	0x3cb7625f	0.022385774
88	0x3d252f6e	0.040328436
89	0xbd53a5e0	-0.051671863
90	0x3c91f052	0.017814789
91	0xbcdb0471	-0.026735516
92	0x3dbebf48	0.09313828
93	0x3e82989d	0.2550706
94	0xbdb995e5	-0.09061793
95	0x3d3d4ccd	0.04621582
96	0xbc1533d4	-0.009106595
97	0x3caaecea	0.020864923
98	0xbd869aaf	-0.06572472
99	0xbda004bb	-0.07813402
100	0x3d71557e	0.058919422
101	0xbdb728d2	-0.08943333
102	0x3d2d3821	0.042289857
103	0xbe09a67c	-0.13442415
104	0x3d084473	0.033268403
105	0x3dc04822	0.09388758
106	0xbeaabd04	-0.33347332
107	0x3db7e715	0.08979622
108	0x3e116a62	0.14200738
109	0x3cddba57	0.027066393
110	0xbe2cc89d	-0.16873403
111	0x3d25de9d	0.040495504
112	0x3e07440e	0.13209555
113	0xbd54ae4f	-0.051924046
114	0x3d81f71c	0.063459605
115	0x3dc3387e	0.095322594
116	0x3bff6228	0.0077936836
117	0xbe9c44af	-0.3052115
118	0xbe01bfa2	-0.12670758
119	0xbd1a8489	-0.03772405
120	0x3ddc7fb6	0.107665464
121	0x3e1d6b3c	0.15372938
122	0x3df15896	0.117844746
123	0x3e30cdf3	0.17266063
124	0xbda84b5c	-0.08217499
125	0x3d856786	0.06513886
126	0x3d7c1ed4	0.061552837
127	0xbc9be2fd	-0.019029135
128	0x3de00596	0.109385654
129	0x3d729bb2	0.059230514
130	0x3ddfb709	0.10923583
131	0xbe720e45	-0.23638256
132	0xbd667872	-0.05626721
133	0x3ded2851	0.11579955
134	0xbd62ede9	-0.05540267
135	0xbbc8dfc4	-0.0061301906
136	0xbda7e542	-0.08198024
137	0xbdc1d027	-0.0946353
138	0x3dab7378	0.08371633
139	0xbd174962	-0.036935218
140	0x3cf4485e	0.029819664
141	0x3d906a72	0.07051553
142	0x3df9c1ce	0.121951684
143	0x3cdf1690	0.027232438
144	0x3db8261e	0.08991645
145	0x3d5e0445	0.05420329
146	0x3df2f439	0.11862988
147	0x3e08d8b8	0.13363922
148	0xb9ccdcc2	-0.0003907439
149	0xbd22c11a	-0.039734937
150	0xbd5adae4	-0.053431407
151	0x3d6dc849	0.058052335
152	0xbce2b881	-0.027675869
153	0x3e2b91ab	0.16754787
154	0xbbbb005f	-0.0057068313
155	0xbe1ac865	-0.15115507
156	0x3dde3a7c	0.10850999
157	0xbe6acadd	-0.22928949
158	0x3e3720be	0.17883584
159	0xbdd26ae3	-0.10274293
160	0x3d449922	0.0479976
161	0x3c8f2c8f	0.017477302
162	0x3ceb82b8	0.028748855
163	0xbe22419a	-0.15845338
164	0x3df30eb4	0.11868039
165	0x3e31ca94	0.17362434
166	0x3d61d8be	0.055138342
167	0x3af15c68	0.001841438
168	0x3c86f7e2	0.016475622
169	0xbe18ddd3	-0.14928369
170	0xbc070613	-0.008241194
171	0xbc941709	-0.01807739
172	0xbe0d9f45	-0.13830288
173	0xbdd1da63	-0.10246732
174	0xbe1d3b26	-0.15354595
175	0xbcf82e32	-0.030295465
176	0x3de56e74	0.11202708
177	0x3cc0f489	0.023554103
178	0xbcfb8b09	-0.030705946
179	0x3e47c540	0.19508839
180	0xbd3071d5	-0.04307731
181	0x3db8dbb0	0.09026277
182	0xbd1ea104	-0.038727775
183	0x3dbdd1d6	0.09268539
184	0x3dc1c3ae	0.09461151
185	0xbe96128f	-0.29311034
186	0x3e3a8562	0.18214944
187	0xbd96bc4a	-0.07360132
188	0xbd53fb0f	-0.0517531
189	0xbc820109	-0.015869634
190	0xbe5a4762	-0.21316293
191	0x3e34757c	0.17622942
192	0x3e182d17	0.1486095
193	0x3e21e386	0.1580945
194	0xbbcade59	-0.0061910567
195	0xbe8179f3	-0.25288352
196	0xbe0c0758	-0.13674676
197	0xbd86b508	-0.06577498
198	0xbe0b6a61	-0.13614799
199	0xbd1dd20f	-0.038530406
200	0xbe9355a1	-0.28776267
201	0xbdd40e5b	-0.103543006
202	0x3de2db45	0.110769786
203	0x3cfcd446	0.030862939
204	0xbdb82d4e	-0.08993016
205	0xbe07e32a	-0.1327025
206	0xbdc2dfef	-0.09515368
207	0xbd3ed528	-0.04659
208	0xbe2f7177	-0.17133127
209	0xbe042d5c	-0.12907928
210	0xbdc6c84e	-0.09706174
211	0xbdce3cd3	-0.10070195
212	0xbe9a93f7	-0.30191013
213	0xbd7b0803	-0.061286937
214	0xbd4e47d4	-0.05036147
215	0x3dbb2570	0.09138
216	0x3d5a931e	0.053362958
217	0xbde852f3	-0.11343946
218	0x3bea94aa	0.0071588354
219	0xbd8ac2bf	-0.06775426
220	0x3ceb20eb	0.02870222
221	0xbb906672	-0.0044067437
222	0x3e4671aa	0.19379297
223	0x3e60caa6	0.21952304
224	0x3e09b087	0.13446246
225	0x3e71b9da	0.23606053
226	0xbdf3b94e	-0.119005784
227	0x3da3b2f0	0.07993114
228	0xbd79bd9e	-0.06097185
229	0xbd636598	-0.05551681
230	0x3e290ae1	0.16508056
231	0xbd85aafb	-0.065267526
232	0x3ce11425	0.027475426
233	0xbd8ae01a	-0.06781025
234	0x3e0fcb1f	0.14042328
235	0x3da699ca	0.08134802
236	0xbe3f889d	-0.18704458
237	0x3d90dd2f	0.070734374
238	0xbdd3c652	-0.10340561
239	0xbddf956f	-0.10917174
240	0xbcd86dd2	-0.026419554
241	0xbd87bc2b	-0.06627687
242	0xbc2ebe8f	-0.01066555
243	0xbd105cf8	-0.035244912
244	0xbac7e75d	-0.0015251447
245	0xbe931d27	-0.2873318
246	0x3df2c121	0.11853243
247	0xbc11fc50	-0.008910254
248	0xbed2c5b0	-0.4116645
249	0xbe218645	-0.15773876
250	0xbd8b7c0e	-0.06810771
251	0xbd7fac8a	-0.062420405
252	0xbe5a187d	-0.21298404
253	0xbd563715	-0.052298624
254	0x3d71a2ba	0.05899308
255	0xbd82d631	-0.0638851

latent_engine.prior_mlp.3.bias f4 [64]
0	0xbdc3574b	-0.09538134
1	0x3e4e816d	0.2016656
2	0x3e234ec0	0.1594801
3	0xbcb88c17	-0.022527738
4	0x3e30ae58	0.17254007
5	0x3d9ed5b0	0.077556014
6	0xbdfbc1a7	-0.12292796
7	0x3d8d264c	0.0689207
8	0x3caea907	0.021320833
9	0xbb092e7a	-0.0020932243
10	0xbcd880e9	-0.026428657
11	0xbe142064	-0.14465481
12	0xbc29aa2e	-0.010355515
13	0x3d95762c	0.0729793
14	0xbd8408e6	-0.0644701
15	0xbe1e0c73	-0.15434437
16	0xbde08c14	-0.10964218
17	0xbd68a67d	-0.0567994
18	0x3e13c0e0	0.14429045
19	0x3d22e5ef	0.039770063
20	0x3d8f2d5c	0.069910735
21	0x3cfef919	0.031124638
22	0x3e31fd6a	0.17381826
23	0xbbf53444	-0.007483037
24	0xbe525c10	-0.20542932
25	0x3cec3ae5	0.028836677
26	0x3ddfcc6e	0.10927664
27	0x3d61aab7	0.055094447
28	0x3df3ef05	0.11910824
29	0xbc0fbf4f	-0.008773639
30	0x3b6ba03f	0.0035953668
31	0x3d2b95fa	0.041891076
32	0x3df43098	0.11923331
33	0x3e37b401	0.1793976
34	0xbd571a9e	-0.05251562
35	0x3da19b85	0.07890991
36	0xbe0888a7	-0.13333379
37	0x3d39ffea	0.045410074
38	0x3bc2325d	0.005926414
39	0xbd203717	-0.039115038
40	0xbcb2acca	-0.021810908
41	0x3d7699cd	0.06020527
42	0x38e4f012	0.00010916604
43	0x3de345eb	0.1109732
44	0x3e3f0b09	0.18656553
45	0xbde27352	-0.11057152
46	0xbdf97bff	-0.121818535
47	0x3d6f327e	0.058397762
48	0x3c508bf2	0.012728678
49	0xbe1681c7	-0.14697944
50	0x3e110c02	0.14164737
51	0x3d98febe	0.07470463
52	0xbd93bc30	-0.07213628
53	0xbbafe8e2	-0.005368338
54	0x3e05c4a5	0.13063295
55	0x3e1850db	0.14874594
56	0x3e1c4125	0.15259226
57	0xbc4dfc97	-0.012572429
58	0xbdd4b0f9	-0.10385317
59	0xbd698499	-0.05701122
60	0xbb57fe20	-0.0032957867
61	0x3cf72b86	0.03017212
62	0x3ddfa4df	0.109201185
63	0x3dc9bb49	0.09850175

latent_engine.mu_head.weight f4 [1, 64]
0	0x3e75f492	0.24019077
1	0x3d554fca	0.052078046
2	0x3bbf7756	0.0058430834
3	0xbe38c6d1	-0.18044592
4	0xbec7b60d	-0.3900608
5	0x3e96eed3	0.29479083
6	0xbe9f1ad3	-0.31075153
7	0xbed9e8c7	-0.42560408
8	0xbe9816c7	-0.29704878
9	0x3e12fb60	0.14353704
10	0x3b4c694b	0.003119069
11	0xbdc16257	-0.09442585
12	0x3e2af7fa	0.16696158
13	0x3e1689fb	0.14701073
14	0x3d91bd11	0.0711614
15	0xbc79ca93	-0.015246051
16	0xbc5b1a8f	-0.013373031
17	0x3e05e857	0.13076912
18	0xbe2595a8	-0.1617037
19	0x3e03af79	0.12859906
20	0x3e7d425f	0.2473235
21	0xbe844e9d	-0.25841227
22	0x3eec7f55	0.46190897
23	0xbe09c0d4	-0.13452464
24	0x3e891a53	0.26777896
25	0xbe5e9be9	-0.21739163
26	0x3e92c4b9	0.28665712
27	0x3dd7a55d	0.105295874
28	0x3e42e61e	0.19033095
29	0xbea76841	-0.32696727
30	0xbe17f09f	-0.14837883
31	0xbe5d267d	-0.21596713
32	0xbdc03cd5	-0.09386603
33	0x3e376eb8	0.1791333
34	0x3e4f8c60	0.20268393
35	0x3dfa5c27	0.12224608
36	0x3e0aa7d5	0.13540585
37	0xbea6282e	-0.3245253
38	0xbbf5921d	-0.0074942247
39	0xbee95188	-0.45570016
40	0x3da834bb	0.082131825
41	0xbe56f8b6	-0.20993313
42	0xbdb3f9e3	-0.087878965
43	0xbebaa3c4	-0.36453068
44	0x3d92ed37	0.071741514
45	0x3eb92fe2	0.36169344
46	0x3d715784	0.058921352
47	0x3e4f1c8e	0.20225736
48	0xbdf73bd9	-0.12071962
49	0x3c3afe8c	0.011413228
50	0x3e6158db	0.22006552
51	0xbe106d0b	-0.14104097
52	0x3e20fca6	0.15721378
53	0xbe369c95	-0.17833169
54	0xbe6b51b6	-0.22980389
55	0xbe6b097f	-0.22952841
56	0x3ec34aab	0.38142905
57	0x3cce17f6	0.02515791
58	0xbcc1df52	-0.023666058
59	0xbe2dff20	-0.16991854
60	0x3ddcf2aa	0.10788472
61	0xbe98e0a1	-0.29858878
62	0xbd948dd3	-0.07253613
63	0xbec0d262	-0.3766051

latent_engine.logvar_head.weight f4 [1, 64]
0	0x3c93ddc8	0.01805009
1	0xbda50fc8	-0.08059651
2	0xbe1f3e57	-0.15551125
3	0x3c09c95c	0.008409824
4	0xbd50be67	-0.05096283
5	0x3c021c22	0.007941278
6	0x3d1ab224	0.037767544
7	0xbdb6dfc8	-0.08929402
8	0x3db0d524	0.08634403
9	0xbd8ec09d	-0.06970332
10	0x3e0145a6	0.12624225
11	0x3c994f39	0.018714534
12	0xbdd55ecf	-0.10418474
13	0xbd6bea5f	-0.05759656
14	0x3d88d8ef	0.06682002
15	0xbca9bf67	-0.02072115
16	0x3c0883e8	0.00833223
17	0x3c88b341	0.016687037
18	0xbddc72b4	-0.107640654
19	0x3d07cebd	0.033156145
20	0x3d761ea4	0.060087815
21	0xbd4de31e	-0.050265424
22	0xbcf497a3	-0.029857462
23	0xbd2bd775	-0.041953523
24	0x3ce48709	0.027896421
25	0xbcdbb512	-0.02681974
26	0x3ce81984	0.02833248
27	0xbd9081de	-0.0705602
28	0x3d3191bc	0.043351874
29	0xbe18012a	-0.14844194
30	0xbdb973c0	-0.09055281
31	0x3c9805e5	0.018557498
32	0xbd3e480d	-0.04645543
33	0xbdb181a4	-0.08667305
34	0xbc8c3e10	-0.017119437
35	0x3d3d657c	0.04623936
36	0x3d97e653	0.07416978
37	0xbe1e0eea	-0.15435377
38	0xbd19f0e6	-0.037583254
39	0x3ce09d4f	0.02741876
40	0xbc327275	-0.0108915465
41	0xbe1c2950	-0.15250134
42	0xbe00c75b	-0.12576048
43	0xbd8d5101	-0.06900216
44	0xbe02efe4	-0.12786824
45	0x3ddf88d5	0.109147705
46	0xbc9cb685	-0.01913
47	0x3d2a2d00	0.04154682
48	0xbde77005	-0.11300663
49	0x3ba7d3cf	0.005121685
50	0x3d50d6d0	0.05098611
51	0xbdc27ee4	-0.09496859
52	0xbc0c0402	-0.008545877
53	0xbdc64990	-0.09682
54	0xbda665be	-0.081248745
55	0xbd9901dd	-0.074710585
56	0xbd364c71	-0.044506494
57	0x3d520df9	0.051282857
58	0x3c971c25	0.018446038
59	0xbbe97a97	-0.0071252096
60	0x3d49750e	0.049183898
61	0xbdf01c77	-0.11724179
62	0xbd355891	-0.044273917
63	0xbcd7f06a	-0.026359756

fusion_layer.alpha_s f4 [34]
0	0x3eaa0044	0.33203328
1	0x3f101bc0	0.56292343
2	0x3ea3af75	0.319698
3	0x3e1b4f3d	0.15166946
4	0x3e2623ae	0.16224548
5	0x3f80b77f	1.0055999
6	0x3f948bcc	1.1605163
7	0x3f6fb476	0.93634737
8	0x3eedaea7	0.46422312
9	0x3f7bc2f8	0.98344374
10	0x3f06cf76	0.5266031
11	0x3f74fe4d	0.9570053
12	0x3f55ee81	0.83567053
13	0x3f90548a	1.1275799
14	0x40246f61	2.569298
15	0x3fa87467	1.3160523
16	0x3f23b979	0.63954884
17	0x3f12aec5	0.5729793
18	0x3f510a0d	0.8165596
19	0x3eec4b4b	0.46151194
20	0x3f3a7d03	0.72847
21	0x3fa654dd	1.2994648
22	0x3f7c289d	0.9849947
23	0x3f5ec78d	0.8702324
24	0x3f83911d	1.027866
25	0x3f3567ca	0.70861495
26	0x3ead7b71	0.3388324
27	0x3f59b11b	0.85035866
28	0x3f8c8d88	1.0980692
29	0x3f4e5d10	0.8061075
30	0x3f6fd3ae	0.9368237
31	0x3ecec438	0.40384078
32	0x3f6c18ac	0.92225146
33	0x3f000000	0.5

fusion_layer.g_s f4 [34]
0	0xbb69b209	-0.0035659096
1	0x3ec4a5ca	0.38407737
2	0x3ef84985	0.4849359
3	0xbda0d097	-0.07852285
4	0x3eafe8a2	0.34357172
5	0x3f269216	0.6506666
6	0x3dd38a6f	0.103291385
7	0xbe23d043	-0.15997414
8	0x3dc72804	0.09724429
9	0x3f160ed1	0.5861636
10	0x3ec91554	0.39274085
11	0x3e5a994d	0.21347542
12	0x3f498911	0.7872477
13	0x3e85c6c0	0.26128197
14	0xbfc084fb	-1.5040582
15	0x3edf936e	0.43667167
16	0x3dc8c77e	0.09803675
17	0xbeff032b	-0.49807104
18	0x3e324e96	0.1741279
19	0x3e4c43d0	0.19947743
20	0x3dcbf831	0.09959448
21	0x3e37a2c2	0.17933181
22	0x3e23d1a5	0.15997942
23	0x3edaf8a5	0.42767826
24	0xbe47886c	-0.19485635
25	0x3efb866b	0.4912599
26	0xbf18e6d9	-0.59727246
27	0xbe3ec429	-0.18629517
28	0x3e25c7ff	0.16189574
29	0x3d4987c6	0.04920175
30	0xbe862eee	-0.2620768
31	0x3dc37b7d	0.09545038
32	0xbede9947	-0.43476316
33	0x3f000000	0.5
