best_model_s31.pth (torch, 27269 bytes, 9 tensors)

latent_engine.industry_embedding.weight f4 [8, 8]
0	0xbf95c437	-1.1700505
1	0xbff457ba	-1.9089272
2	0x3e306519	0.17226066
3	0xbe2553d8	-0.16145265
4	0x3f35b8f7	0.7098536
5	0x3d862417	0.06549852
6	0x3f0fa0c0	0.5610466
7	0xbfefec5a	-1.8744004
8	0x3dc22019	0.094787784
9	0x3fc81fb7	1.5634679
10	0x3f05e905	0.52308685
11	0x3ea5e761	0.3240309
12	0x3f2d56d9	0.67710644
13	0x3ed8e271	0.4236026
14	0x3f13e700	0.57774353
15	0xbf9f4ce4	-1.244534
16	0x3f0cc220	0.5498371
17	0xbf025e63	-0.5092527
18	0x3f38e296	0.7222074
19	0x3fdf2942	1.7434466
20	0xbe363915	-0.17795213
21	0x3fb7dc63	1.4364132
22	0xbf566f30	-0.8376341
23	0x3f34f0a5	0.70679694
24	0xc00b4d0c	-2.1765776
25	0x3e82ac4e	0.25522083
26	0xbed883e3	-0.42288122
27	0x3f042e79	0.5163341
28	0xbe2d609c	-0.16931385
29	0x3f5469f3	0.82974166
30	0xbe4dff20	-0.20116854
31	0x3f89d4d1	1.0768071
32	0xbf19829e	-0.5996493
33	0x3edcda6d	0.43135396
34	0x3e53837e	0.20655629
35	0xbf586a30	-0.8453703
36	0xbe916613	-0.2839819
37	0x3f04bdc3	0.51852053
38	0xbe035d64	-0.12828594
39	0xbefd7aff	-0.495079
40	0x3f2fed69	0.68721634
41	0x3ec58940	0.38581276
42	0x3ffea8d2	1.989527
43	0x3e14b6ff	0.14522932
44	0x3cd8a622	0.026446406
45	0xbfe7833f	-1.8086928
46	0xbfdcf5c3	-1.72625
47	0x3ea9c2d3	0.33156452
48	0xbf1cc5d6	-0.61239374
49	0x3a250523	0.0006295016
50	0xbf529910	-0.82264805
51	0xbfece35b	-1.8506883
52	0x3e593801	0.2121277
53	0xbe93b740	-0.28850746
54	0x3e90aa8b	0.28255114
55	0x3f906b5c	1.1282763
56	0xbedb2fe8	-0.42809987
57	0x4001829b	2.0235965
58	0x3f58355e	0.8445643
59	0x40161c97	2.345495
60	0xbedd0c30	-0.4317336
61	0xbfd4ca5c	-1.6624255
62	0xbf8e3ccb	-1.1112303
63	0x3fc7af61	1.5600396

latent_engine.prior_mlp.0.weight f4 [64, 14]
0	0x3db0048e	0.08594619
1	0xbdf6cb05	-0.12050442
2	0xbb022837	-0.0019860396
3	0x3e9242c8	0.28566575
4	0xbbefc855	-0.0073175826
5	0x3e0d18b9	0.13778962
6	0x3e42a012	0.19006374
7	0xbd4ac3c6	-0.04950311
8	0xbb8d4b8d	-0.004311985
9	0x3e8467fe	0.2586059
10	0xbe1b89de	-0.15189311
11	0xbe920458	-0.2851894
12	0x3e66ee26	0.22551784
13	0x3cea3de3	0.028593963
14	0x3c8cf067	0.017204477
15	0x3be6d996	0.0070449812
16	0x3e75c335	0.24000247
17	0x3d524930	0.05133933
18	0x3e3b460b	0.18288438
19	0xbd0d39b0	-0.034478843
20	0x3d1b3857	0.037895527
21	0xbe443377	-0.19160257
22	0xbe80fda9	-0.25193527
23	0xbdbc4ade	-0.09193967
24	0xbe553d0a	-0.20824066
25	0x3dee887a	0.116471246
26	0x3da60b9c	0.08107683
27	0xbd35016c	-0.04419081
28	0x3dfdb671	0.123883136
29	0xbe1fde9f	-0.15612267
30	0x3e3a44fc	0.18190378
31	0xbe230c7a	-0.15922728
32	0xbe74244b	-0.2384197
33	0xbdb0df2c	-0.08636317
34	0xba72138b	-0.00092344795
35	0x3e04dba2	0.12974408
36	0xbe360338	-0.17774665
37	0x3e78942e	0.24275276
38	0xbeb604fe	-0.35550684
39	0x3d2e7086	0.04258778
40	0x3e5cc164	0.21558148
41	0x3e2638b4	0.16232568
42	0x3e644e29	0.2229544
43	0x3e57cf68	0.21075213
44	0xbe38a010	-0.18029809
45	0xbdd90afc	-0.10597798
46	0xbd80cda1	-0.062892206
47	0xbc723dc1	-0.014785231
48	0xbe18dfb9	-0.14929093
49	0x3d9a00f7	0.07519715
50	0xbe89788b	-0.2684978
51	0x3e0e56e3	0.13900332
52	0x3e9b7df5	0.30369535
53	0x3df92ec8	0.12167126
54	0x3d4ede48	0.050504953
55	0x3da0ff04	0.0786114
56	0xbde82022	-0.11334254
57	0xbc867837	-0.016414745
58	0x3e50aac3	0.2037764
59	0x3e7d94dd	0.24763818
60	0xbe6cf5bb	-0.23140614
61	0xbd4edb33	-0.050502013
62	0xbda7accd	-0.08187256
63	0x3d2113a3	0.039325368
64	0xbdd77530	-0.105203986
65	0xbe6c7feb	-0.23095672
66	0xbebb36be	-0.36565202
67	0xbe98a288	-0.29811502
68	0x3e1f4373	0.15553074
69	0x3dafef07	0.08590513
70	0xbe54d95c	-0.20786041
71	0x3e8b093d	0.27155486
72	0x3e12a948	0.14322388
73	0x3e1c8d01	0.15288164
74	0xbe525bd6	-0.20542845
75	0xbca14cd4	-0.019689955
76	0xbcdfc5e7	-0.027316047
77	0x3e8b2c38	0.27182174
78	0xbe2c42f4	-0.16822416
79	0xbe4d5891	-0.20053317
80	0xbdc84bba	-0.09780069
81	0xbe5b807a	-0.21435729
82	0xbe2c56a4	-0.16829926
83	0x3eaedd55	0.34153238
84	0xbd67f654	-0.0566314
85	0xbe8f1150	-0.27942896
86	0x3da5b980	0.08092022
87	0xbd96bf8c	-0.073607534
88	0xbe0241e1	-0.12720443
89	0xbecdd807	-0.40203878
90	0xbe0227dc	-0.12710518
91	0xbde1c566	-0.11023979
92	0xbe1fef03	-0.1561852
93	0x3e708d8e	0.23491499
94	0x3e165886	0.14682207
95	0xbe1e6836	-0.15469441
96	0x3e08678a	0.13320747
97	0x3e55b1b0	0.20868564
98	0x3e507eaf	0.20360826
99	0x3e0f5020	0.13995409
100	0xbdb68fec	-0.0891417
101	0xbd96e44c	-0.07367763
102	0xbe0413c4	-0.12898165
103	0xbeb2cede	-0.34923452
104	0xbe58bd52	-0.2116597
105	0x3e7b4ff7	0.24542223
106	0xbe1ad3cb	-0.15119855
107	0xbe4ef99f	-0.2021241
108	0x3e2b9362	0.16755441
109	0x3e532189	0.20618261
110	0x3e9b528a	0.3033641
111	0x3e8bcbac	0.27303827
112	0x3ba0cee1	0.0049074744
113	0x3e91ccf6	0.28476685
114	0x3e3bc83d	0.18338104
115	0xbd9b4648	-0.075817645
116	0xbc0d4ed1	-0.008624748
117	0xbc91c365	-0.017793367
118	0xbde8056e	-0.11329161
119	0x3e084180	0.13306236
120	0x3e24007b	0.16015808
121	0x3d2bb462	0.041920073
122	0x3eb288a5	0.34869877
123	0x3d96072a	0.07325585
124	0x3d91f91e	0.071275935
125	0xbeb9e868	-0.36310124
126	0xbeb500e5	-0.35352245
127	0x3e8c4ff4	0.2740475
128	0x3c10565e	0.008809654
129	0x3e2308d5	0.15921338
130	0x3e0811c0	0.13288021
131	0xbdd6b482	-0.10483648
132	0xbd57e610	-0.05270964
133	0xbe5ea1e5	-0.21741445
134	0x3e2effd9	0.17089786
135	0x3da1b8e3	0.078965925
136	0x3d886f7d	0.0666189
137	0x3e7fb2cd	0.24970551
138	0x3edbf0c5	0.4295713
139	0x3e979987	0.2960932
140	0xbdd07ed7	-0.10180443
141	0x3da44d23	0.08022525
142	0x3d77b34f	0.060473736
143	0x3e2cc170	0.16870666
144	0xbe91ff2c	-0.28514993
145	0xbe1e65b2	-0.15468481
146	0xbe9b92f0	-0.30385542
147	0xbe6cb1c4	-0.23114687
148	0x3d742280	0.059603214
149	0x3e1dcb77	0.15409647
150	0xbc956e1e	-0.018240985
151	0x3ea6dc65	0.32590023
152	0x3c321dc7	0.010871357
153	0x3e116880	0.1420002
154	0x3e446407	0.19178782
155	0x3d64901f	0.055801507
156	0xbe2c3671	-0.16817643
157	0x3d861ab0	0.06548059
158	0x3daaead9	0.08345575
159	0xbe7cb5a6	-0.24678668
160	0xbe79872f	-0.24367975
161	0x3ccc0062	0.024902526
162	0x3de891e8	0.113559544
163	0x3c202738	0.0097749755
164	0x3d85aa76	0.065266535
165	0x3e038b15	0.12846024
166	0x3e44512b	0.19171588
167	0x3e872f15	0.26403108
168	0xbe11f91f	-0.14255188
169	0x3e474ecd	0.19463654
170	0xbe303b8a	-0.17210212
171	0x3e75fa01	0.2402115
172	0xbe3c1f78	-0.1837138
173	0x3d0bf088	0.034164935
174	0xbe5afea7	-0.21386205
175	0xbe287959	-0.1645254
176	0xbe01e546	-0.12685117
177	0xbdcbeb9b	-0.099570476
178	0x3e03efe3	0.12884478
179	0x3e4eef5f	0.202085
180	0x3e9df298	0.30849147
181	0x3d77de41	0.060514692
182	0xbe004096	-0.12524638
183	0xbd57e3cb	-0.052707475
184	0x3e62932e	0.22126457
185	0x3d99c173	0.07507601
186	0xbe6064d6	-0.21913466
187	0xbe8562e0	-0.26051998
188	0x3dc483a9	0.09595425
189	0x3e559708	0.20858395
190	0x3e5f9ba3	0.21836714
191	0xbddeb4b1	-0.10874308
192	0xbe49cda4	-0.19707352
193	0xbd195c1f	-0.03744137
194	0x3e3c751e	0.18404052
195	0xbdb155b8	-0.08658928
196	0x3e93fa66	0.28901976
197	0xb8134eb4	-3.512083e-05
198	0x3dc96f5f	0.098356955
199	0xbe314ad1	-0.17313696
200	0x3dec5740	0.11540079
201	0x3ca40236	0.020020586
202	0xbc9e45b4	-0.019320346
203	0x3d72b834	0.0592577
204	0xbdba270b	-0.09089478
205	0xbe00454f	-0.12526439
206	0xbeb76eb3	-0.35826644
207	0xbebed932	-0.37275082
208	0xbe754e28	-0.23955595
209	0x3e43d73e	0.19125077
210	0x3cd3623a	0.025803674
211	0xbe82dda4	-0.25559723
212	0x3e4d8db9	0.20073594
213	0xbd32705c	-0.043564186
214	0x3df77721	0.12083269
215	0x3e30ccb0	0.17265582
216	0x3ca97c61	0.020689191
217	0xbe87b24c	-0.26503217
218	0x3c944f78	0.0181043
219	0xbddcaa6e	-0.107746944
220	0xbca119b1	-0.01966557
221	0x3e1f5c66	0.15562591
222	0x3d65eb91	0.056132857
223	0x3e3a745c	0.1820845
224	0xbe2f8c05	-0.17143257
225	0x3e96efd8	0.2947986
226	0xbe330429	-0.17482056
227	0xbd92ebc0	-0.07173872
228	0x3d91bceb	0.07116111
229	0x3e510caa	0.20414987
230	0xbe48759e	-0.19576117
231	0x3dc54e91	0.09634126
232	0xbe45eb83	-0.19328122
233	0xbe3c84e5	-0.1841007
234	0x3d955e24	0.072933465
235	0x3e7092e8	0.2349354
236	0x3ef30497	0.4746444
237	0x3d679251	0.056536023
238	0xbe80b301	-0.2513657
239	0x3eb23766	0.3480789
240	0x3defe949	0.117144175
241	0x3e3d26a2	0.18471768
242	0xbea6608f	-0.32495543
243	0x3dc642d2	0.09680714
244	0x3e06710f	0.13129066
245	0x3d7b62b3	0.061373424
246	0x3e1deb00	0.15421677
247	0xbd01af73	-0.031661462
248	0xbe6bf32a	-0.23041978
249	0xbd3eb4f6	-0.046559297
250	0x3e0e28b7	0.13882719
251	0xbc6bc8cb	-0.0143911345
252	0xbe150813	-0.14553861
253	0x3e3c35d5	0.1837991
254	0xbd7ebd8e	-0.062192492
255	0x3e42f20a	0.19037643

latent_engine.prior_mlp.0.bias f4 [64]
0	0xbb374918	-0.0027967151
1	0xbe6deff9	-0.23236074
2	0x3a84e805	0.0010139948
3	0x3dcf0161	0.10107685
4	0xbe5c50b6	-0.21515164
5	0xbd88e003	-0.06683352
6	0xbe2c0c43	-0.16801552
7	0x3e6fd3a0	0.23420572
8	0x3e590ccb	0.21196286
9	0xbe06c517	-0.13161121
10	0xbd764144	-0.060120836
11	0x3c6b7387	0.014370806
12	0xbe59961f	-0.21248673
13	0x3d8ce2d8	0.068792045
14	0xbd2fa236	-0.042879306
15	0x3df24f1e	0.11831497
16	0xbda7b88d	-0.08189497
17	0xbe92f29c	-0.2870072
18	0xbddebdb4	-0.10876027
19	0x3de45e2f	0.111507766
20	0x3de1e2e1	0.11029602
21	0xbe5f72c6	-0.21821126
22	0xbd687d2a	-0.05675999
23	0xbe60f20e	-0.21967337
24	0xbe72ed95	-0.23723443
25	0x3e1b5129	0.15167679
26	0x3dc24f87	0.09487825
27	0x3c85d6b1	0.016337724
28	0xbd69112b	-0.05690114
29	0xbd8e02a8	-0.069341004
30	0xbe89d42f	-0.26919696
31	0xbe44b94f	-0.19211315
32	0xbdbb2942	-0.09138729
33	0xbdb43cb0	-0.08800638
34	0x3ce2f710	0.0277057
35	0xbe107417	-0.14106785
36	0x3e070b0e	0.13187811
37	0xbe0ab792	-0.13546589
38	0xbe3f2562	-0.18666604
39	0xbdc05cf8	-0.093927324
40	0x3e2a5677	0.16634546
41	0xbdbac917	-0.09120386
42	0xbea17e72	-0.31541783
43	0x3d3fd19d	0.046830762
44	0x3d56a07b	0.05239914
45	0x3d70e15f	0.05880868
46	0xbe2fb371	-0.17158295
47	0x3df72066	0.120667264
48	0xbd7fe5bf	-0.062474962
49	0xbe8286b5	-0.25493398
50	0x3d8b52c0	0.06802893
51	0x3e33d522	0.17561772
52	0xbe1e2a44	-0.1544581
53	0xbdd8b0fe	-0.105806336
54	0x3d3450f2	0.044022508
55	0xbe1c7422	-0.15278676
56	0xbe9d0a57	-0.3067195
57	0xbda992b3	-0.08279934
58	0xbe2fc364	-0.1716438
59	0x3e8370d7	0.25672027
60	0x3e1b1a2f	0.15146707
61	0xbe3d67cd	-0.18496628
62	0xbd702ec0	-0.058638334
63	0x3db12c78	0.0865106

latent_engine.prior_mlp.3.weight f4 [64, 64]
0	0xbb7c1bc5	-0.00384687
1	0xbd1d9a7e	-0.038477413
2	0x3d29ba4e	0.04143744
3	0xbddbbfaf	-0.1072992
4	0x3e439884	0.19101149
5	0x3d283e78	0.0410752
6	0xbcbe3671	-0.023219319
7	0x3c40d8d5	0.011770447
8	0xbe7726e6	-0.24135932
9	0xbdf5faa7	-0.12010699
10	0xbe681a9c	-0.226664
11	0x3cca2624	0.02467639
12	0xbde41659	-0.11137075
13	0x3dce3b00	0.10069847
14	0x3ded0469	0.11573107
15	0xbd1aad5a	-0.037762977
16	0x3d162cc6	0.036663793
17	0x3de98829	0.114029236
18	0x3ce35089	0.027748363
19	0xbd5006b7	-0.050787654
20	0xbb56948d	-0.0032742352
21	0x3c3e98c6	0.011633104
22	0x3dabc402	0.08386995
23	0xbe6edc1c	-0.23326153
24	0xbda134f3	-0.078714274
25	0xbe12a246	-0.14319715
26	0x3d6cddc3	0.057828676
27	0xbd7fb750	-0.06243068
28	0xbd1f6cf3	-0.03892226
29	0x3e134ee9	0.1438557
30	0xbda280d4	-0.07934728
31	0x3db603c0	0.08887434
32	0x3c2f6a2c	0.010706466
33	0x3d2c91d9	0.04213128
34	0x3c944616	0.018099826
35	0xbc3372a3	-0.0109526245
36	0x3c825bcf	0.015912918
37	0x3d3a05d0	0.0454157
38	0x3bb3dbb5	0.0054888376
39	0xbe8751e0	-0.26429653
40	0x3db66661	0.08906246
41	0x3d122b5e	0.03568589
42	0x3d5803ef	0.052738126
43	0xbdb9a1c2	-0.09064056
44	0x3e833957	0.25629684
45	0x3e1ecca5	0.15507753
46	0xbe3ed5f5	-0.18636306
47	0xbd62f760	-0.055411696
48	0xbd408b53	-0.04700787
49	0xbd33f376	-0.043933354
50	0xbe03841c	-0.12843364
51	0x3cd10512	0.025515113
52	0xbae3bf2e	-0.0017375702
53	0xbe6f5a9f	-0.23374413
54	0xbd25d00c	-0.040481612
55	0xbcacd17a	-0.02109598
56	0xbe3af9f4	-0.18259412
57	0xbe1f4a67	-0.15555726
58	0x3e17f164	0.14838177
59	0x3c4c9632	0.012486981
60	0xbc30713c	-0.010769185
61	0x3d503870	0.050835073
62	0x3d96f7e8	0.07371503
63	0xbdf1e7f2	-0.11811818
64	0xbd8dc33c	-0.069220036
65	0xbd982ae1	-0.074300535
66	0xbd6b54ae	-0.057453804
67	0x3d32fa4b	0.04369573
68	0xbe63dac3	-0.2225142
69	0xbd1e6866	-0.03867378
70	0xbeb6224f	-0.3557305
71	0x3d6207a0	0.055183053
72	0x3de89442	0.11356403
73	0xbe81f6ee	-0.25383705
74	0xbe09f025	-0.13470514
75	0x3e06d384	0.13166624
76	0xbd97323e	-0.0738263
77	0xbd234530	-0.039860904
78	0xbef0a6a2	-0.4700213
79	0xbd33c6a0	-0.043890595
80	0x3c8a3527	0.016871048
81	0xbe2220ec	-0.15832871
82	0xbe725a2d	-0.23667212
83	0x3d3e54cd	0.04646759
84	0x3d690962	0.056893714
85	0xbe265604	-0.1624375
86	0xbcb961ff	-0.022629736
87	0xbe2b6c24	-0.16740471
88	0xbd803f2e	-0.062620506
89	0xbe3c897d	-0.18411823
90	0x3cde3737	0.027125938
91	0x3e157994	0.1459716
92	0xbdee8478	-0.1164636
93	0xbcec42a0	-0.028840363
94	0xbdce7eb2	-0.10082759
95	0x3ce1e014	0.02757267
96	0x3db151c7	0.08658176
97	0xbde07dd5	-0.109615006
98	0x3c26fd16	0.010192176
99	0xbe2b012d	-0.16699667
100	0xbdbbbcbb	-0.09166857
101	0xbdd2efa1	-0.10299612
102	0xbe6ec055	-0.23315556
103	0x3d9632df	0.07333922
104	0x3c5c9afb	0.013464685
105	0xbd05607c	-0.032562718
106	0x3c2e24b6	0.01062887
107	0x3e00a129	0.12561478
108	0x3de417d0	0.111373544
109	0x3dafe69b	0.085889064
110	0x3cad697c	0.021168463
111	0xbe1e0b4b	-0.15433995
112	0xbd88f739	-0.06687779
113	0xbe5f3d68	-0.21800768
114	0x3dd21a77	0.10258954
115	0xbe0e4d1e	-0.13896605
116	0xbd8d1b0d	-0.06889925
117	0x3e11784c	0.14206046
118	0xbdd75dc7	-0.105159335
119	0xbd5996ee	-0.053122453
120	0x3d9747ce	0.073867425
121	0xbccef25e	-0.025262054
122	0xbe22124c	-0.15827292
123	0xbebdecf0	-0.3709483
124	0xbe930e32	-0.28721768
125	0xbdf5e3bc	-0.120063275
126	0xbd9ae674	-0.07563487
127	0xbea200fa	-0.3164137
128	0xbd79b9fc	-0.060968384
129	0x3c0f14ad	0.008732957
130	0xbc499ea3	-0.012305888
131	0x3dd83c94	0.10558429
132	0xbccfcb66	-0.025365543
133	0x3e38d5ad	0.18050261
134	0x3e12d800	0.1434021
135	0x3df651df	0.120273344
136	0xbe37d483	-0.1795216
137	0xbe620dfe	-0.2207565
138	0x3d11d8fa	0.035607316
139	0x3d55da6a	0.05221025
140	0xbe353781	-0.17696954
141	0x3cb6ec9a	0.022329617
142	0x3d7fd2c7	0.062456872
143	0xbdcd85d3	-0.100352906
144	0xbc1654e8	-0.009175517
145	0x3ce67f9c	0.02813702
146	0xbd96a3d1	-0.07355464
147	0xbc370d1d	-0.01117256
148	0x3d023430	0.03178805
149	0x3e32c50e	0.17457983
150	0x3e02f115	0.12787278
151	0xbc7432c0	-0.014904678
152	0x3d2d848f	0.042362746
153	0x3db7badb	0.08971187
154	0x3df83172	0.12118806
155	0xbd93c425	-0.07215146
156	0x3d4368f3	0.04770751
157	0x3d954fe9	0.07290632
158	0xbdd74dbf	-0.10512876
159	0x3d41e62c	0.04733865
160	0x3db1d798	0.08683699
161	0x3cb31023	0.02185828
162	0xbe4f5b72	-0.20249727
163	0xbdd47526	-0.10373907
164	0x3d3172da	0.04332242
165	0xbccfac0a	-0.02535059
166	0x3c173222	0.009228261
167	0xbe0d55ac	-0.13802212
168	0x3dade311	0.08490575
169	0xbdc277a1	-0.09495474
170	0x3e5fdc28	0.21861327
171	0xbbede5ac	-0.007260045
172	0xbe50f331	-0.2040527
173	0xbbac9aa2	-0.005267457
174	0xbe66fcc5	-0.22557361
175	0xbc4f982b	-0.012670557
176	0xbde31abf	-0.11089086
177	0xbcee0dcc	-0.029059313
178	0x3e07dacf	0.13267063
179	0x3d3c95b9	0.046041224
180	0xbe0e70ab	-0.13910167
181	0xbe7f73c5	-0.24946506
182	0x3dfc15e2	0.12308861
183	0x3d432876	0.04764601
184	0xbc3ff714	-0.011716623
185	0xbd9b3adb	-0.07579585
186	0xbd524133	-0.05133171
187	0xbd2b0303	-0.04175092
188	0xbda02a6c	-0.07820591
189	0x3dc6caf5	0.0970668
190	0xbdf0bedd	-0.11755154
191	0x3d05d43f	0.032673117
192	0xbc993ae4	-0.018704839
193	0x3d452904	0.04813482
194	0xbcd4f13c	-0.025993936
195	0xb8852b40	-6.34999e-05
196	0x3c2eb703	0.010663751
197	0xbcf5dfee	-0.030014005
198	0x3c9b9b0b	0.018994829
199	0xbde4ac7c	-0.11165711
200	0xbd37dac7	-0.044886377
201	0x3d88a523	0.06672122
202	0xbe0339a6	-0.1281496
203	0x3d9495b0	0.07255113
204	0x3ca6ff5b	0.020385435
205	0xbd816e62	-0.06319882
206	0x3d81e5b1	0.06342638
207	0xbda3efd3	-0.08004727
208	0xbc9cac5e	-0.01912516
209	0xbe051277	-0.12995325
210	0xbde4beef	-0.1116923
211	0xbdf9e00c	-0.12200937
212	0x3bdec9a1	0.0067989384
213	0xbd130478	-0.035892934
214	0xbdd1b73d	-0.10240028
215	0xbcb64a2c	-0.022252165
216	0x3c15c0f5	0.009140243
217	0xbda88d54	-0.08230081
218	0xbdcdce2a	-0.10049088
219	0xbc3f3554	-0.011670429
220	0xbd49b664	-0.049246207
221	0xbe039ea6	-0.12853488
222	0x3da6b27c	0.08139512
223	0xbe0bcc53	-0.13652162
224	0x3cf3e1e5	0.0297708
225	0xbe18cb36	-0.14921269
226	0x3bf89941	0.0075866287
227	0xbdf49992	-0.11943354
228	0xbd22318d	-0.039598037
229	0xbe15f6ae	-0.14644882
230	0xbde71267	-0.11282807
231	0xbd5172d2	-0.05113489
232	0x3c49fe8d	0.012328756
233	0xbd08a852	-0.033363648
234	0xbd66c39b	-0.056338888
235	0xbe156510	-0.14589334
236	0xbdf4825a	-0.11938925
237	0xbd7e40ea	-0.062073626
238	0xbdc29235	-0.09500543
239	0xbe0336c9	-0.12813868
240	0x3d710af1	0.058848325
241	0xbda1f27d	-0.07907579
242	0x3ca14c2c	0.019689642
243	0xbd503c15	-0.05083855
244	0x3d3f8478	0.04675719
245	0x3cd8b744	0.026454575
246	0xbc764759	-0.015031659
247	0xbe0c153e	-0.13679978
248	0xbd8997fe	-0.06718443
249	0xbdcfa9c6	-0.101398036
250	0x3d45415b	0.04815803
251	0xbdcef7ab	-0.10105833
252	0x3d9b18cd	0.0757309
253	0xbd6136c5	-0.054983873
254	0x3d9f8afc	0.07790181
255	0x3c5edbff	0.013602256

latent_engine.prior_mlp.3.bias f4 [64]
0	0x3d9e8c1e	0.07741569
1	0xbd145919	-0.036217783
2	0xbd24565c	-0.04012142
3	0xbd6bae78	-0.057539433
4	0xbdcf4499	-0.10120506
5	0xbd72a671	-0.059240762
6	0x3cba3c97	0.02273397
7	0x3dd0a2dc	0.10187313
8	0x3dde9df1	0.10869969
9	0x3bcd00f6	0.006256218
10	0x3e15c5ce	0.14626238
11	0x3d94a97a	0.072588876
12	0xbd95b86e	-0.07310568
13	0xbd9bcdaf	-0.076075904
14	0x3d1f4eb2	0.03889341
15	0x3ccf9e18	0.02534394
16	0x3de71b78	0.11284536
17	0xbcc750ee	-0.024330582
18	0xbe1bc962	-0.1521354
19	0x3d6ce216	0.0578328
20	0x3cd6f033	0.026237583
21	0xbe021276	-0.12702355
22	0x3e0064ed	0.125385
23	0xbde3ce0b	-0.11123284
24	0x3dfd40d3	0.1236588
25	0x3e33e17d	0.17566486
26	0xbe18f745	-0.14938076
27	0xbdd75e8a	-0.10516079
28	0x3d5069d0	0.05088216
29	0x3bb65dd0	0.0055653825
30	0x3d1cf3ca	0.038318433
31	0x3cd1fb8b	0.02563264
32	0xbd5e58c4	-0.054283872
33	0x3db41d40	0.087946415
34	0xbc40b921	-0.011762888
35	0xbde96557	-0.11396282
36	0xbe01df1b	-0.12682764
37	0x3d352623	0.044225823
38	0x3d5bfae9	0.053706083
39	0xbcefe33d	-0.02928316
40	0x3e3667da	0.17813054
41	0x3dce3046	0.10067801
42	0xbd2832a8	-0.041063935
43	0x3d84899d	0.0647156
44	0x3defe62e	0.11713825
45	0xbdd05408	-0.10172278
46	0x3cc53fa1	0.024078192
47	0xbbf3674f	-0.007428087
48	0x3dd07975	0.10179416
49	0xbdf29451	-0.11844695
50	0xbcf51de3	-0.029921478
51	0x3d8796f4	0.06620589
52	0xbd32d06e	-0.043655805
53	0xbbb2876a	-0.0054482715
54	0x3e4af200	0.19818878
55	0xbdde6e40	-0.10860872
56	0x3e226eb4	0.15862542
57	0xbe366faa	-0.17816034
58	0xbe1f7285	-0.1557103
59	0xbdbeb948	-0.09312683
60	0x3e0bc2b1	0.13648488
61	0x39ed7cfe	0.0004529729
62	0x3c77d8f0	0.0151274055
63	0x3e2105f0	0.15724921

latent_engine.mu_head.weight f4 [1, 64]
0	0x3df602c7	0.120122485
1	0xbe541100	-0.2070961
2	0x3ddcc117	0.107790165
3	0xbcafc3c2	-0.02145565
4	0xbdc81746	-0.09770064
5	0xbdd4dde7	-0.10393887
6	0xbe3efb91	-0.18650652
7	0xbe5db03c	-0.2164926
8	0xbde8cbf0	-0.11367023
9	0xbdaa1973	-0.08305635
10	0x3db0ea69	0.0863846
11	0xbe319ec8	-0.17345726
12	0xbeb78d39	-0.35849932
13	0x3d72aa24	0.05924429
14	0xbe3c2f7a	-0.18377486
15	0x3e19f24b	0.15033834
16	0x3de71f24	0.112852365
17	0xbdf1bb78	-0.11803335
18	0x3d44138c	0.047870204
19	0xbe671590	-0.22566819
20	0xbd32967a	-0.043600537
21	0xbd593532	-0.053029247
22	0xbe01ea7f	-0.1268711
23	0xbe4a5a65	-0.19761045
24	0xbe811c46	-0.25216883
25	0xbe0a5938	-0.13510597
26	0xbd647d9f	-0.055783864
27	0x3ceb029b	0.028687766
28	0x3e80d747	0.25164244
29	0x3d875c8c	0.06609449
30	0x3e160cee	0.1465337
31	0xbe0474fc	-0.12935251
32	0x3df476c6	0.11936717
33	0x3d65962b	0.056051414
34	0x3daf6981	0.08565045
35	0x3dccac9d	0.09993861
36	0x3d794ee1	0.06086624
37	0xbd9e81b4	-0.07739583
38	0x3d93d1d0	0.07217753
39	0xbd5ebdbc	-0.054380164
40	0xbe83a55b	-0.25712094
41	0xbe8065ba	-0.2507761
42	0xbdca6b41	-0.09883738
43	0xbe55262c	-0.20815343
44	0x3dc8fd03	0.09813883
45	0x3d979863	0.07402112
46	0xbc09164a	-0.0083671305
47	0x3d3dee3f	0.046369787
48	0xbe5040d1	-0.20337225
49	0x3dbf5f03	0.09344294
50	0x3e3efbb4	0.18650705
51	0x3d60b212	0.05485732
52	0x3d9f52a8	0.07779437
53	0xbe678d54	-0.22612506
54	0x3d148c69	0.036266718
55	0x3df52fa1	0.11971975
56	0xbe4a9269	-0.19782414
57	0xbc655fd8	-0.013999902
58	0x3e063fdf	0.13110302
59	0xbda78e9d	-0.08181498
60	0xbd275bb8	-0.040858954
61	0x3e12b9be	0.14328668
62	0x3dc9213c	0.09820792
63	0xbe097036	-0.13421711

latent_engine.logvar_head.weight f4 [1, 64]
0	0x3d98af77	0.07455342
1	0xbe3bf452	-0.1835492
2	0x3c92ceba	0.01792084
3	0xbd18798f	-0.037225302
4	0x3e2ed3fb	0.17073052
5	0xbc8683fb	-0.016420355
6	0xbe12c3c7	-0.14332496
7	0xbdf06f43	-0.117399715
8	0xbd68159a	-0.056661226
9	0x3c504558	0.012711845
10	0xbd839ba1	-0.06426168
11	0xbaba742a	-0.0014225293
12	0xbe03676f	-0.12832426
13	0xbbb64ca1	-0.005563334
14	0xbc73275c	-0.014840927
15	0x38a1aefe	7.709673e-05
16	0xbd92de1d	-0.07171271
17	0xbd3084ce	-0.043095402
18	0x3da51406	0.0806046
19	0xbe403922	-0.18771794
20	0xbe015d0c	-0.12633151
21	0x3e0e52ee	0.13898823
22	0xbd2a2f6d	-0.041549135
23	0xbd3a5546	-0.04549148
24	0xbe17caee	-0.14823505
25	0xbd941362	-0.072302595
26	0x3d992b5d	0.07478974
27	0x3de35cfe	0.11101721
28	0xbda69b5a	-0.081351
29	0x3de89f03	0.11358454
30	0x3dd4da16	0.10393159
31	0xbdd6a59b	-0.104808055
32	0x3d156e6c	0.03648226
33	0xbcb80de2	-0.022467557
34	0xbdc2792c	-0.09495768
35	0x3b858f8b	0.0040759495
36	0xbd63a9e5	-0.055581946
37	0xbdf9c182	-0.12195112
38	0x3cc5b1a2	0.024132553
39	0x3dabf3b1	0.0839609
40	0xbdfa92bf	-0.12235021
41	0xbe06ad59	-0.13152064
42	0xbdc69d75	-0.09698001
43	0xbde2a8be	-0.11067341
44	0xbe06993a	-0.13144389
45	0x3baf8784	0.005356731
46	0xbd4ac392	-0.049502917
47	0xbdda6361	-0.10663486
48	0xbd2180ae	-0.03942936
49	0xbc4b1b5d	-0.012396661
50	0xbd117200	-0.03550911
51	0xbdb8a128	-0.09015113
52	0x3e10aea7	0.14129125
53	0xbe36448c	-0.17799586
54	0xbd737c38	-0.059444636
55	0x3d296e9c	0.04136525
56	0xbd934570	-0.071909785
57	0xba886d8d	-0.0010408625
58	0x3ad6bcb5	0.0016383143
59	0x3c1b1351	0.009465055
60	0xbe30a973	-0.1725214
61	0x3b52017e	0.0032044346
62	0xbe0ffba4	-0.14060837
63	0xbdbabddd	-0.09118245

fusion_layer.alpha_s f4 [34]
0	0x3f0d099b	0.5509278
1	0x3f127bf9	0.5722042
2	0x3ebbc604	0.3667451
3	0x3e983dc5	0.29734626
4	0x3e806a04	0.25080884
5	0x3f70dfc0	0.94091415
6	0x3f4d1d92	0.80123246
7	0x3f59221f	0.8481769
8	0x3efeaf42	0.49743086
9	0x3f77ea7d	0.96842176
10	0x3f3ed03d	0.74536496
11	0x3f670ef8	0.90257215
12	0x3f72fe11	0.94918925
13	0x3f66a746	0.9009899
14	0x3feda409	1.8565685
15	0x3f90d7c2	1.1315844
16	0x3f3a0601	0.7266541
17	0x3ef0e55f	0.47049996
18	0x3f579577	0.8421244
19	0x3f03ec6b	0.5153262
20	0x3f577577	0.8416361
21	0x3f8b45af	1.0880641
22	0x3f63de0b	0.89010686
23	0x3f74a0c0	0.95557785
24	0x3f5f0804	0.87121606
25	0x3f2947f6	0.6612543
26	0x3eac65b6	0.3367135
27	0x3f46652c	0.77498126
28	0x3f6f3802	0.93444836
29	0x3f304dbf	0.6886863
30	0x3f000000	0.5
31	0x3f15ba60	0.5848751
32	0x3f3df72a	0.7420527
33	0x3f4ff101	0.8122712

fusion_layer.g_s f4 [34]
0	0x3e83d3b7	0.25747463
1	0x3ed111b9	0.40833834
2	0x3eddb5c6	0.43302745
3	0x3dd16bc2	0.10225631
4	0x3ea94b06	0.3306505
5	0x3f13312d	0.5749691
6	0x3e301c95	0.17198403
7	0x3e18b1c1	0.14911558
8	0x3e7500a4	0.23926026
9	0x3f25c096	0.6474699
10	0x3f15b91d	0.58485585
11	0x3ed1fd10	0.41013384
12	0x3f69a529	0.9126764
13	0x3e6b1578	0.22957408
14	0xbf6bac2d	-0.92059594
15	0x3ec4585e	0.3834867
16	0x3e84f918	0.25971293
17	0xbe49f1a7	-0.1972109
18	0x3edf0e34	0.43565524
19	0x3e580562	0.21095803
20	0x3e7bede7	0.24602471
21	0x3e6e1ee8	0.23253977
22	0x3e5e36ef	0.21700643
23	0x3f0b9ea2	0.5453893
24	0x3ad7b36b	0.0016456669
25	0x3ef7fb40	0.48433876
26	0xbecddb46	-0.40206355
27	0xbaf78224	-0.001888339
28	0x3e94fb8a	0.2909816
29	0x3db67b9d	0.08910296
30	0x3f000000	0.5
31	0x3e90e88a	0.28302413
32	0xbde2b508	-0.11069685
33	0x3c87255f	0.016497312
