best_model_s33.pth (torch, 27269 bytes, 9 tensors)

latent_engine.industry_embedding.weight f4 [8, 8]
0	0x3f4b9985	0.7953113
1	0xbf9529f6	-1.165343
2	0x3f815637	1.0104436
3	0x3e42bbeb	0.19016998
4	0x3eaa5a79	0.3327215
5	0x3f1e252f	0.6177549
6	0x3e4e242c	0.20130986
7	0x3f01bbef	0.5067739
8	0x3ec5fbf6	0.38668793
9	0xbec124b8	-0.37723327
10	0xbebd8684	-0.3701669
11	0x3e0406ff	0.12893294
12	0xbf22b55b	-0.63557976
13	0xbfa1623a	-1.2608101
14	0xbf4873fd	-0.78301984
15	0xbdb2e5e2	-0.08735253
16	0xbf72f6a8	-0.9490762
17	0xbf6d7de1	-0.927702
18	0x3f1af7c2	0.605343
19	0x3fd336e5	1.6501127
20	0xbfe0ae19	-1.755313
21	0xbe59c688	-0.2126714
22	0xbe577d6e	-0.21043941
23	0x4001a924	2.0259485
24	0xbe1ec465	-0.15504606
25	0xbeae05c3	-0.3398877
26	0xbf3394ab	-0.70148724
27	0x3f8757a5	1.0573622
28	0x3fc94431	1.5723935
29	0x3f209145	0.62721664
30	0xc00f6abb	-2.2408893
31	0xbf973bba	-1.1815102
32	0xbefc4e77	-0.49278614
33	0xc00b512f	-2.17683
34	0xbf4bc87f	-0.7960281
35	0x3f7cbf2f	0.98729223
36	0xbed189b9	-0.40925387
37	0xbf3e0580	-0.7422714
38	0x3ed5b3a5	0.4173862
39	0xbfe9114a	-1.8208401
40	0xbf235ba7	-0.63811725
41	0x3f076987	0.52895397
42	0xbc21101a	-0.009830499
43	0x3f27225a	0.6528679
44	0xbfb1af59	-1.3881637
45	0xbf3691e7	-0.7131638
46	0xbee246d3	-0.4419466
47	0xbf0274ae	-0.5095929
48	0x3f3c47b5	0.73546916
49	0xbf9a5914	-1.2058434
50	0x3ea5fec9	0.32420948
51	0x3ff0dcd8	1.8817396
52	0xbf3e14e0	-0.742506
53	0xbd1d62d4	-0.038424328
54	0x3f65e014	0.8979504
55	0x3f3587a5	0.709101
56	0x3f87e0a2	1.0615427
57	0xbf029c0b	-0.5101935
58	0xbf157468	-0.58380747
59	0xbd243d08	-0.040097266
60	0x3ff5ba69	1.9197513
61	0xbf9416b4	-1.1569428
62	0x3ccf7bfb	0.025327673
63	0x3f3a9200	0.7287903

latent_engine.prior_mlp.0.weight f4 [64, 14]
0	0x3dc1c1d4	0.09460798
1	0x3ee5dfde	0.4489736
2	0x3e1d423e	0.153573
3	0x3ee61a25	0.44941822
4	0x3e775eb9	0.24157228
5	0xbd840c82	-0.06447698
6	0xbe69f52c	-0.22847432
7	0x3e560d5c	0.20903534
8	0x3dbea1fe	0.09308241
9	0xbe96e8dc	-0.29474533
10	0xbdbf7310	-0.09348118
11	0xbd0c0cd8	-0.034191936
12	0xbe9ebb37	-0.3100221
13	0x3e5d6386	0.21619996
14	0xbe81611c	-0.252694
15	0xbeb110dc	-0.34583175
16	0xbdf73ef2	-0.12072553
17	0x3bec1042	0.0072040865
18	0x3e4d7329	0.20063461
19	0x3dda109b	0.106476985
20	0x3e32220b	0.17395799
21	0x3e776dcf	0.24162982
22	0xbdc4e670	-0.09614265
23	0xbe0f9e58	-0.14025247
24	0x3dea2ca4	0.11434296
25	0xbe4e640f	-0.20155357
26	0xbda4c282	-0.08044912
27	0xbe910cd4	-0.283301
28	0xbd8d0880	-0.06886387
29	0xbea2c19c	-0.31788337
30	0x3d379275	0.044817407
31	0x3ded22cf	0.11578905
32	0x3e23cab6	0.15995297
33	0xbe87badc	-0.2650975
34	0x3dbdfb38	0.09276432
35	0xbdca4043	-0.09875538
36	0x3e8f052b	0.2793363
37	0x3e37d973	0.17954044
38	0xbeba7db6	-0.36424035
39	0x3dc8425b	0.09778281
40	0xbe10973f	-0.14120196
41	0x3e671870	0.22567916
42	0x3d97450e	0.07386218
43	0x3e32a1c4	0.17444521
44	0xbe0a8d29	-0.13530411
45	0xbdf20271	-0.11816872
46	0x3e291850	0.1651318
47	0xbe01061c	-0.12599987
48	0x3ddb874b	0.107191645
49	0x3e4915e7	0.19637261
50	0x3db18d35	0.08669511
51	0x3c51f34b	0.012814353
52	0x3f10c152	0.56544983
53	0xbdad17fd	-0.08451841
54	0xbe1305bd	-0.14357658
55	0xbc756adf	-0.014979093
56	0x3cfe8abc	0.031072013
57	0x3e26661b	0.16249888
58	0x3d041405	0.032245655
59	0x3d8fbbe4	0.07018259
60	0xbe9954f8	-0.2994764
61	0xbd4e1498	-0.05031261
62	0x3dee6982	0.11641218
63	0xbeb254a3	-0.34830198
64	0x3db36be4	0.08760813
65	0xbc94da70	-0.018170565
66	0xbeb97aba	-0.36226445
67	0xbe5877c1	-0.21139432
68	0xbdb79fad	-0.089660026
69	0xbbb5d848	-0.0055494644
70	0x3ea2f1d8	0.31825137
71	0x3e190ad7	0.14945541
72	0x3b26b2c1	0.0025436135
73	0x3de7791a	0.11302395
74	0x3dcd0ff5	0.10012809
75	0x3df38e9a	0.118924335
76	0xbe4cba28	-0.19992888
77	0xbd2d1c7d	-0.042263497
78	0x3d87d015	0.066314854
79	0xbe301ac5	-0.17197712
80	0x3e9c413a	0.30518514
81	0xbccd6740	-0.025073647
82	0x3e6bb050	0.23016477
83	0xbe410dc3	-0.18852906
84	0xbd52dc53	-0.05147965
85	0x3eabae3a	0.33531362
86	0x3d34502f	0.04402178
87	0x3dd04f07	0.10171323
88	0xbda72f83	-0.08163359
89	0xbda53b99	-0.08068008
90	0x3da18bb6	0.07887976
91	0xbea47673	-0.3212162
92	0xbe6d29a4	-0.23160416
93	0xbe0cf1dc	-0.13764137
94	0xbd642887	-0.055702712
95	0xbe0d6d57	-0.13811241
96	0xbde9a3e4	-0.11408213
97	0x3ee036f9	0.4379194
98	0xbe1524db	-0.1456484
99	0xbd45e960	-0.048318267
100	0x3caddb4a	0.02122273
101	0xbe3e4396	-0.1858047
102	0xbce457db	-0.027873924
103	0xbe4c1ea7	-0.19933568
104	0x3df5a9cd	0.119952776
105	0x3dec699f	0.11543583
106	0x3e165eeb	0.14684646
107	0xbdf2b931	-0.11851729
108	0x3d20e7b2	0.039283462
109	0x3e6a0157	0.22852074
110	0xbeb7e035	-0.35913244
111	0xbeb5535b	-0.35415158
112	0x3e479edc	0.19494194
113	0xbe7117ca	-0.23544231
114	0xbd27d1fe	-0.04097175
115	0x3ca6d75f	0.020366369
116	0x3dde211f	0.10846161
117	0x3c60b8ec	0.013715964
118	0xbc01da4a	-0.007925579
119	0xbde13304	-0.109960586
120	0x3cb9ddfb	0.022688856
121	0xbd9b16ce	-0.07572709
122	0xbe59380d	-0.21212788
123	0xbe657e41	-0.22411443
124	0xbe10184f	-0.14071773
125	0x3e4df466	0.20112762
126	0x3e3ae23c	0.18250364
127	0x3e38f957	0.18063866
128	0xbd09f946	-0.03368499
129	0x3eb352b0	0.35024023
130	0xbd841527	-0.06449347
131	0xbdad7434	-0.084694296
132	0x3e2fb52a	0.17158952
133	0x3d8fa51f	0.07013916
134	0xbdc13f5e	-0.094359145
135	0x3dd3e258	0.10345906
136	0x3c9d882f	0.019229976
137	0x3d216da4	0.039411202
138	0xbdac396d	-0.084093906
139	0xbe7d20e5	-0.2471958
140	0x3d24137a	0.040057637
141	0xbebcba77	-0.3686101
142	0x3d971e76	0.07378857
143	0xbc0b385c	-0.008497324
144	0x3dd07b19	0.10179729
145	0x3dc7626e	0.09735571
146	0xbdadbaa1	-0.08482862
147	0x3e919fa6	0.28442115
148	0xbdcd9738	-0.10038608
149	0x3d4d727d	0.050158013
150	0x3e332ad4	0.17496806
151	0xbe8b673e	-0.27227205
152	0xbd9040f9	-0.070436426
153	0xbe857c16	-0.26071233
154	0x3d6864b6	0.05673667
155	0x3e92ab6e	0.28646415
156	0x3cd86b46	0.02641834
157	0x37a08a10	1.9137777e-05
158	0xbe626cc3	-0.22111802
159	0xbdfdcafd	-0.123922326
160	0xbce9362e	-0.028468218
161	0xbd9cef92	-0.07662882
162	0x3abe4dd6	0.0014519047
163	0x3e51625e	0.2044768
164	0x3e9714f6	0.2950818
165	0x3e2b3e5d	0.16723008
166	0xbddd4878	-0.10804838
167	0xbe05c45e	-0.1306319
168	0xbe192bd0	-0.1495812
169	0x3e4145b5	0.18874247
170	0x3ea9f061	0.33191207
171	0xbd50aa71	-0.050943796
172	0x3e071c33	0.13194351
173	0x3df542a7	0.119756036
174	0xbcb9d2af	-0.02268347
175	0x3cc2d1b2	0.023781631
176	0xbe557f5e	-0.20849368
177	0xbd8b6edc	-0.06808254
178	0xbdec310d	-0.11532793
179	0xbc1a3462	-0.009411903
180	0x3ec1d235	0.37855688
181	0x3e9319c8	0.28730607
182	0x3ea8bad9	0.32955053
183	0x3e25e1b7	0.16199385
184	0x3e3d5cec	0.18492478
185	0x3dbaf778	0.09129232
186	0x3e1c666a	0.15273443
187	0xbd356fa8	-0.044295937
188	0xbe78abb9	-0.24284257
189	0x3d889691	0.06669343
190	0xbd370b4f	-0.04468852
191	0x3e7fbe7d	0.2497501
192	0x3da29e4d	0.0794035
193	0xbe93e5da	-0.288863
194	0x3e301594	0.17195731
195	0x3e41a680	0.18911171
196	0xbe009460	-0.125566
197	0x3d009ea6	0.0314013
198	0x3e2e2790	0.1700728
199	0xbda0bcd9	-0.0784852
200	0x3e858bf6	0.26083344
201	0x3e70dc44	0.23521525
202	0x3e20e327	0.15711652
203	0x3e9a9efc	0.3019942
204	0xbded6276	-0.115910456
205	0xbde0534b	-0.10953387
206	0x3d9fb84e	0.07798825
207	0xbcf7cb2c	-0.030248247
208	0x3e877f6f	0.26464412
209	0x3e4b6798	0.19863737
210	0xbe1013a3	-0.14069991
211	0xbe13f3a3	-0.14448409
212	0x3d8abfdf	0.06774878
213	0x3d3b3e53	0.045713734
214	0x3ddbcbfe	0.10732268
215	0xbe096336	-0.13416752
216	0xbe439a9d	-0.19101949
217	0x3ce224fc	0.027605526
218	0x3d2a522d	0.041582275
219	0x3d9b787b	0.07591339
220	0xbd8c3b60	-0.068472624
221	0x3defe728	0.117140114
222	0xbeebad43	-0.46030626
223	0xbc7e468c	-0.015519749
224	0x3d065ea7	0.03280511
225	0xbda92649	-0.082592554
226	0xbe3e7343	-0.18598656
227	0xbca054ac	-0.019571625
228	0x3b8ac99a	0.0042354586
229	0x3d648498	0.055790514
230	0x3e0abe9a	0.13549271
231	0x3dec0651	0.11524642
232	0x3e2d9e7d	0.1695499
233	0xbdbeb6a7	-0.09312182
234	0xbe8c71cf	-0.2743058
235	0x3e3f1edc	0.18664116
236	0xbde8556a	-0.113444164
237	0xbc669dea	-0.014075736
238	0xbe90b965	-0.28266445
239	0x3e8bed4f	0.2732949
240	0x3da075af	0.07834946
241	0x3c5043f4	0.012711514
242	0x3e866430	0.26248312
243	0xbe2c3465	-0.16816862
244	0x3e251836	0.16122517
245	0x3bcaef69	0.0061930907
246	0xbe1f2944	-0.15543085
247	0xbcaf688f	-0.021412162
248	0x3e24e8d1	0.16104437
249	0x3ea3621e	0.31910795
250	0x3e75085a	0.23928967
251	0x3e1538d3	0.14572458
252	0x3e182f5e	0.14861819
253	0xbe4472a0	-0.19184351
254	0xbd9d6719	-0.0768568
255	0x3e6e6ffb	0.23284905

latent_engine.prior_mlp.0.bias f4 [64]
0	0xbe43622f	-0.19080423
1	0xbea7126b	-0.3263124
2	0xbe675511	-0.22591044
3	0xbd4249a6	-0.047433518
4	0xbe296625	-0.16542871
5	0xbea567d5	-0.3230578
6	0xbe8fb30f	-0.28066298
7	0xbd0500b9	-0.032471392
8	0x3d988337	0.07446902
9	0x3e37d0da	0.17950764
10	0xbdbde681	-0.09272481
11	0x3d6a5827	0.057212975
12	0xbc85b9bf	-0.016323922
13	0xbe9d01fe	-0.30665582
14	0xbe4a64a1	-0.1976495
15	0xbe3ff0f8	-0.18744266
16	0xbdc7266d	-0.09724126
17	0xbe5af00b	-0.21380632
18	0x3dbd772c	0.09251246
19	0xbe223263	-0.15839534
20	0xbdfed989	-0.12443835
21	0xbcd81cc0	-0.026380897
22	0x3dccaf14	0.09994331
23	0xbe49fb74	-0.19724828
24	0xbe44d7fa	-0.19223014
25	0xbba99e31	-0.0051763286
26	0xbdc03fe0	-0.09387183
27	0x3dbd3077	0.092377596
28	0xbd181e00	-0.037137985
29	0x3d1dbaf4	0.03850837
30	0xbe1a1698	-0.15047681
31	0x3ddc41b2	0.10754718
32	0x3d51d8cf	0.051232155
33	0xbeba3557	-0.3636882
34	0xbe4f4f08	-0.20244992
35	0xbddeaf32	-0.108732596
36	0xbe351dbb	-0.17687123
37	0xbe110626	-0.14162502
38	0xbe01405f	-0.12622212
39	0x3cd80d2d	0.02637347
40	0xbd246e75	-0.040144403
41	0x3b9e6f80	0.004835069
42	0x3dedb084	0.11605933
43	0xbe7d8522	-0.24757817
44	0x3e3eaec6	0.18621358
45	0x3e444500	0.19166946
46	0xba4a1a02	-0.0007709564
47	0xbd825d8c	-0.06365499
48	0x3ce29e62	0.027663413
49	0xbe6eb4b4	-0.2331112
50	0x3ce898a8	0.028393105
51	0x3e134be3	0.14384417
52	0xbc9e91c3	-0.019356614
53	0x3ddadae8	0.10686284
54	0xbd91e030	-0.071228385
55	0x3db84840	0.089981556
56	0xbd54d6df	-0.05196273
57	0xbe2a27c7	-0.16616736
58	0xbd7c5392	-0.061603136
59	0xbe2fd585	-0.17171295
60	0x3d545cf5	0.051846463
61	0xbdc0b475	-0.094094194
62	0xbe7633f6	-0.24043259
63	0x3e0e844a	0.13917652

latent_engine.prior_mlp.3.weight f4 [64, 64]
0	0x3e5fa573	0.21840458
1	0xbe01e295	-0.1268409
2	0xbdea558d	-0.11442099
3	0x3e747b74	0.23875219
4	0xbd882e38	-0.066494405
5	0xbda54ab0	-0.08070886
6	0xbd25e13b	-0.040498
7	0x3dbe229d	0.09283946
8	0x3da0715a	0.0783412
9	0xbca59e74	-0.020217158
10	0x3d7caea4	0.061689988
11	0x3ce290d4	0.02765695
12	0xbdd9831c	-0.1062071
13	0xbe958909	-0.29206112
14	0xbd72f313	-0.059313845
15	0x3d649973	0.055810403
16	0x3cc9a121	0.024612965
17	0x3cfa0bb4	0.030523159
18	0x3d1473dd	0.03624331
19	0xbb333a14	-0.002734785
20	0xbd857d9a	-0.06518097
21	0xbe70becf	-0.23510288
22	0xbae79da0	-0.0017670877
23	0xbd827603	-0.06370165
24	0x3c69cafe	0.0142695885
25	0x3e2aa558	0.16664636
26	0xbca264e1	-0.019823493
27	0xbe6a6e54	-0.2289365
28	0x3c8438d2	0.016140375
29	0xbdfbbd29	-0.12291939
30	0x3e2b05c6	0.16701421
31	0xbcb44a89	-0.022008197
32	0x3d667cd5	0.056271393
33	0xbc8b8dba	-0.017035354
34	0xbc39d00f	-0.011341109
35	0xbe0d7521	-0.13814212
36	0xbd19c221	-0.03753865
37	0xbe6ce841	-0.23135473
38	0xbd917fb9	-0.07104439
39	0xbd9073fa	-0.07053371
40	0x3e00e14a	0.12585941
41	0x3d968d39	0.07351155
42	0x3db1c71b	0.086805545
43	0x3c8dd24b	0.01731219
44	0xbe0aa695	-0.13540109
45	0x3dd243cf	0.1026684
46	0x3d59f84e	0.053215317
47	0xbce627f4	-0.028095223
48	0xbd741663	-0.059591662
49	0x3e02c792	0.12771443
50	0x3e47ed66	0.19524154
51	0xbddba1db	-0.10724231
52	0x3de6a53a	0.11261983
53	0x3d776eeb	0.060408514
54	0xbe5262e6	-0.2054554
55	0xbd52a0da	-0.05142293
56	0x3d8d9af5	0.06914321
57	0xbe3699e5	-0.17832144
58	0xbd06a5ae	-0.03287285
59	0xbdecc9cc	-0.11561927
60	0xbe474c0a	-0.194626
61	0xbe721486	-0.23640642
62	0x3c87eea7	0.01659329
63	0x3db5f0e2	0.088838354
64	0xbddb35ab	-0.10703596
65	0xbdacd5b9	-0.08439202
66	0x3e51ad64	0.204763
67	0x3dc68df9	0.09695048
68	0x3e18da75	0.14927085
69	0x3da9d7e3	0.0829313
70	0xbd112d8a	-0.03544382
71	0xbe33b3b0	-0.17549014
72	0xbdbf51b6	-0.09341757
73	0xbb4f6646	-0.0031646653
74	0x3d9d47eb	0.07679733
75	0x3bc2c6d8	0.005944114
76	0x3ddf73da	0.10910769
77	0x3db90a63	0.09035184
78	0xbd90a62e	-0.07062946
79	0xbcf11eb8	-0.029433593
80	0x3d538694	0.051642016
81	0xbdd49f34	-0.10381928
82	0xbc9e6e08	-0.019339576
83	0xbdbc70c6	-0.09201197
84	0xbe2d71e5	-0.16937979
85	0xbd3f2cb8	-0.046673506
86	0xbddd1138	-0.107943
87	0xbcb600f5	-0.022217253
88	0x3cdc63c5	0.026903043
89	0x3b2d7263	0.0026465885
90	0x3cdcf266	0.026971053
91	0x3db9e61f	0.09077095
92	0xbd8eb0de	-0.069673285
93	0x3d10b3c1	0.035327677
94	0xbdd0c565	-0.101939
95	0xbdb0978f	-0.086226575
96	0xbda46c04	-0.08028415
97	0xbd988baa	-0.07448514
98	0x3e471eeb	0.19445388
99	0x3c1763e5	0.009240125
100	0x3e3e860d	0.18605824
101	0x3b9aecde	0.004727944
102	0xba949dc4	-0.0011338522
103	0xbd68e028	-0.056854397
104	0x3e4d3748	0.2004062
105	0x3d870722	0.06593157
106	0x3dd51f14	0.10406318
107	0x3db8091b	0.08986112
108	0x3b922770	0.0044602677
109	0xbd711592	-0.05885846
110	0xbdcf65e2	-0.101268545
111	0xbd3b307f	-0.045700546
112	0xbe665627	-0.22493802
113	0x3dccda65	0.10002593
114	0xbdfe5c9f	-0.1242001
115	0x3d4d539c	0.050128564
116	0xbe74d2fa	-0.23908606
117	0xbdd39825	-0.10331754
118	0xbdc5c32f	-0.09656369
119	0xbca51f5c	-0.020156555
120	0x3c02117c	0.007938739
121	0x3b86c15f	0.004112407
122	0x3d75f1d7	0.06004509
123	0x3e0b314a	0.13593021
124	0x3d27ec77	0.040996995
125	0xbdc7caaf	-0.09755456
126	0xbd51c9f9	-0.051218007
127	0x3e144702	0.14480212
128	0x3b593f87	0.0033149438
129	0x3c589dfa	0.013221258
130	0xbd6dc0f9	-0.05804536
131	0xbd55b5a9	-0.052175198
132	0xbda1d24e	-0.079014406
133	0x3e1cbc41	0.15306188
134	0xbce5f5bc	-0.028071277
135	0x3d812568	0.06305963
136	0xbe33e08c	-0.17566127
137	0x3d91ec62	0.071251646
138	0xbd2f880a	-0.042854346
139	0x3da28f3a	0.079374745
140	0x3ce7f96a	0.028317172
141	0xbe5ac843	-0.21365456
142	0xbdbac191	-0.09118951
143	0xbb3e9bd8	-0.002908459
144	0xbe39e181	-0.18152429
145	0xbe63c9a4	-0.22244889
146	0xbd2b1848	-0.041771203
147	0xbca2f9d8	-0.019894525
148	0x3e55340a	0.20820633
149	0xbd9d707a	-0.07687469
150	0x3ce46ad4	0.02788297
151	0xbcd93e71	-0.026519032
152	0xbd5e977e	-0.054343693
153	0xbdea227f	-0.11432361
154	0xbe8c4ada	-0.27400857
155	0x3d897e76	0.06713574
156	0x3e260f50	0.16216779
157	0xbac72784	-0.0015194272
158	0x3e47bc9d	0.19505544
159	0xbd435fa7	-0.047698643
160	0xbe00d21f	-0.12580155
161	0x3d96c8df	0.07362532
162	0xbdb1fc0d	-0.08690653
163	0xbe47a065	-0.1949478
164	0xbd0676b4	-0.032828048
165	0xbc63a346	-0.013893908
166	0xbe48c17f	-0.19605063
167	0x3c37f416	0.011227628
168	0xbe208fb4	-0.15679818
169	0xbd8cf55c	-0.06882736
170	0xbd981352	-0.0742556
171	0xbd810135	-0.06299058
172	0x3d4a6aca	0.04941825
173	0x3d19f1e6	0.037584208
174	0xbe0f0e93	-0.13970403
175	0x3cd983a5	0.02655203
176	0xbcc21ed1	-0.023696335
177	0x3dbdf314	0.09274879
178	0xbdade200	-0.08490372
179	0xbd2b3a3a	-0.041803576
180	0x3dd652e2	0.104650274
181	0x3dc2077c	0.09474084
182	0xbe2d8c35	-0.16948016
183	0xbd852939	-0.06502003
184	0xbe0e591e	-0.13901183
185	0x3db54925	0.08851842
186	0x3de6cd1f	0.112695925
187	0xbe16b7e8	-0.14718592
188	0xbd5c09ef	-0.05372041
189	0xbe803062	-0.25036913
190	0xbdb2384c	-0.08702144
191	0xbe827a52	-0.25483948
192	0x3e04cf3f	0.12969683
193	0xbe59a117	-0.21252857
194	0xbda47fc4	-0.08032182
195	0xbd03a5fd	-0.03214072
196	0xbe756d5e	-0.23967502
197	0x3e46c481	0.19410898
198	0x3dcd76bc	0.100324124
199	0xbe0a590a	-0.13510528
200	0xbd592e2a	-0.05302254
201	0x3d5fbf25	0.05462565
202	0xbe04650e	-0.12929174
203	0xbdb43019	-0.087982364
204	0xbbb29093	-0.0054493635
205	0xbe0cb9b6	-0.13742718
206	0xbe099cd8	-0.13438737
207	0x3d9251aa	0.071444824
208	0xbd085894	-0.0332876
209	0xbc30c345	-0.010788743
210	0x3c4a0e19	0.012332463
211	0x3e088b06	0.13334283
212	0xbdbb2807	-0.09138494
213	0xbc8b7cec	-0.01702734
214	0xbd601c7c	-0.054714665
215	0xbe3e33fe	-0.18574521
216	0xbd4273d7	-0.047473755
217	0xbd5b7e10	-0.05358702
218	0x3dee1c4f	0.11626493
219	0xbe8290c6	-0.25501078
220	0xbd6e7b33	-0.05822296
221	0xbde9cfe2	-0.114166036
222	0x3d51cc44	0.051220194
223	0x3e007a7d	0.12546726
224	0x3e1b5649	0.15169634
225	0x3debfe00	0.11523056
226	0xbd1f8431	-0.038944427
227	0x3d156834	0.03647633
228	0xbd1e7807	-0.038688686
229	0x3dd376b6	0.10325377
230	0x3d952b98	0.072837055
231	0xbdd883f6	-0.105720446
232	0xbdebf75d	-0.1152179
233	0xbd8cfeee	-0.068845615
234	0x3d728b85	0.059215087
235	0xbd842199	-0.06451721
236	0xbf0391aa	-0.5139414
237	0xbd6e4816	-0.058174215
238	0x3e038519	0.12843741
239	0xbc766488	-0.015038617
240	0xbe0c7653	-0.13717012
241	0x3d4852ac	0.048906967
242	0x3d9a961d	0.07548163
243	0xbe569faa	-0.20959345
244	0x3d7d66bc	0.061865553
245	0xbd9be5da	-0.076122
246	0xbda30ba7	-0.07961207
247	0xbcd39be7	-0.025831176
248	0x3d40cfdd	0.047073234
249	0x3e1afa1f	0.15134476
250	0xbe80018e	-0.25001186
251	0xbbc60aad	-0.006043753
252	0x3e1146c8	0.14187157
253	0xbe242de4	-0.16033131
254	0x3e434647	0.19069777
255	0x3d0afa32	0.03393001

latent_engine.prior_mlp.3.bias f4 [64]
0	0x3e037455	0.12837346
1	0x3d9e6679	0.07734389
2	0x3de82615	0.113353886
3	0x3d9630c8	0.07333523
4	0x3e44acd7	0.19206558
5	0xbe140c31	-0.14457776
6	0x3e2226fb	0.15835182
7	0x3dc7cd02	0.09755899
8	0x3db4971a	0.08817883
9	0x3e091564	0.13387066
10	0x3dda4c84	0.106591254
11	0xbd33f92f	-0.043938812
12	0xbd7c9322	-0.061663754
13	0x3cee3993	0.029080188
14	0x3dff7faa	0.12475522
15	0xbd376923	-0.044778
16	0x3dd4f158	0.10397595
17	0x3d25d715	0.04048832
18	0xbb71ed60	-0.0036915168
19	0x38d8b74a	0.00010333823
20	0x3c0cb817	0.008588812
21	0xbd2a41d2	-0.041566677
22	0xbe42b01b	-0.19012491
23	0x3d8a44c2	0.06751396
24	0xbe28b9cb	-0.16477124
25	0xbcf5618f	-0.029953746
26	0x3dd75f6a	0.10516246
27	0x3d371d5b	0.04470573
28	0x3cbbd9ca	0.022930998
29	0x3d0e692a	0.03476826
30	0xbe13bf9e	-0.14428565
31	0x3c8f1a3c	0.017468564
32	0x3ae0659d	0.0017120127
33	0x3c98f030	0.018669218
34	0x3e25501c	0.1614384
35	0xbc8da000	-0.017288208
36	0x3d4384a1	0.047733907
37	0xbe2278cd	-0.15866394
38	0x3daf357b	0.085551225
39	0xbda2befb	-0.07946583
40	0x3e048eb2	0.12945059
41	0x3dff6d0b	0.1247197
42	0x3c0066aa	0.007836977
43	0xbcb913ca	-0.022592444
44	0x3dbcca0f	0.09218227
45	0x3e118a8a	0.14213005
46	0xbcb80745	-0.022464404
47	0xbe0d9489	-0.13826193
48	0xbc85eaf3	-0.016347384
49	0xbd9bc04a	-0.076050356
50	0x3e2ff1cb	0.1718208
51	0x3d827ae3	0.06371095
52	0x3c85f771	0.01635334
53	0xbc34e4d3	-0.011040884
54	0x3da07a47	0.078358226
55	0xbbac960b	-0.00526691
56	0xbcc19f97	-0.023635669
57	0x3cdc5daa	0.026900131
58	0xbdb17d5d	-0.08666489
59	0xbe04e8af	-0.12979387
60	0x3daf2520	0.08552003
61	0xbbb56a8b	-0.0055363826
62	0x3e161857	0.14657722
63	0xbbbc2959	-0.0057422337

latent_engine.mu_head.weight f4 [1, 64]
0	0xbe29c034	-0.16577226
1	0x3da92f6f	0.08261
2	0xbd6adead	-0.057341266
3	0xbe7dfbb2	-0.24803045
4	0xbe280273	-0.16407184
5	0x3d4735b5	0.048635203
6	0xbdd0c320	-0.10193467
7	0x3d7e2141	0.062043432
8	0xbe094cce	-0.13408205
9	0xbe1ceffa	-0.15325919
10	0x3d7a2623	0.061071526
11	0xbdeeada9	-0.11654217
12	0xbdb55313	-0.08853736
13	0x3de10117	0.10986536
14	0xbe02235e	-0.12708804
15	0xbe47cdb5	-0.19512065
16	0x3dfc8f45	0.12332014
17	0x3d45e9c3	0.048318636
18	0xbe43d66b	-0.19124763
19	0x3d6cbdf7	0.057798352
20	0x3d133695	0.035940725
21	0xbe7980b9	-0.2436551
22	0x3dbec952	0.093157426
23	0xbdaea954	-0.085283905
24	0x3bef88dd	0.0073100165
25	0x3e1b10d9	0.15143146
26	0x3e294864	0.16531521
27	0xbca5a2fa	-0.020219315
28	0xbe098159	-0.13428248
29	0xbdf76219	-0.120792575
30	0xbd80d5af	-0.06290757
31	0x3bb58b97	0.005540322
32	0x3dd19e9a	0.10235329
33	0x3e468e61	0.1939025
34	0xbe60b99f	-0.21945809
35	0x3dee2580	0.11628246
36	0xbd875d7e	-0.06609629
37	0x3d4c86aa	0.049933113
38	0xbdb122fa	-0.086492494
39	0xbaec2043	-0.0018014986
40	0xbe2fb39a	-0.17158356
41	0x3df514a6	0.11966829
42	0xbe8f2b77	-0.2796285
43	0xbeb41a87	-0.3517649
44	0x3db0c91c	0.086321086
45	0xbe505850	-0.20346189
46	0x3dd5eb4d	0.10445271
47	0x3d0720e3	0.032990348
48	0x3d7497c7	0.05971506
49	0x3db3109c	0.08743402
50	0xbd22b230	-0.039720714
51	0xbe45858a	-0.19289222
52	0xbdc99d8d	-0.098445036
53	0xbdcb20e0	-0.0991838
54	0xbe2ba652	-0.16762665
55	0x3d647ac2	0.055781133
56	0x3e5abac3	0.21360306
57	0xbe0c8d23	-0.13725714
58	0xbe09495e	-0.13406894
59	0x3e18b04c	0.14911002
60	0xbe37f3b0	-0.17964053
61	0x3d6d3a82	0.057917126
62	0xbe38d3fe	-0.18049619
63	0xbcb36d17	-0.021902604

latent_engine.logvar_head.weight f4 [1, 64]
0	0x3ccbb866	0.024868201
1	0x3d81ee86	0.06344323
2	0xbcc52872	-0.024067137
3	0xbd5b191d	-0.053490747
4	0xbdabc831	-0.08387793
5	0x3df43dcc	0.11925849
6	0xbd213f74	-0.039367154
7	0xbd6c5285	-0.057695884
8	0xbdbca5f6	-0.09211342
9	0xbdf80e9b	-0.12112161
10	0xbd971c24	-0.07378414
11	0xbd82ace4	-0.063806325
12	0x3e010acb	0.12601773
13	0xbc0a7600	-0.008450985
14	0xbde2a515	-0.11066643
15	0xbd60bbb3	-0.054866504
16	0x3d16227a	0.036653973
17	0x3dd820bc	0.105531186
18	0xbdb629c5	-0.08894686
19	0x3daf4134	0.085573584
20	0x3c489851	0.012243346
21	0xbe00392b	-0.12521808
22	0x3dc8012a	0.09765847
23	0x3d40f53e	0.04710888
24	0x3c275feb	0.01021574
25	0x3d4cc697	0.049994078
26	0x3a46a711	0.00075779954
27	0x3c7fe268	0.015617944
28	0xbde02a37	-0.10945552
29	0xbc538e7c	-0.012912389
30	0x3d40e35a	0.04709182
31	0x3d772a4e	0.06034308
32	0x3a7db875	0.00096786703
33	0x3c88ed0c	0.016714595
34	0xbc556efc	-0.013026949
35	0x3c3a41f6	0.011368265
36	0xbd824fda	-0.06362887
37	0x3e1a79f0	0.15085578
38	0xbd4e443e	-0.05035805
39	0x3d1851b6	0.0371873
40	0xbd1d1b04	-0.038355842
41	0xbc3f0065	-0.011657809
42	0xbd969e8d	-0.0735446
43	0x3cf9dc7c	0.030500643
44	0xbdf3dee5	-0.11907748
45	0xbd868032	-0.0656742
46	0x3d3509b5	0.04419871
47	0x3cb11503	0.021616464
48	0x3d1b1cf8	0.037869424
49	0xbb9f4185	-0.0048601055
50	0xbdb92fe0	-0.090423346
51	0xbe15bdd9	-0.14623202
52	0x3d467698	0.048452944
53	0xbac875cc	-0.0015293895
54	0x3c123135	0.008922865
55	0x3cb38fab	0.021919092
56	0xbcc5f658	-0.024165317
57	0xbe0c5ad0	-0.13706517
58	0xbe3cfd5b	-0.18456022
59	0xba4b1b1a	-0.0007747874
60	0x3d1f6725	0.038916726
61	0x3de28a24	0.110615045
62	0xbd86b041	-0.065765865
63	0xbc71b0d0	-0.014751628

fusion_layer.alpha_s f4 [34]
0	0x3ef65fb9	0.48119906
1	0x3f1eb173	0.61989516
2	0x3eefb0a7	0.46814463
3	0x3e9c74a4	0.3055774
4	0x3ebf939a	0.374173
5	0x3f53e132	0.82765496
6	0x3f725cf6	0.946731
7	0x3f605a04	0.8763735
8	0x3f1f6612	0.6226512
9	0x3f7fcc78	0.9992137
10	0x3f3d8f08	0.74046373
11	0x3f688f5f	0.90843767
12	0x3f8255b4	1.0182405
13	0x3f7bdceb	0.9838397
14	0x3ff01b18	1.8758268
15	0x3f8c31b2	1.0952666
16	0x3f326430	0.69684124
17	0x3edd3bf8	0.43209815
18	0x3f48c4db	0.7842538
19	0x3f0848b3	0.5323593
20	0x3f4c062e	0.7969693
21	0x3f895e24	1.0731854
22	0x3f6ea538	0.93220854
23	0x3f67db5d	0.90569097
24	0x3f6254c1	0.88410574
25	0x3f43927c	0.7639539
26	0x3e9c0bae	0.3047766
27	0x3f4f377e	0.8094405
28	0x3f7de1ab	0.99172467
29	0x3f43a378	0.7642131
30	0x3f685e2a	0.9076868
31	0x3f197db2	0.5995742
32	0x3f000000	0.5
33	0x3f46825c	0.7754266

fusion_layer.g_s f4 [34]
0	0x3e85fc62	0.26169115
1	0x3ef97447	0.48721525
2	0x3f051702	0.5198823
3	0x3d9e8d11	0.0774175
4	0x3eea1a77	0.45723316
5	0x3f05cabd	0.5226248
6	0x3e961d2a	0.29319125
7	0x3e034b10	0.12821603
8	0x3ea8fa7d	0.33003607
9	0x3f30660d	0.6890572
10	0x3f230805	0.6368411
11	0x3ecec244	0.40382588
12	0x3f7b2ee2	0.9811841
13	0x3e85bb21	0.2611933
14	0xbf6b3ee9	-0.9189287
15	0x3eeff10a	0.46863586
16	0x3e5a20b9	0.21301545
17	0xbe505342	-0.2034426
18	0x3eb38082	0.3505898
19	0x3e65f4d1	0.22456671
20	0x3e3616d1	0.17782141
21	0x3e4ad8a7	0.19809209
22	0x3e945d3c	0.28977382
23	0x3f103135	0.56325084
24	0xbd652c41	-0.055950407
25	0x3f17e329	0.59330994
26	0xbecdde4a	-0.40208656
27	0x3c8e37bd	0.017360562
28	0x3e9eadb9	0.30991915
29	0x3e2bd5b8	0.16780746
30	0x3dadf568	0.08494073
31	0x3ea4c397	0.32180473
32	0x3f000000	0.5
33	0x3d77cd9a	0.06049881
