best_model_s30.pth (torch, 27269 bytes, 9 tensors)

latent_engine.industry_embedding.weight f4 [8, 8]
000000 2f 14 bb be fe 2f dd bf 01 9b 89 be f6 92 0d 3e
       -0.36538836 -1.7280271 -0.2687607 0.13825592
000010 81 ca 32 3f fd 5c 2c 40 92 b9 9d bf 69 c5 a4 bc
       0.69840246 2.6931756 -1.2322257 -0.020113664
000020 a6 50 07 3f 4e a4 93 3f cf ba a5 3f 3c c6 f3 be
       0.52857435 1.1534517 1.2947634 -0.47612178
000030 a5 f6 11 bf c1 aa 02 c0 94 66 87 3f 44 46 fe 3e
       -0.57016975 -2.041672 1.0578179 0.49662983
000040 9f f3 c7 3f 2d b8 d0 be eb 1c 9e 3e fd 58 a4 be
       1.5621222 -0.40765515 0.30881438 -0.32099143
000050 4d b8 4e bf be 41 51 3f de 62 e6 bf 93 4c c4 3e
       -0.8074997 0.8174094 -1.7998922 0.38339671
000060 cc 64 c6 3e 80 54 b9 3f b0 f3 f3 bc 54 75 ec be
       0.38748777 1.4478912 -0.029779285 -0.46183264
000070 ce 8b 27 40 eb bd b8 3e 92 e3 d8 3e 18 c3 e1 3f
       2.617908 0.36082396 0.42361122 1.7637663
000080 e7 52 25 3f 8a ae 70 bf df 04 06 be 8a 02 91 3e
       0.64579624 -0.94016325 -0.13087796 0.2832225
000090 ed 98 02 bf 05 3a b3 bf b0 06 a0 bf 09 7f 82 3f
       -0.51014596 -1.4002081 -1.2502041 1.0195018
0000a0 5a cd cb bf 49 85 0a be 21 e9 96 be d5 a1 fa 3e
       -1.5922043 -0.13527407 -0.29474738 0.48951593
0000b0 0a 7f 76 bf f3 77 3f bd f3 77 4b bf ae e2 b3 be
       -0.96287596 -0.046745252 -0.79479903 -0.3513388
0000c0 c1 1d 0b 3f 1d e8 59 bf 70 19 20 3e da 5d 18 bf
       0.54342276 -0.851198 0.15634704 -0.59518206
0000d0 77 e4 2f 40 27 2d 0f 3e 18 cf 59 be 4d 67 ec 3f
       2.7483194 0.13982068 -0.21270406 1.8469025
0000e0 48 a5 b7 3f 15 ff 47 3f cb 3d f0 3d c4 78 4e 3e
       1.4347315 0.781236 0.11730536 0.20163256
0000f0 c3 83 d6 be d2 b6 b2 3f 64 87 ba be 53 79 51 3e
       -0.418974 1.3962042 -0.3643142 0.20456438

latent_engine.prior_mlp.0.weight f4 [64, 14]
000000 c5 ba f3 bd 3c 3d 8e be a5 ce 35 bd 09 41 d1 3d
       -0.11900858 -0.27781093 -0.044386525 0.102174826
000010 b6 93 94 3d f5 d7 c7 bd 14 16 1e 3d b2 ac 53 3e
       0.07254736 -0.097579874 0.038595274 0.20671347
000020 db 6d 4d 3d 8c 0d 5b 3c 55 bb f3 be 81 65 02 3f
       0.050153594 0.013369929 -0.4760386 0.5093613
000030 79 a8 89 3e 4c 48 32 3d c3 6f 0b 3e 13 05 4e 3e
       0.26886347 0.04352598 0.13616852 0.20119123
000040 ee a9 82 be 9f 14 7d 3d 1e b0 cc 3d 47 05 9f 3c
       -0.2552027 0.061787244 0.09994529 0.019411696
000050 16 5f c9 be 33 4a 20 3e 1c f6 89 be 2e 96 59 bd
       -0.39330357 0.15653305 -0.2694558 -0.053121738
000060 94 98 12 3f 24 e0 9d bd 33 3d c2 bd 50 10 a1 be
       0.57264066 -0.07708767 -0.09484329 -0.31457758
000070 c0 4f 79 3d 53 1b 79 3c 57 27 4d be 73 89 42 bc
       0.06086707 0.0152042685 -0.20034538 -0.011873591
000080 6d ac 26 3d d6 f5 21 3d 43 55 6c 3e 77 c2 8b be
       0.04069178 0.039541088 0.230794 -0.27296802
000090 53 cd a6 bd 46 19 b4 bd ff 0d 9b be 99 d7 c3 be
       -0.08144631 -0.08793883 -0.30284116 -0.38250425
0000a0 ad 22 41 3d 63 1a e4 3e 2e 0e ce 3d df 5e 1d be
       0.04715221 0.4455138 0.10061298 -0.15368222
0000b0 64 c3 89 be 29 8a ac 3d 86 75 aa 3c a2 e9 2a bd
       -0.26906884 0.084247895 0.020807993 -0.041726716
0000c0 c4 bf 56 be e8 20 fb bb eb 60 97 3c 39 a7 d6 3b
       -0.2097159 -0.007663835 0.018478831 0.006550696
0000d0 6a b4 6d 3d 51 f7 24 bd d9 0a 4f be 22 05 c9 bd
       0.058033384 -0.04027492 -0.20218982 -0.09815432
0000e0 27 8a 72 be bc a2 40 be c0 ff 97 3d 4f 8c 91 be
       -0.23685513 -0.18812078 0.07421827 -0.2842736
0000f0 0a 61 ee bd bd b0 99 3e a6 55 73 3e ab 4b 6e be
       -0.116396025 0.30017653 0.23763141 -0.23271053
000100 ad 53 57 bc d4 94 aa be d8 aa 06 3e 39 a8 43 3e
       -0.013142508 -0.33316672 0.13151109 0.1910714
000110 4e 6c 86 3e a6 17 9a 3e 47 de d0 be dd 7b ca 3d
       0.26254505 0.30096167 -0.40794584 0.09886906
000120 71 a0 42 bd 14 16 88 bc 5e 2c 2c 3d 55 01 7c 3d
       -0.04751629 -0.01661209 0.0420345 0.061524708
000130 47 b1 cd 3d 61 fb d3 bc 23 52 f9 3d 7a d7 8f bd
       0.100435786 -0.025876703 0.121738695 -0.07023521
000140 e1 ef a8 be b8 3a 80 be 51 1e 5c 3e 9e 0b 0b 3f
       -0.32995513 -0.250448 0.2149594 0.543146
000150 73 7c f4 3b 36 d5 41 3e c2 95 3d bd da b8 b4 bc
       0.0074611246 0.1892899 -0.0462854 -0.0220608
000160 33 a6 f2 3d 94 88 0e 3d fb 55 9e 3d 41 51 6d be
       0.11848106 0.03479822 0.07731243 -0.23175527
000170 23 42 3c be 93 ee 86 be 13 68 28 3f 04 30 86 3e
       -0.18384604 -0.26353893 0.65783805 0.26208508
000180 e1 8d 80 bd d5 38 85 3d 87 26 75 bd 41 8b 53 bd
       -0.06277061 0.065049805 -0.059851196 -0.051646475
000190 e1 4b 0e bd 8b e7 df 3d fa 87 6d 3d 46 65 e1 bb
       -0.034740333 0.10932835 0.057991005 -0.006878528
0001a0 f2 c9 dd 3d 95 f9 20 be 71 32 36 be 90 51 9a 3d
       0.10829534 -0.15720208 -0.1779268 0.07535088
0001b0 75 24 ea 3d 54 64 53 bd f0 5a 87 be c3 0a a8 be
       0.11432735 -0.051609352 -0.26436567 -0.3282071
0001c0 8a d9 34 3d ba 37 10 3e 43 38 ca be 01 cf eb ba
       0.044152774 0.14083758 -0.3949605 -0.0017990769
0001d0 e9 de 75 3c 72 30 7e 3e 4b 18 5b bd ac 30 22 be
       0.015006759 0.24823168 -0.053489964 -0.1583888
0001e0 60 71 52 3d c4 9c cd be ae 48 74 3e 06 6c 46 bd
       0.051377654 -0.40158665 0.2385585 -0.048442863
0001f0 23 ac 2a be 6e f6 00 3e 52 09 c4 be 74 63 5d be
       -0.16667227 0.12594005 -0.3828836 -0.2161997
000200 44 3d 6a 3d e4 c5 61 3e 2b 6d 47 be 77 75 bf 3d
       0.057187334 0.22048146 -0.19475238 0.093485765
000210 ab c9 1d be e7 35 1f be 78 35 e3 bd cd ad 55 be
       -0.15408961 -0.15547906 -0.11094183 -0.20867081
000220 54 b5 19 bd 6a f6 3c be 00 06 f9 bb af 6b 4b 3e
       -0.037526444 -0.18453375 -0.007599592 0.19865297
000230 98 3f 5e be 62 ea 3f be 55 aa 39 be ce 79 0a 3e
       -0.21703947 -0.18741754 -0.18131383 0.13523027
000240 19 d5 e9 3c 11 4d d5 3e ab 8b 47 be 24 0f 0c 3e
       0.028543996 0.4166036 -0.19486873 0.1367765
000250 17 69 3a be 08 cb df 3b 79 ca c0 3d 11 44 30 be
       -0.18204151 0.006829623 0.094136186 -0.17213465
000260 d2 38 63 be 06 10 87 bd 1e 07 9c be c1 13 36 be
       -0.22189644 -0.06594853 -0.3047418 -0.17780973
000270 55 91 1b be a9 4a 3e be 9e df af bd 65 87 8e 3d
       -0.15192159 -0.18583168 -0.085875735 0.06959418
000280 a3 e5 41 3e 86 49 df bd e9 b5 dd 3b 5b b6 4e 3d
       0.18935256 -0.10902695 0.00676607 0.050466876
000290 a7 28 53 3e c1 d9 3d be 20 2a 84 3e f1 84 16 bf
       0.20620976 -0.18540098 0.2581339 -0.587966
0002a0 3b 6a 52 be 55 e3 07 3e 58 ac ae bd 34 db f5 bd
       -0.20548336 0.13270314 -0.08528966 -0.120047
0002b0 cc a2 29 bd ff 0b 77 be 75 83 5b bc bf 83 b1 bd
       -0.04141502 -0.2412567 -0.013398041 -0.08667707
0002c0 bd 0b c7 bd 96 7b c5 3d fc f7 2a be 63 b1 35 3e
       -0.09719036 0.09642713 -0.16696161 0.17743449
0002d0 37 a3 7e bc ea 8c 62 bd 3c d1 70 be a2 db 9b 3e
       -0.015541843 -0.055310167 -0.23517317 0.30441004
0002e0 7b 97 49 3e 03 42 80 be e7 5b 7b 3d e6 1d 38 be
       0.19686691 -0.25050363 0.06136694 -0.17980155
0002f0 36 d7 11 bd d8 31 55 be 58 30 03 be 47 8b a7 bd
       -0.03560563 -0.20819795 -0.1281141 -0.08180862
000300 5c db 07 be a2 61 35 3e fd c1 81 3e 6c ce 59 3e
       -0.13267273 0.17713025 0.25343314 0.2127015
000310 c2 c0 a5 3e 22 d1 90 be 7d cd 56 3e 60 14 b8 be
       0.32373625 -0.28284556 0.20976825 -0.35953045
000320 fe fb 25 be 75 80 32 3e 0e 09 90 3d ca 19 10 be
       -0.16209409 0.17431815 0.07032977 -0.14072338
000330 ae 3e fe 3d 2b 46 21 be f0 1d a2 be 65 2a 69 bd
       0.12414299 -0.15749423 -0.31663465 -0.056925196
000340 66 a3 e8 bd 3d 6e c8 3e 56 f2 9d 3e 76 32 85 3e
       -0.11359291 0.39146605 0.3084895 0.2601506
000350 32 31 c8 3c 3a 27 16 be de 88 2c bd 1e ee 55 3e
       0.02443752 -0.14663401 -0.042122714 0.20891616
000360 de ba 2a 3d 21 3b 82 3d ce a0 1a be f9 21 89 be
       0.041682117 0.06358934 -0.15100405 -0.26783732
000370 c2 0a 21 3f c2 0d 15 3e 18 87 0a 3e 48 e3 89 3d
       0.6290704 0.1455603 0.13528097 0.067328036
000380 48 0e 54 be c4 37 1a 3e 8d fd ea bd 04 10 d0 bd
       -0.20708573 0.15060335 -0.11474142 -0.10159305
000390 3e 9f ca 3d f0 ec 72 3c c3 d2 6a be 93 8d f5 3d
       0.09893654 0.014826998 -0.22931962 0.11989894
0003a0 b8 11 c8 bd 99 9b 88 bd 3d 71 47 be ce 01 64 be
       -0.097690046 -0.06670303 -0.1947679 -0.22266313
0003b0 e8 f5 2a 3e 57 b6 c4 3d 5c 2f 84 3e 46 35 87 be
       0.16695368 0.09605091 0.25817382 -0.26407832
0003c0 87 dc 15 3e 33 a6 83 be fc 36 c3 bd c6 c4 27 3d
       0.14634906 -0.25712737 -0.09531972 0.040959142
0003d0 18 a1 80 be 88 15 75 bd 99 70 bd bd 74 3c cd 3d
       -0.25122905 -0.059834987 -0.09249992 0.10021296
0003e0 a3 8f 74 3e e7 43 8a 3e 37 2c 99 bd f9 8c 76 3c
       0.23882918 0.2700493 -0.074791364 0.015048259
0003f0 5a 70 11 be c7 9f 11 3e dd e0 48 bd ed 30 96 bc
       -0.14203015 0.14221106 -0.04904257 -0.018333877

latent_engine.prior_mlp.0.bias f4 [64]
000000 9d 84 9a bd 2b 72 27 bd 6a 22 b0 bc 43 c2 75 be
       -0.07544825 -0.040880363 -0.021500785 -0.23999886
000010 be c8 b0 bc 49 88 9b bd ef 36 16 be 70 eb 1c bd
       -0.021580096 -0.07594354 -0.14669393 -0.03831047
000020 06 78 8a be 8e d4 94 bd 37 58 13 3e f9 d8 10 3e
       -0.27044696 -0.07267104 0.1438912 0.14145268
000030 d4 0e 28 bd 73 87 35 be 0c c4 99 3d f2 42 33 3e
       -0.041029766 -0.17727451 0.07508096 0.17506006
000040 dd dc 4e bd 46 1d a8 bd 59 0d 48 bc e3 30 0d be
       -0.0505036 -0.082087085 -0.012210214 -0.1378818
000050 2e 95 e4 bd 42 bf 23 be 10 85 63 be 7e d1 f3 bd
       -0.11161266 -0.15990928 -0.22218728 -0.11905192
000060 43 1b c5 3b 92 f4 c5 bd 58 48 b3 3b 22 7c 9f 39
       0.0060152127 -0.09665789 0.0054712705 0.0003041933
000070 47 db 92 be 3b c4 c3 3d 6b 60 64 be b8 04 68 3e
       -0.2868292 0.09558912 -0.22302406 0.2265805
000080 32 99 c7 bc f0 8a 88 3e 00 6b 17 3e 1b 4b 5e 3d
       -0.024365041 0.266685 0.14786911 0.054270845
000090 b4 bc 3e be 43 ff a1 be d1 c0 79 3d 9f c0 64 be
       -0.18626672 -0.31640062 0.0609749 -0.22339104
0000a0 e6 8b 8a be 27 54 ae bd 9f 09 15 be c7 5f 9d 3c
       -0.2705986 -0.085121445 -0.14554451 0.01921071
0000b0 14 0d bd 3c dd 05 8e be 71 41 69 be 27 69 8f be
       0.023077525 -0.27738848 -0.2277887 -0.28009912
0000c0 b8 29 97 be 56 0a ba be b9 f9 3b be 15 f3 76 be
       -0.29524016 -0.3633601 -0.1835698 -0.24116166
0000d0 e5 38 d1 bd 22 4c 41 be 7f e6 e4 be 7f 99 85 be
       -0.1021593 -0.18876699 -0.44707105 -0.2609367
0000e0 17 2f db 3c 04 d3 f5 bb cd c2 50 be 62 93 5b be
       0.026755853 -0.0075019617 -0.2038681 -0.21442941
0000f0 18 66 68 be de ca 8b bd 89 9b b0 3d b8 c3 d1 bd
       -0.22695196 -0.06825803 0.08623416 -0.102424085

latent_engine.prior_mlp.3.weight f4 [64, 64]
000000 8d 17 16 3e 48 97 99 3d 81 11 fe bc 64 b9 e6 bc
       0.14657421 0.07499558 -0.031014206 -0.028164573
000010 50 74 15 be 0f 42 f0 bd d1 64 b3 3d 49 a7 4f bc
       -0.14595151 -0.1173135 0.087594636 -0.012674161
000020 36 32 87 3c 72 62 41 3d 3e 73 95 3d 76 6f 47 3e
       0.016503435 0.047213025 0.07297371 0.19476113
000030 95 7d 8b 3d 0e 03 6a be 9c 6e 6d bd 8c a0 04 3e
       0.06811062 -0.22852728 -0.057966813 0.12951869
000040 31 7b 28 bd 64 0c f5 3c 48 c8 0a bd bb 69 48 be
       -0.04113311 0.029913135 -0.03388241 -0.19571583
000050 cb 6f 48 3d c8 53 e2 bd 1c 0c e8 bd 97 a0 96 3a
       0.04893474 -0.11051136 -0.11330435 0.0011491951
000060 11 ca d6 3d b9 fe 32 be f9 2b 56 bd 4b bb d9 bd
       0.1048776 -0.17479981 -0.05228803 -0.106314264
000070 e4 6d bb 3b b5 03 62 3e 91 9e 92 3d 96 5b 52 3d
       0.005719887 0.22071727 0.071591504 0.051356874
000080 a8 1c ca 3d cb d4 35 3d fd f5 12 bb 65 30 d3 3a
       0.09868747 0.04439239 -0.0022424452 0.0016112445
000090 18 0b 9d be 12 57 39 bf 82 b1 af 3d 8f 0a d0 bd
       -0.30672526 -0.72398484 0.08578779 -0.10158264
0000a0 8a 44 3c be a8 ca a9 be 01 99 24 3d 30 86 5a bd
       -0.1838552 -0.33162427 0.04018498 -0.053350627
0000b0 a2 a2 5d be 96 19 e5 3d 37 97 13 be b3 b1 3a 3d
       -0.2164407 0.11186521 -0.14413153 0.045579623
0000c0 f3 89 12 be c9 d7 73 3d 9a 0b cd bd 38 0d 24 3e
       -0.14310436 0.05953196 -0.100119784 0.16020668
0000d0 eb 63 d4 bd 4e 96 e5 bd 56 dc c9 bd 2e ff d5 3d
       -0.1037062 -0.11210309 -0.09856479 0.10449062
0000e0 b7 95 34 3e 03 bf c3 3d 01 33 a5 3d e2 06 74 be
       0.17635237 0.09557917 0.08066369 -0.2383075
0000f0 25 b6 a2 3d 1c 7e ed 3d 93 ab 17 be 0f b5 16 3d
       0.079448976 0.11596319 -0.14811544 0.036793765
000100 ab c0 e1 bd 36 a0 49 3c 8c 87 d4 bd 73 ad 32 3d
       -0.110230766 0.012306264 -0.10377416 0.043622445
000110 37 5c d5 3a 5d 90 33 3d e9 fb 8c bd 21 55 0d be
       0.0016278093 0.043838847 -0.068839855 -0.13802005
000120 7d c8 54 bd eb 50 98 bc d7 fc 44 3d be f6 e8 bd
       -0.051949013 -0.018593272 0.04809269 -0.11375187
000130 0b ed c0 ba 26 44 8d bd 4d 05 7d 3d 3e a4 2b bc
       -0.0014719082 -0.06897764 0.061772633 -0.01047617
000140 03 43 52 bd 66 86 3d bd 14 b0 32 be 09 69 4b bc
       -0.05133344 -0.04627075 -0.17449981 -0.012415179
000150 1c 73 99 bd 8d b8 18 3c db 65 10 3c 93 d2 01 bd
       -0.074926585 0.009321344 0.008813347 -0.03169496
000160 8f ce 58 bc 5b 52 90 bc 02 db 37 3d aa 9c 74 bd
       -0.013232841 -0.017617395 0.044886597 -0.05971972
000170 fb ea f2 bd 99 55 b5 bd f2 39 85 bc da 2c 97 bd
       -0.11861225 -0.08854217 -0.016262982 -0.07381602
000180 d6 dd 90 bd 3c 96 3e bd c3 80 08 3d 51 11 fc 3c
       -0.07073562 -0.046529993 0.03332592 0.030769976
000190 d5 10 ff bd b5 0f eb bd 86 6b 8b bd 9b cf eb bb
       -0.12454382 -0.11477605 -0.06807618 -0.0071963794
0001a0 a2 0f b5 bd a7 dd 8c bd 85 5b 13 3d 59 f7 b4 bd
       -0.08840872 -0.06878214 0.03597595 -0.0883624
0001b0 38 ed 91 3d 20 62 06 bd e3 bd a8 3d 3b 62 18 be
       0.07125324 -0.032808423 0.08239343 -0.14881222
0001c0 2c af 3e be d6 7c 3d bd c4 f3 ca 3c 7e b5 7b bd
       -0.1862151 -0.04626163 0.02477444 -0.06145238
0001d0 85 fc 6f bc 06 2d 1d 3d 30 80 f5 bd 5c 05 3e bc
       -0.014647608 0.038373016 -0.119873405 -0.011597957
0001e0 3b 7b b8 3c d3 4d 14 be 6d d5 b7 bd 3b 67 00 be
       0.022519698 -0.14482813 -0.089762546 -0.1253938
0001f0 9e 45 d5 bd 46 97 7a 3b 8f 44 3c bd cb b8 1a 3d
       -0.10413669 0.0038237139 -0.04596382 0.03777389
000200 ad 47 81 3d fc fd 4d be 4e 53 cd bd 6b f8 2d be
       0.06312499 -0.20116419 -0.10025655 -0.16989295
000210 da c4 11 3e 78 7a 1f 3e b9 fb bd be 42 d3 71 bd
       0.14235249 0.15574062 -0.37106112 -0.05903936
000220 6b 51 31 3e 87 b1 bb 3d 62 8a e6 3d c9 f8 3c 3d
       0.17316215 0.0916472 0.11256863 0.046135698
000230 12 a9 12 be b6 6b db bd 37 7c a4 bd ad 6e 40 3d
       -0.14322308 -0.107139036 -0.080315046 0.04698055
000240 f1 25 2c bd 63 b3 3c be e1 52 fa 3c 81 6f 3e be
       -0.04202837 -0.18427806 0.030557098 -0.18597223
000250 a5 98 b4 3d 98 00 96 be 4c 7f 31 3e f4 9e 3c be
       0.08818177 -0.29297328 0.17333716 -0.18420011
000260 d0 1a 92 bd 7e cb ae bd 8b 8f 56 3d 30 3a f9 3c
       -0.0713402 -0.08534907 0.052382987 0.030423254
000270 69 89 48 bd 21 89 ca 3c 0f 9c 21 3e 13 0f 5c bb
       -0.04895917 0.024723591 0.15782188 -0.003357832
000280 00 a2 04 be a2 53 35 be 72 1d 5f 3e ca 0f 95 3d
       -0.12952423 -0.17707685 0.21788576 0.07278402
000290 e4 3a 40 3e 30 88 7f 3c 7e 0e f5 3d 8a 90 4c bd
       0.18772465 0.0155964345 0.11965655 -0.04994253
0002a0 d1 7a ae 3c 21 a6 0f bc ac 49 4c be d7 83 d7 3d
       0.021298798 -0.008767636 -0.19949979 0.10523193
0002b0 f7 a7 9d 3d be 67 52 3e 57 64 06 3d 24 5c de 3d
       0.076980524 0.20547387 0.032810535 0.10857418
0002c0 8b 86 f1 3c b1 4d 22 be ee 5e ad bd 61 29 12 bd
       0.0294831 -0.1584995 -0.08465372 -0.035683993
0002d0 e2 0b 68 be a8 6d 34 3d 53 d0 6b bd e6 50 3a 3d
       -0.22660783 0.04404989 -0.05757172 0.045487307
0002e0 e4 5c b7 3b 6e 36 2d 3e 93 c3 c9 3d 29 ad fd 3d
       0.00559579 0.16915295 0.09851756 0.12386543
0002f0 e5 1b 9a 3d f4 1f 82 3d c9 82 cf 3d 39 57 6b 3e
       0.07524852 0.06353751 0.10132367 0.22982492
000300 11 4d cc bd 15 97 85 bd d4 50 2d bd 2e dd 92 bd
       -0.09975637 -0.06522957 -0.04231341 -0.07171093
000310 1d fd a0 3c 37 d9 8e 3d 26 9d eb bc be 39 a0 bd
       0.019651944 0.06975024 -0.028761458 -0.078235134
000320 99 9d 8b bd 87 2b fa bd d4 90 52 be 8b 4e bd bd
       -0.06817169 -0.122153334 -0.2056306 -0.092434965
000330 b8 54 78 3d ad 1f 87 bd bb ca 1b bc ed 96 96 39
       0.06062767 -0.065978386 -0.009508784 0.00028722678
000340 bc 01 d5 bc bc 14 66 3c 48 aa f8 bd c9 ee 7d 3b
       -0.026001804 0.014043029 -0.121418536 0.0038747063
000350 0b ee 76 3d 57 96 03 3d bb fe 33 bd cf c7 19 bd
       0.06028561 0.032125797 -0.0439441 -0.037544068
000360 e8 43 e1 bd 3f fc 19 be 2f 61 eb 3c 2f 71 1f be
       -0.1099928 -0.1503763 0.028732864 -0.1557052
000370 a1 0b 20 be 14 fd 98 bd 66 13 7d bd c9 a7 49 3d
       -0.15629436 -0.07470146 -0.061786078 0.049232278
000380 bd ea c5 bd 9e 03 16 be 3c 13 49 3d 80 0f a9 bb
       -0.096639134 -0.14649817 0.04909061 -0.0051593184
000390 40 20 72 bd e7 b2 f3 bc 1c 75 cf bd ef 46 6d 3d
       -0.059112787 -0.029748393 -0.10129759 0.057928976
0003a0 be 0c 26 be 18 0b 5d bc 9f 8d 2d bb b2 56 d7 bc
       -0.16215798 -0.0134914145 -0.0026482118 -0.026286457
0003b0 91 3f 44 3d eb 56 b8 bd f9 40 f4 bd 4f 86 18 bd
       0.047912184 -0.09000953 -0.11926455 -0.03723746
0003c0 07 d1 4b bc 85 2d ab bd 1d db 03 3d e5 49 f2 bc
       -0.012439973 -0.083582915 0.032191385 -0.029576251
0003d0 eb 67 2f bd 0e ae 47 bd a8 f4 f8 3c 40 8d d6 bd
       -0.042823713 -0.048749976 0.030390099 -0.1047616
0003e0 69 60 17 be 25 61 c9 bd 71 da 2b 3d 90 73 5a 3c
       -0.14782871 -0.09832982 0.04195637 0.013333216
0003f0 36 28 21 be d9 31 cc 3b fa 8b 0e bd 30 f4 84 bc
       -0.15737996 0.0062315282 -0.03480146 -0.016229719

latent_engine.prior_mlp.3.bias f4 [64]
000000 01 af 3d 3c 9a 1a 18 be c9 d7 22 3a 30 0b c5 bd
       0.011577369 -0.14853898 0.0006211964 -0.096212745
000010 00 ef b1 bc a7 32 51 be 97 ba f0 3c f1 db 9c 3d
       -0.02172041 -0.20429479 0.029385848 0.07659138
000020 74 40 6d bd e6 ba 38 bd cc 75 ef 3d a9 78 42 be
       -0.057922795 -0.045100115 0.1169239 -0.1899134
000030 84 ed 24 bd 5f 68 11 bd 34 a0 08 3e 0d 32 9b bd
       -0.040265575 -0.035499927 0.13342363 -0.07577906
000040 d0 10 6e 3e c8 a1 de 3d c8 dc 46 be 64 6e 2a bd
       0.23248601 0.10870701 -0.19420159 -0.041609183
000050 16 dc 7e bd 16 25 a8 3d ee 3c dc 3d b8 f1 a8 3c
       -0.06222161 0.082101986 0.10753809 0.020623073
000060 7c 73 b4 bd f1 fc 0e be 1d a5 24 3e 6f 6e 20 bc
       -0.088110894 -0.13963677 0.1607861 -0.009791954
000070 35 e6 72 3d 72 bd f4 3d 76 23 8b bd e6 e5 8d bd
       0.059301574 0.11950196 -0.06793873 -0.06928615
000080 97 c8 64 3e c9 c6 47 be a6 a2 34 3e 43 b2 83 3e
       0.22342144 -0.19509424 0.1764017 0.2572194
000090 76 ae 9f bd a1 6b 0a 3d 5b b5 9c 3d 4b 68 03 3e
       -0.07796948 0.03379405 0.07651778 0.12832753
0000a0 1d 0c 66 3e d4 14 52 bc 77 8d ca 3c 90 c7 07 3c
       0.22465558 -0.012822349 0.024725659 0.0082873255
0000b0 4e 88 9b bd af dd 67 3a 31 38 ae 3d 58 a7 46 bd
       -0.075943574 0.0008844984 0.085068114 -0.048499435
0000c0 9d fd 27 3c 27 69 4d 3d 91 9d a3 3d bb ab a8 bc
       0.010253337 0.05014911 0.07989038 -0.0205897
0000d0 f3 b0 92 3e d2 b4 a1 bd f5 67 a7 3d 26 9e d0 bc
       0.28650627 -0.07895817 0.08174125 -0.025466036
0000e0 fa cb 6b 3c d7 fe 2f be f6 65 5a 3d 15 3f 39 bc
       0.0143918935 -0.17187057 0.053319894 -0.011306544
0000f0 10 d7 0e bd ed 6c f1 3c 8f 1b 1a 3e 61 93 55 3e
       -0.03487307 0.029470885 0.15049575 0.20857002

latent_engine.mu_head.weight f4 [1, 64]
000000 47 f6 54 be 89 cf 52 3c c3 02 49 3e 2b 45 79 39
       -0.20797072 0.012866863 0.1962996 0.00023772258
000010 f2 32 c5 be 48 ba aa 3c 39 3c 46 be a8 eb cb bd
       -0.3851543 0.020840779 -0.1935891 -0.09957057
000020 75 fb bc be 0a ec ed 3d 54 33 6b 3e 18 8a 36 3e
       -0.36910596 0.116172865 0.22968799 0.17826116
000030 d0 ef 46 be b3 12 4e 3d d9 79 15 3e 39 e5 87 be
       -0.19427419 0.0503108 0.14597262 -0.2654207
000040 f2 1b 41 be 79 33 fe 3d 5e c7 9f 3d f3 6e e1 be
       -0.18858317 0.124121614 0.07801698 -0.4402996
000050 8d ee 13 3d 5c 75 fa bb d7 58 69 be 37 e2 d3 3d
       0.03611617 -0.007643385 -0.22787796 0.103458814
000060 23 17 bc be 90 b2 48 3e b7 29 34 be 23 ca 67 3e
       -0.36736402 0.19599366 -0.17594038 0.22635703
000070 47 fd ad be 8b 59 e4 3d 14 fc 17 3e 07 9a dc 3e
       -0.33982298 0.111498915 0.14842254 0.43086264
000080 64 0d b1 3d 07 df 30 3e d7 77 ee bd 82 51 eb bd
       0.08645132 0.17272578 -0.116439514 -0.11490156
000090 53 f6 de 3d 8d 1a e4 3d 2b 52 41 be 9f 34 ff bc
       0.10886826 0.11137877 -0.18879001 -0.031153021
0000a0 00 18 56 bc f7 1c aa 3d fc a7 55 be 8e 68 3f 3e
       -0.0130672455 0.08306306 -0.20864862 0.18692228
0000b0 38 f8 37 be 07 17 1e 3e 4c 54 1b 3e c4 53 1f be
       -0.17965782 0.15438472 0.15168875 -0.15559298
0000c0 2e d0 09 3e 20 ff a4 3d f7 53 1e 3e ec 98 bb be
       0.1345832 0.08056474 0.15461718 -0.36640108
0000d0 f6 1d ae bd 63 10 28 3e 40 73 36 3e 3f 50 b0 be
       -0.08501808 0.16412501 0.17817402 -0.34436223
0000e0 35 54 49 bd d1 41 34 3e 54 3b 2f be 93 44 4d be
       -0.04915257 0.17603232 -0.17112476 -0.2004569
0000f0 56 23 a6 be c0 1e 75 3d e1 e6 5e 3e f3 e8 11 3b
       -0.32448834 0.05984378 0.21767761 0.0022264093

latent_engine.logvar_head.weight f4 [1, 64]
000000 a7 4c 9a bd 0c 3d b3 bc 47 0a dd 3c d9 14 1a bc
       -0.075341515 -0.021879695 0.02698244 -0.0094043845
000010 7b 4f fe bd 4f f8 14 3e 13 2d d3 bd 6e 67 cc bd
       -0.124175034 0.14547847 -0.103113316 -0.09980665
000020 8f a5 09 be d4 fd c3 3d 17 12 80 bd 51 9b 4d 3b
       -0.13442062 0.09569898 -0.0625345 0.0031373093
000030 aa e2 fe bc 2d 54 a7 bd 80 5e 60 bd f1 1a 59 3d
       -0.031113941 -0.08170352 -0.054777622 0.05300421
000040 47 35 19 be 42 49 ad bd 4f a8 06 3d 96 4f 2d bd
       -0.1496173 -0.084612384 0.032875355 -0.042312227
000050 20 65 bf bd 85 fb 98 bd 0b 25 7f bd 8c 6c 7c 3d
       -0.0934546 -0.074698485 -0.062291186 0.061626956
000060 a3 a8 1c bc 00 90 51 bd 0e 8c 7c be ee af bd 3c
       -0.0095616905 -0.05116272 -0.24662802 0.023155179
000070 6f 10 e9 bd 6f 95 24 be c7 97 d1 3d 19 b0 c6 3d
       -0.113800876 -0.1607263 0.10234027 0.09701557
000080 69 cb a0 bd 28 4c b1 3d c7 5e 3f be 27 f9 29 be
       -0.078512974 0.08657104 -0.18688498 -0.1659895
000090 be 46 64 3d b9 44 d5 bd 15 ae 10 be c5 f2 c9 bd
       0.055731528 -0.104134984 -0.14128907 -0.09860758
0000a0 b5 d3 1e be 12 24 70 3d 7c 02 95 bc 76 85 8e bd
       -0.15510447 0.05862815 -0.018189661 -0.069590494
0000b0 a4 a3 bb 3c 1a 93 10 3d 0b 5f 23 bc 84 e7 05 3c
       0.022905178 0.035296537 -0.0099713905 0.008172873
0000c0 cc 65 31 bd e0 33 b6 bd df 34 05 3e ff 36 00 be
       -0.04330997 -0.08896613 0.1300845 -0.1252098
0000d0 7d b8 4a be b6 0d 00 3e 12 62 be bc ed e3 12 3d
       -0.19796939 0.1250523 -0.023240123 0.0358619
0000e0 71 50 65 bd 23 5f b1 3d dd b9 08 be b5 78 8b bc
       -0.055984918 0.08660724 -0.13352151 -0.017025331
0000f0 0d 88 0b 3e 80 fc a8 bd 3c 74 1d 3c 96 36 40 be
       0.13626118 -0.082512856 0.009610232 -0.18770823

fusion_layer.alpha_s f4 [34]
000000 e8 15 61 3e ba 0e 9a 3e 38 28 8d 3e c4 d7 94 3d
       0.21981013 0.3008936 0.27569747 0.072677165
000010 8c 31 54 3e 9a a0 69 3f b3 d6 8c 3f 97 5d 75 3f
       0.20722026 0.91260684 1.1003021 0.9584593
000020 0d cf c6 3e 3d a8 68 3f 0f 97 24 3f 6c 4f 62 3f
       0.38829842 0.9088171 0.64293 0.8840244
000030 1c af 37 3f a7 f7 63 3f a5 f5 14 40 34 af a0 3f
       0.7175157 0.8904976 2.327493 1.2553468
000040 23 e9 0d 3f 36 f3 0b 3f 20 b0 3b 3f 28 71 90 3e
       0.55433863 0.54667985 0.7331562 0.2821133
000050 23 a0 31 3f 72 40 9f 3f 26 b1 60 3f 9c 97 1f 3f
       0.69384974 1.2441542 0.8777031 0.6234071
000060 90 39 68 3f 22 b4 1a 3f d2 19 64 3e 3b cb 2d 3f
       0.90712833 0.6043111 0.22275475 0.6788823
000070 6a 2e 84 3f 00 00 00 3f 0d ba 76 3f 85 a7 fe 3e
       1.0326664 0.5 0.9637764 0.49737182
000080 1f ce 1c 3f df 5d 5c 3f
       0.61252016 0.86080736

fusion_layer.g_s f4 [34]
000000 00 73 70 bc 7e bb e8 3d d2 ae 08 3f 1b 34 2c bd
       -0.014675856 0.11363886 0.53391755 -0.04204188
000010 cd 24 c7 3e 7b 1f 46 3f 76 1a 79 3e a8 46 c6 3c
       0.38895264 0.77391785 0.243265 0.024203613
000020 43 ee b2 3d ce c1 13 3f 38 44 f1 3e 16 57 82 3e
       0.08736851 0.577176 0.4712236 0.25457066
000030 f1 5b 47 3f 75 93 e2 3e 57 f7 a7 bf 71 d2 07 3f
       0.77874666 0.44253126 -1.3122357 0.53055483
000040 60 5a 59 3e 59 f3 a4 be 36 e5 54 3e 76 3a 73 3e
       0.21225882 -0.3221691 0.20790562 0.2375277
000050 54 3e a6 3e 53 9b a6 3e 46 c4 8a 3e e1 46 bd 3e
       0.32469428 0.32540378 0.2710287 0.3696814
000060 19 46 81 bc 10 bf f0 3e c0 f1 c9 be e4 0d 40 3d
       -0.015780495 0.4702077 -0.39442253 0.046888247
000070 d0 f6 9b 3e 00 00 00 3f 57 7b 55 be 40 b5 8a 3e
       0.3046174 0.5 -0.20847832 0.27091408
000080 38 f3 a5 be 5f f9 c2 3d
       -0.32412124 0.0952022
