best_model_s33.pth (torch, 27269 bytes, 9 tensors)

latent_engine.industry_embedding.weight f4 [8, 8]
0.53008217 -0.4229706 -1.2592254 1.1463461 0.08646034 0.3014509 -0.30743688 -0.34108976
0.20893288 1.0524832 -0.89369464 -0.7552944 0.8167661 -0.48963025 1.1601971 0.47702333
0.29904792 1.0207542 0.057724558 1.4070603 0.95966816 0.04466502 1.4290586 -0.023965001
-0.08445519 0.5310893 -1.7669686 0.048659105 0.95220757 -1.1452487 -0.8681544 -0.2671578
0.38006735 0.08522723 -0.5742698 0.45985347 0.83918506 0.5987262 2.5141435 0.72113305
0.91248024 -0.8450639 0.8072228 -0.1780448 0.16696465 -1.1846315 -0.84727675 0.31654793
1.2755275 -2.2741694 -0.29263854 0.5305635 1.6787479 0.5009799 0.50670296 -0.7736007
-0.7253112 0.55859935 1.166975 -0.40270233 0.42573476 0.20768175 -0.74192196 -0.17169018
00000000: 77b3 073f 9a8f d8be 4c2e a1bf 78bb 923f
00000010: 1e12 b13d c657 9a3e 5e68 9dbe 51a3 aebe
00000020: 80f2 553e c5b7 863f 2cc9 64bf f95a 41bf
00000030: 9517 513f d1b0 fabe 5781 943f 673c f43e
00000040: cf1c 993e 13a8 823f 9670 6c3d 8d1a b43f
00000050: d0ac 753f abf2 363d 64eb b63f 4052 c4bc
00000060: d8f6 acbd 78f5 073f 072c e2bf c54e 473d
00000070: e0c3 733f 8297 92bf 5e3f 5ebf e8c8 88be
00000080: 3098 c23e 9d8b ae3d 5803 13bf ea71 eb3e
00000090: d5d4 563f 1f46 193f bae7 2040 2d9c 383f
000000a0: 4e98 693f 1c56 58bf 27a6 4e3f 6051 36be
000000b0: c8f8 2a3e 01a2 97bf 21e7 58bf 9212 a23e
000000c0: 7c44 a33f fe8b 11c0 b8d4 95be 02d3 073f
000000d0: 36e1 d63f 3840 003f 49b7 013f b20a 46bf
000000e0: ffad 39bf 5e00 0f3f 705f 953f 002f cebe
000000f0: e8f9 d93e 86aa 543e 99ee 3dbf 8dcf 2fbe

latent_engine.prior_mlp.0.weight f4 [64, 14]
0.012171708 -0.027101675 -0.024743706 -0.23763153 0.0342003 0.12825921 0.09058722 -0.14417809
0.08170437 0.15059492 0.30623055 -0.14442337 -0.27186316 -0.36461437 -0.11489602 0.15255727
0.1915039 0.09214877 0.12670425 0.20294505 -0.1838985 -0.26928633 0.032210413 -0.27519622
0.3387086 -0.109189264 -0.19882062 -0.49239552 -0.40030417 0.16294032 -0.072583854 -0.12571447
-0.053545233 -0.24301122 0.2779678 0.22586085 -0.22167298 0.23454899 -0.006849749 -0.03728759
0.107426845 0.22569911 0.21872137 0.27510023 -0.19254634 0.31480673 -0.060026642 0.09838027
-0.12520717 0.06145823 -0.07929818 0.14552729 0.20259057 0.20623864 0.32362583 0.09339134
-0.15325083 0.12106129 -0.11358862 -0.28789645 -0.04576047 -0.15161297 0.07254959 -0.1816269
0.14885658 -0.24517599 -0.3712082 -0.14234515 0.059072938 0.08484816 -0.06621562 0.122641586
-0.07346556 0.2355838 -0.1378977 0.20364319 -0.18373252 0.25468552 -0.12724356 -0.17311575
0.3475665 -0.113475405 -0.06286633 -0.2551179 -0.53855354 0.08333787 -0.33554858 -0.0007805617
0.24052083 0.017808316 0.10763273 -0.034813326 -0.08550565 -0.049150717 -0.16484627 -0.037191443
-0.07035328 0.37846035 0.11449214 0.16545182 -0.046774525 -0.05178008 0.10649125 0.058542546
-0.10991579 0.14329292 0.20030405 0.14762315 -0.07021609 -0.23697022 -0.17887698 0.33327073
0.36546028 -0.053875457 -0.19873565 -0.25882465 0.18050046 0.3226937 -0.13718194 0.04946946
0.057667155 -0.14740753 0.16584915 -0.17395985 0.041824088 -0.2377739 -0.023196582 0.098401465
-0.037423722 -0.015881404 0.058630444 -0.1988297 -0.19647868 -0.02362527 -0.23509945 -0.048071
-0.033374123 0.116956815 -0.32732978 -0.20531775 0.1293622 0.23884833 0.07871012 -0.14238094
-0.03451188 -0.13536036 -0.2550789 -0.14669786 -0.002590698 0.17596908 0.42252222 -0.057908773
-0.0033066357 -0.07686592 -0.29721382 -0.02083646 -0.09359186 -0.38810605 0.119702645 0.2756895
-0.2626822 -0.10065887 -0.3461794 0.11133585 0.0766976 -0.3972623 0.027446358 0.03556249
-0.39250126 0.15497869 -0.20494683 0.0862831 0.13649383 -0.072851434 0.14495714 -0.0918275
0.03176835 -0.2676635 -0.14554119 0.15779154 0.22250743 0.085825615 -0.27059546 0.15110937
-0.13486817 0.17605384 0.009666489 -0.008870637 0.16004391 0.031069241 -0.06010275 -0.14706622
-0.28718793 0.23622318 0.17429776 -0.19565797 0.28979024 -0.27298468 0.06791953 -0.15685265
0.11755067 -0.1832896 -0.23333175 0.21864167 0.02555555 0.16923162 0.2693099 -0.3216296
0.50245476 0.09781046 0.26068503 0.15709619 0.05673229 -0.14561218 -0.03196639 0.19341676
-0.21760707 -0.14758547 -0.08883559 0.067654006 -0.29684842 0.122676946 0.042759236 0.323048
-0.08968253 -0.26449212 0.08624959 0.027729727 0.107385665 -0.18244834 -0.3054934 0.1362537
0.2592598 -0.13119209 0.033621337 0.16403954 0.09868928 -0.4292642 -0.34949246 0.23651192
-0.23217498 0.05639852 0.16281879 -0.17169078 0.0963096 -0.12090162 0.1304667 0.14846371
0.14560512 0.14050317 0.05729356 -0.0025032028 0.1126935 -0.16114599 0.0540033 -0.2726882
00000000: d86b 473c 5504 debc 50b3 cabc ae55 73be
00000010: 9d15 0c3d 6256 033e cb85 b93d 6ca3 13be
00000020: 9f54 a73d 8e35 1a3e 40ca 9c3e b8e3 13be
00000030: a631 8bbe bcae babe 9b4e ebbd f937 1c3e
00000040: 9919 443e 7fb8 bc3d c2be 013e d4d0 4f3e
00000050: e34f 3cbe e6df 89be 11ef 033d 85e6 8cbe
00000060: 376b ad3e 9f9e dfbd a297 4bbe 441b fcbe
00000070: abf4 ccbe d4d9 263e d8a6 94bd 4bbb 00be
00000080: 3f52 5bbd efd7 78be cc51 8e3e 1148 673e
00000090: 3efe 62be 9c2d 703e dc73 e0bb dfba 18bd
000000a0: 9b02 dc3d ab1d 673e 7ff8 5f3e f0d9 8c3e
000000b0: de2a 45be 592e a13e 7fde 75bd 987b c93d
000000c0: 4f36 00be a0bb 7b3d 1667 a2bd 1b05 153e
000000d0: e773 4f3e 3930 533e 49b2 a53e f543 bf3d
000000e0: c9ed 1cbe fbee f73d 27a1 e8bd 2a67 93be
000000f0: 556f 3bbd 6e40 1bbe e194 943d 67fc 39be
00000100: dc6d 183e 6a0f 7bbe 000f bebe edc2 11be
00000110: 77f6 713d dfc4 ad3d 0e9c 87bd 832b fb3d
00000120: 1d75 96bd e13c 713e 0e35 0dbe d787 503e
00000130: 6124 3cbe 2466 823e 234c 02be 4145 31be
00000140: 3cf4 b13e cb65 e8bd 10c0 80bd d09e 82be
00000150: a5de 09bf 0cad aa3d 06cd abbe 9c9e 4cba
00000160: 184b 763e bfe2 913c 8c6e dc3d 6b98 0ebd
00000170: 961d afbd 4352 49bd 76cd 28be 0e56 18bd
00000180: 6115 90bd 8ec5 c13e db7a ea3d 346c 293e
00000190: a596 3fbd 5917 54bd 1618 da3d 4fca 6f3d
000001a0: 881b e1bd 61bb 123e 811c 4d3e 862a 173e
000001b0: 74cd 8fbd 52a8 72be 872b 37be 76a2 aa3e
000001c0: 9c1d bb3e 83ac 5cbd 5c81 4bbe aa84 84be
000001d0: 1dd5 383e 1c38 a53e 6c79 0cbe 7da0 4a3d
000001e0: 6534 6c3d 00f2 16be 5cd4 293e 8822 32be
000001f0: bc4f 2b3d 007b 73be c206 bebc b586 c93d
00000200: 9e49 19bd b819 82bc 7a26 703d 039a 4bbe
00000210: b531 49be c889 c1bc e9bd 70be 19e6 44bd
00000220: 4eb3 08bd 0e87 ef3d c597 a7be d13e 52be
00000230: 8677 043e a894 743e c532 a13d 4fcc 11be
00000240: 545c 0dbd e89b 0abe b499 82be f737 16be
00000250: b3c8 29bb 3d31 343e d554 d83e c031 6dbd
00000260: 24b4 58bb e16b 9dbd 692c 98be 39b1 aabc
00000270: 17ad bfbd d6b5 c6be a926 f53d 2d27 8d3e
00000280: 487e 86be 3d26 cebd 6d3e b1be 0d04 e43d
00000290: a213 9d3d f765 cbbe 2fd7 e03c f9a9 113d
000002a0: edf5 c8be bcb2 1e3e 95dd 51be 32b5 b03d
000002b0: 0ac5 0b3e 2233 95bd a56f 143e 0e10 bcbd
000002c0: 881f 023d 310b 89be c008 15be 1b94 213e
000002d0: fdd8 633e 57c5 af3d 7d8b 8abe 6abc 1a3e
000002e0: e21a 0abe 7547 343e 3260 1e3c 2656 11bc
000002f0: 8de2 233e ec84 fe3c 4d2e 76bd 8798 16be
00000300: 4c0a 93be 7de4 713e 1d7b 323e 905a 48be
00000310: 635f 943e a6c4 8bbe 6519 8b3d fb9d 20be
00000320: 68be f03d 45b0 3bbe 85ee 6ebe 9ae3 5f3e
00000330: df59 d13c 0e4b 2d3e fde2 893e a3ac a4be
00000340: e0a0 003f da50 c83d 8278 853e d3dd 203e
00000350: 1e60 683d 5c1b 15be 30ef 02bd 0b0f 463e
00000360: 63d4 5ebe a520 17be 6fef b5bd 2f8e 8a3d
00000370: 84fc 97be 0d3e fb3d 4f24 2f3d 8c66 a53e
00000380: 79ab b7bd 836b 87be a0a3 b03d 7429 e33c
00000390: 04ed db3d bdd3 3abe a269 9cbe 1786 0b3e
000003a0: b3bd 843e 3857 06be 87b6 093d fbf9 273e
000003b0: 9b1d ca3d 84c8 dbbe adf0 b2be 2e30 723e
000003c0: 47bf 6dbe 2202 673d f8b9 263e b5cf 2fbe
000003d0: f83d c53d 459b f7bd 1099 053e df06 183e
000003e0: 8219 153e 10e0 0f3e a7ac 6a3d c60c 24bb
000003f0: dacb e63d 7403 25be 9032 5d3d ca9d 8bbe

latent_engine.prior_mlp.0.bias f4 [64]
0.15992588 0.23372439 -0.060177322 0.03032165 -0.13476877 0.110619664 -0.017904866 0.087226644
-0.33955246 0.11127854 -0.16821034 -0.05752701 0.092749394 0.072307564 -0.09896361 0.08797191
0.0931358 -0.10858664 0.016555859 0.004504601 -0.20979542 -0.08299565 -0.2377159 0.027890978
-0.24727145 -0.20622633 0.060593743 0.022249103 -0.24330017 -0.059859715 -0.11620431 0.007682842
0.13984469 0.16716132 0.0692205 -0.073501594 -0.01594416 -0.32664353 -0.10198607 -0.30346972
0.18764603 0.06789287 0.13270731 -0.09861921 -0.31150424 0.003966431 0.17506945 -0.07744125
-0.13878088 -0.21272464 0.10073189 0.05634061 -0.026366524 -0.3007516 -0.0026295085 0.062049087
-0.08112106 -0.056346644 -0.07365775 -0.102391124 -0.22700416 0.12418542 0.10717898 -0.11364198
00000000: 9cc3 233e 7255 6f3e 7f7c 76bd 1c65 f83c
00000010: d300 0abe 908c e23d 3aad 92bc e2a3 b23d
00000020: d2d9 adbe 01e6 e33d 553f 2cbe 71a1 6bbd
00000030: 65f3 bd3d fd15 943d 6fad cabd 9e2a b43d
00000040: fbbd be3d ac62 debd 27a0 873c 559b 933b
00000050: 9cd4 56be a0f9 a9bd cc6b 73be 9f7b e43c
00000060: ba34 7dbe ff2c 53be 2531 783d c043 b63c
00000070: ae23 79be 762f 75bd 86fc edbd 5ac0 fb3b
00000080: 7233 0f3e 562c 2b3e 7ac3 8d3d 0188 96bd
00000090: 549d 82bc d23d a7be 13de d0bd 6260 9bbe
000000a0: 4826 403e 6b0b 8b3d 6de4 073e def8 c9bd
000000b0: 7c7d 9fbe d6f8 813b 6845 333e 8599 9ebd
000000c0: 931c 0ebe 7dd4 59be 854c ce3d 69c5 663d
000000d0: 9cfe d7bc 1dfc 99be d553 2cbb 2f27 7e3d
000000e0: cc22 a6bd bdcb 66bd e0d9 96bd 70b2 d1bd
000000f0: c773 68be ed54 fe3d a780 db3d 20bd e8bd

latent_engine.prior_mlp.3.weight f4 [64, 64]
-0.14021987 -0.073534586 -0.05134684 0.07394913 0.10178794 0.12787834 0.1740001 -0.05180084
0.16524214 -6.169845e-05 -0.14690335 -0.10690314 -0.16063279 -0.018431326 -0.105152294 0.056324005
0.07078845 0.039653584 0.046208374 0.037608072 -0.12036364 0.046646506 -0.007948783 -0.031672686
-0.037483744 0.051394697 0.1263764 -0.14759038 -0.020023867 -0.01184765 -0.21139179 -0.12672634
0.09415136 -0.01294046 0.009596698 0.21626203 0.06936031 -0.19904985 -0.17444538 -0.13037553
0.10223336 -0.0035733962 0.017367152 0.0041360557 -0.19199401 0.12979625 0.13809928 0.0010977867
0.033974092 -0.14033623 0.013277927 0.005797053 0.38519448 0.038713563 -0.08078998 -0.07698568
0.0062604984 0.17103125 -0.034691676 -0.017833488 0.24651569 0.0071114535 -0.14243522 0.041929774
0.031381585 0.09996734 -0.3313179 -0.028501779 -0.20791294 0.11433194 -0.39119652 -0.024226278
-0.24503258 0.056071576 0.1140015 0.17042753 -0.09616477 -0.089257844 0.06421081 -0.12728797
0.034421418 -0.051085602 0.10393207 0.074530564 -0.038124874 -0.07769755 0.12007904 0.15284948
-0.075303935 0.12691732 0.15308896 -0.109410755 0.061010323 0.04625754 -0.05017342 0.09477541
-0.06566737 0.09658878 0.04040059 0.014617333 -0.117559 0.10591428 0.115841076 0.12316164
-0.2831358 0.04648595 -0.030685877 0.025797237 0.15848836 -0.045001872 -0.05836757 -0.083999194
-0.08047225 0.14137413 -0.14038844 0.023262512 -0.5412042 -0.22745784 0.07036209 -0.0224363
-0.12565544 -0.10936548 -0.13921925 -0.19506258 0.011431238 0.052431133 -0.039185725 -0.057249043
-0.017559886 0.04026602 -0.12755953 -0.11284978 0.12884246 -0.0804208 -0.23860078 -0.03700415
-0.3277625 0.11540819 0.08070741 -0.19557647 -0.23014729 0.04760861 -0.2282567 0.13420792
0.014964644 -0.21185298 -0.029642109 -0.009789059 0.20005244 0.17676 0.088008486 0.053996995
0.27854073 0.17108938 -0.13952321 0.23356928 -0.08593031 0.08794981 0.035409153 -0.29643103
0.1366436 0.01187304 -0.0098406095 -0.3143451 -0.13932233 -0.19311155 0.03526469 -0.18695602
-0.09413107 -0.032196056 -0.32919788 -0.38602835 0.08691752 -0.095295995 -0.12493602 0.011396177
-0.012287184 -0.03008089 -0.05180032 -0.11740622 -0.047294606 -0.23774478 -0.0722762 -0.20917374
-0.18511423 0.17012791 0.12398953 -0.1411909 -0.13617612 -0.2074678 -0.18804798 -0.06670532
0.024557842 0.14864895 -0.44780287 -0.014618782 -0.19025205 0.09995468 -0.34039214 0.11798637
-0.13982841 0.13200477 0.09601037 0.0845073 -0.17792177 -0.0032174157 0.12683883 0.004620084
0.06869675 -0.14148177 0.03434621 0.11104218 0.13466807 -0.24464473 0.06830919 0.076992
0.03315417 0.1716683 -0.053616405 -0.0195945 0.16409488 0.08671042 -0.043304224 -0.009841859
-0.120225765 -0.052418817 0.02822187 -0.032926258 -0.06840149 0.16543096 0.1969721 -0.062927164
-0.056131568 -0.08041656 -0.042654514 0.08717578 0.20548564 0.052549925 0.014429966 0.01931535
-0.06933565 -0.18634501 0.07330227 -0.16310155 -0.1362551 -0.14283685 0.11285506 0.014334774
0.12586206 0.05160207 0.068425186 -0.21827427 -0.11757654 -0.12182512 -0.007737394 0.07337319
00000000: cc95 0fbe 4d99 96bd 1051 52bd a472 973d
00000010: 3276 d03d 8af2 023e 152d 323e 1e2d 54bd
00000020: 3c35 293e 1a64 81b8 d56d 16be 09f0 dabd
00000030: ec7c 24be 4bfd 96bc 165a d7bd 00b4 663d
00000040: 89f9 903d cc6b 223d fe44 3d3d ec0a 1a3d
00000050: 3681 f6bd 6810 3f3d 9d3b 02bc 38bb 01bd
00000060: 8e88 19bd 3f83 523d d168 013e ef21 17be
00000070: 1809 a4bc a51c 42bc 1777 58be 8dc4 01be
00000080: 6ed2 c03d 3904 54bc 783b 1d3c cb73 5d3e
00000090: c70c 8e3d b9d3 4bbe cfa1 32be 2a81 05be
000000a0: b95f d13d a42f 6abb 8f45 8e3c c087 873b
000000b0: 149a 44be 4fe9 043e e669 0d3e 9ce3 8f3a
000000c0: 6b28 0b3d 4db4 0fbe aa8b 593c 35f5 bd3b
000000d0: 3638 c53e 1d92 1e3d 3875 a5bd abaa 9dbd
000000e0: de24 cd3b d122 2f3e dc18 0ebd 8917 92bc
000000f0: 9c6e 7c3e 3207 e93b 8ada 11be 8ebe 2b3d
00000100: fa89 003d adbb cc3d 80a2 a9be 907c e9bc
00000110: 21e7 54be dd26 ea3d e94a c8be 3076 c6bc
00000120: d2e9 7abe 4fab 653d 9e79 e93d 8e84 2e3e
00000130: 09f2 c4bd d1cc b6bd f580 833d c757 02be
00000140: 79fd 0c3d 233f 51bd 56da d43d 7ba3 983d
00000150: d428 1cbd e51f 9fbd 00ec f53d 9384 1c3e
00000160: f338 9abd 9df6 013e 5ac3 1c3e bf12 e0bd
00000170: f6e5 793d 8c78 3d3d a582 4dbd 9c19 c23d
00000180: 9d7c 86bd 57d0 c53d 177b 253d 8a7d 6f3c
00000190: c6c2 f0bd 96e9 d83d 163e ed3d 2b3c fc3d
000001a0: 2df7 90be 0d68 3e3d f360 fbbc ba54 d33c
000001b0: c64a 223e e253 38bd d512 6fbd c507 acbd
000001c0: a3ce a4bd 61c4 103e fdc1 0fbe 0691 be3c
000001d0: 5c8c 0abf b5ea 68be 001a 903d 55cc b7bc
000001e0: d2ab 00be 02fb dfbd 7e8f 0ebe 7cbe 47be
000001f0: 164a 3b3c 07c2 563d 3681 20bd f97d 6abd
00000200: c0d9 8fbc fbed 243d f79e 02be c91d e7bd
00000210: 47ef 033e a9b3 a4bd c353 74be aa91 17bd
00000220: 7dd0 a7be 215b ec3d ed49 a53d 3345 48be
00000230: bbab 6bbe 3f01 433d 20bc 69be cd6d 093e
00000240: 442e 753c fdef 58be 02d4 f2bc 4a62 20bc
00000250: 8cda 4c3e 9300 353e cb3d b43d f42b 5d3d
00000260: e49c 8e3e 0e32 2f3e 2cdf 0ebe c92c 6f3e
00000270: 3bfc afbd 081f b43d 3009 113d cfc5 97be
00000280: 4dec 0b3e 2487 423c 823a 21bc d7f1 a0be
00000290: 83aa 0ebe 09bf 45be b571 103d 6671 3fbe
000002a0: cac7 c0bd 03e0 03bd a08c a8be 82a5 c5be
000002b0: d001 b23d 8c2a c3bd 75de ffbd 08b7 3a3c
000002c0: 2f50 49bc 336c f6bc 932c 54bd ac72 f0bd
000002d0: fdb7 41bd 5e73 73be 8b05 94bd a431 56be
000002e0: 968e 3dbe 0336 2e3e 39ee fd3d 5994 10be
000002f0: c171 0bbe 7072 54be a68f 40be cc9c 88bd
00000300: 872d c93c 6e37 183e 6b46 e5be 9e83 6fbc
00000310: 6fd1 42be 0ab5 cc3d e147 aebe d7a2 f13d
00000320: 2e2f 0fbe 422c 073e 16a1 c43d 2a12 ad3d
00000330: 2031 36be 47db 52bb 0ae2 013e 1364 973b
00000340: e2b0 8c3d 99e0 10be 9dae 0c3d 156a e33d
00000350: 6de6 093e 2684 7abe b0e5 8b3d fbad 9d3d
00000360: abcc 073d d1c9 2f3e e09c 5bbd a584 a0bc
00000370: 7d08 283e 3c95 b13d c55f 31bd c03f 21bc
00000380: ed38 f6bd 1db5 56bd 8d31 e73c afdd 06bd
00000390: 1516 8cbd bc66 293e 0eb3 493e f5df 80bd
000003a0: 37ea 65bd 70b1 a4bd 80b6 2ebd 3789 b23d
000003b0: d46a 523e 973e 573d aa6b 6c3c 3a3b 9e3c
000003c0: d9ff 8dbd 3ad1 3ebe 801f 963d 1804 27be
000003d0: 7586 0bbe d343 12be 8e20 e73d 66dc 6a3c
000003e0: fce1 003e b15c 533d 8122 8c3d 4a83 5fbe
000003f0: f8cb f0bd 737f f9bd f789 fdbb af44 963d

latent_engine.prior_mlp.3.bias f4 [64]
0.09511322 0.14655763 -0.037118297 0.051407482 -0.116363175 0.23744297 0.108385846 0.057843927
-0.03391974 0.15426105 -0.03166304 0.09899961 0.13840401 0.043644037 0.18772897 -0.013941078
-0.11644095 0.13687408 -0.076576635 -0.08019032 0.08789672 0.056847088 -0.050854288 0.014745895
-0.0066068736 0.08026475 0.056366894 0.113788135 0.022055602 -0.1809333 0.047978546 0.148695
0.06556039 -0.08744175 0.010315934 -0.1533453 -0.018942032 -0.00963369 0.030896831 0.05843119
0.0019440545 -0.15050563 -0.12509301 0.15513028 0.06770993 0.14218189 -0.023306476 0.072993904
-0.12911 -0.02812164 -0.22991051 -0.026733786 -0.01898221 0.18407774 -0.08455979 -0.071437865
0.055310097 -0.0586399 0.19739228 -0.12139554 0.067126445 -0.10880377 0.06732918 -0.0016057182
00000000: b8ca c23d 3413 163e 5b09 18bd a790 523d
00000010: d14f eebd 4024 733e 66f9 dd3d c1ed 6c3d
00000020: 6def 0abd 9cf6 1d3e 1bb1 01bd 4fc0 ca3d
00000030: c8b9 0d3e 17c4 323d 063c 403e 1f69 64bc
00000040: 9878 eebd b828 0c3e 36d4 9cbd d33a a4bd
00000050: 3203 b43d 7ed8 683d 964c 50bd c498 713c
00000060: 797e d8bb d861 a43d f9e0 663d c109 e93d
00000070: f3ad b43c 9446 39be 2785 443d 8143 183e
00000080: 8744 863d a914 b3bd 2a04 293c 8d06 1dbe
00000090: 522c 9bbc a0d6 1dbc 5a1b fd3c 8b55 6f3d
000000a0: a5cf fe3a 261e 1abe 6218 00be 79da 1e3e
000000b0: 81ab 8a3d 2198 113e 39ed bebc d47d 953d
000000c0: 6935 04be 5b5f e6bc a96d 6bbe d000 dbbc
000000d0: 9480 9bbc e07e 3c3e af2d adbd 044e 92bd
000000e0: d78c 623d 6430 70bd 3421 4a3e 3a9e f8bd
000000f0: 9779 893d 83d4 debd e2e3 893d f676 d2ba

latent_engine.mu_head.weight f4 [1, 64]
0.12628531 -0.14448112 -0.23351602 -0.14627908 0.17949589 -0.07367586 -0.2784568 -0.43154934
-0.13843529 0.18467914 0.28018776 0.13964832 -0.060794707 -0.3006605 -0.14192352 -0.2680344
-0.018967845 0.17299251 -0.08389316 -0.2258308 0.15139487 -0.17360608 0.13243704 -0.14898016
0.19155028 -0.1762742 0.15389812 0.13569005 -0.060095925 0.034394246 0.17181528 -0.23688215
-0.18810277 0.009576958 -0.14707224 0.037953086 0.2782656 -0.26908273 -0.3704544 -0.17539233
-0.13180876 -0.16900869 -0.13197574 0.057720505 -0.14804676 -0.2331761 0.09225775 -0.07759001
0.19968231 -0.07064001 0.12680213 -0.19593504 -0.27362815 -0.13933426 -0.2011563 0.020669576
0.14925085 -0.46343032 -0.04414924 -0.009977526 0.09771967 -0.0727283 0.15118279 0.11807736
00000000: f050 013e dcf2 13be d31e 6fbe 2fca 15be
00000010: c5cd 373e 5fe3 96bd e491 8ebe 09f4 dcbe
00000020: fbc1 0dbe 871c 3d3e c574 8f3e f8ff 0e3e
00000030: df03 79bd 2cf0 99be 6654 11be ce3b 89be
00000040: 7462 9bbc f324 313e 2dd0 abbd 3040 67be
00000050: 4207 1b3e cbc5 31be 939d 073e 418e 18be
00000060: c225 443e 3981 34be 7897 1d3e 55f2 0a3e
00000070: 2527 76bd fbe0 0c3d 58f0 2f3e 3c91 72be
00000080: 039e 40be ace8 1c3c 1b9a 16be b274 1b3d
00000090: d478 8e3e 36c5 89be 33ac bdbe 0c9a 33be
000000a0: e0f8 06be 9d10 2dbe a624 07be 566c 6c3d
000000b0: 9299 17be b7c5 6ebe a2f1 bc3d 83e7 9ebd
000000c0: 8579 4c3e b6ab 90bd 6bd8 013e 32a3 48be
000000d0: fd18 8cbe a4ad 0ebe ebfb 4dbe 3e53 a93c
000000e0: 37d5 183e bd46 edbe d5d5 34bd c778 23bc
000000f0: 4021 c83d 93f2 94bd a9cf 1a3e 8bd2 f13d

latent_engine.logvar_head.weight f4 [1, 64]
0.08525182 -0.11838821 0.07531043 -0.13666071 0.10278706 -0.15895359 -0.055936757 -0.20358202
-0.079195924 -0.036356278 0.029823273 0.012580026 -0.17748965 -0.05110538 -0.1615422 0.0031025792
0.06020131 -0.13644618 -0.037472103 -0.006205875 -0.09078622 -0.14141819 0.05220195 -0.14152755
-0.00068844075 -0.04343445 0.060829256 -0.040139437 -0.022022473 0.18408868 -0.009699153 -0.04749342
-0.06878191 -0.012439247 -0.093842916 0.03697555 0.1177107 0.048736405 -0.033026673 -0.065570496
-0.04041719 0.044894084 -0.0008966162 -0.082217574 -0.10856914 0.02645194 0.032393217 -0.05893421
0.14175816 -0.049745932 0.02673172 -0.21236949 0.0866301 -0.08993543 0.038482692 -0.02087756
-0.09692323 -0.20783642 -0.16314827 -0.086570114 0.013125651 0.07577671 0.08387807 -0.086697824
00000000: 8298 ae3d 8575 f2bd 5b3c 9a3d c9f0 0bbe
00000010: 0682 d23d bbc4 22be f11d 65bd ce77 50be
00000020: 7931 a2bd 52ea 14bd f04f f43c 741c 4e3c
00000030: d9bf 35be e053 51bd 526b 25be a454 4b3b
00000040: a695 763d 8cb8 0bbe 597c 19bd a75a cbbb
00000050: 20ee b9bd eecf 10be b6d1 553d 99ec 10be
00000060: 7a78 34ba 52e8 31bd 1928 793d 4069 24bd
00000070: 7968 b4bc be81 3c3e 32e9 1ebc 7688 42bd
00000080: 88dd 8cbd fccd 4bbc b730 c0bd ad73 173d
00000090: 4f12 f13d d39f 473d fa46 07bd d349 86bd
000000a0: 7f8c 25bd dce2 373d e50a 6bba b061 a8bd
000000b0: 7f59 debd bdb1 d83c c0ae 043d 0065 71bd
000000c0: 0d29 113e 64c2 4bbd 7bfc da3c 6377 59be
000000d0: 1f6b b13d 1130 b8bd 07a0 1d3d 6b07 abbc
000000e0: b07f c6bd 12d3 54be 5710 27be ac4b b1bd
000000f0: f80c 573c d230 9b3d 44c8 ab3d a18e b1bd

fusion_layer.alpha_s f4 [34]
0.397201 0.4743873 0.29486856 0.15489343 0.28060415 0.98813957 0.8866211 1.0153552
0.5118588 0.98185176 0.620861 0.97435826 0.9074524 0.89938194 2.1101584 1.2533078
0.66088927 0.56841177 0.8130792 0.33198383 0.6967026 1.1940856 0.9114199 0.8713248
1.033715 0.7109823 0.30536726 0.62899554 1.0131737 0.7530511 1.0093716 0.5445192
0.5 0.8302554
00000000: ee5d cb3e e4e2 f23e 03f9 963e 629c 1e3e
00000010: 59ab 8f3e b7f6 7c3f 9af9 623f 29f7 813f
00000020: 2e09 033f a35a 7b3f bff0 1e3f 8b6f 793f
00000030: cd4e 683f e53d 663f d60c 0740 646c a03f
00000040: 0a30 293f 6f83 113f f525 503f c9f9 a93e
00000050: 1a5b 323f ccd7 983f d152 693f 240f 5f3f
00000060: c650 843f f002 363f 1959 9c3e da05 213f
00000070: adaf 813f f5c7 403f 1733 813f 9c65 0b3f
00000080: 0000 003f 9e8b 543f

fusion_layer.g_s f4 [34]
0.13859911 0.29176688 0.3872399 -0.05244122 0.3623509 0.6179613 0.16427742 0.099171884
0.24825653 0.6969736 0.5065844 0.35391194 0.8978353 0.27564612 -1.11549 0.47249478
0.18989386 -0.25982147 0.2558381 0.11616349 0.15534945 0.3443071 0.23774077 0.47326842
0.013319392 0.54252696 -0.43753102 -0.11277978 0.28664997 0.156799 0.009107385 0.22636218
0.5 0.08907129
00000000: edec 0d3e 7862 953e 4f44 c63e 9bcc 56bd
00000010: 0f86 b93e b632 1e3f 5738 283e a11a cb3d
00000020: f636 7e3e dd6c 323f 84af 013f f233 b53e
00000030: 89d8 653f 7d21 8d3e 60c8 8ebf d6ea f13e
00000040: 8973 423e 5207 85be 36fd 823e 20e7 ed3d
00000050: ed13 1f3e 0549 b03e 5172 733e 3d50 f23e
00000060: 9439 5a3c 0ce3 0a3f 1104 e0be 16f9 e6bd
00000070: c9c3 923e eb8f 203e 2437 153c 7dcb 673e
00000080: 0000 003f 026b b63d
